Assets/results/ChaserRun2/My Behavior/checkpoint.pt (torch, 150818 bytes, 13 tensors)

network_body._body_endoder.seq_layers.0.weight f4 [128, 6]
0	0x3c4c9438	0.01248651
1	0xbec8d402	-0.3922425
2	0xbe043ee6	-0.12914619
3	0x3ea5ee05	0.32408157
4	0x3f173240	0.5906105
5	0xbca79380	-0.020456076
6	0xbcbd53b1	-0.023111196
7	0xbd9b22f6	-0.07575028
8	0xbeca50e1	-0.3951483
9	0xbf0ea4ac	-0.5572002
10	0x3e63fc24	0.22264153
11	0x3ecbfcb5	0.39841238
12	0xbe6cb291	-0.23114993
13	0x3e337759	0.17525996
14	0xbe181280	-0.14850807
15	0xbec2be20	-0.3803568
16	0x3e2494e3	0.16072421
17	0xbf125f36	-0.5717653
18	0x3f0c7a25	0.5487388
19	0x3e1ca9d5	0.15299161
20	0x3d7332a5	0.05937447
21	0xbf72f4b6	-0.9490465
22	0xbf27a4f1	-0.65486056
23	0xbe0e2928	-0.13882887
24	0x3e864023	0.26220807
25	0x3dad923a	0.08475156
26	0xbed80b2c	-0.42196023
27	0x3eca5688	0.39519143
28	0xbec59194	-0.3858763
29	0xbebe595f	-0.3717756
30	0xbc9d868f	-0.019229202
31	0xbf3167d3	-0.6929905
32	0x3e28a780	0.16470146
33	0xbe9cea1d	-0.30647364
34	0x3e5b30e8	0.21405375
35	0xbecd2c93	-0.4007307
36	0xbdc60adc	-0.0967004
37	0x3d65d9de	0.056115977
38	0x3e141224	0.14460045
39	0x3e87d92d	0.2653288
40	0xbe1df0a4	-0.15423828
41	0xbeecbd6e	-0.46238273
42	0xbcc8241e	-0.024431285
43	0x3ec13a8d	0.37739983
44	0xbe84de7f	-0.25951
45	0xbe0a4f76	-0.13506874
46	0x3e007469	0.12544407
47	0xbcecc98d	-0.0289047
48	0xbe837cf1	-0.2568126
49	0xbe3c85d8	-0.18410432
50	0x3ed83e8c	0.4223522
51	0xbc33ad25	-0.010966574
52	0x3ee02c2a	0.43783695
53	0x3e195d3f	0.14976977
54	0x3f6b79d1	0.9198275
55	0x3f57d593	0.84310263
56	0xbeb62909	-0.35578182
57	0xbd89a6d2	-0.067212716
58	0xbf05f3af	-0.52324957
59	0x3d8da37f	0.0691595
60	0x3eb3cb1f	0.35115907
61	0xbc835602	-0.016032223
62	0xbe092bfe	-0.13395688
63	0xbe830a58	-0.2559383
64	0xbd672945	-0.056435842
65	0x3eda4f50	0.42638636
66	0xbe990222	-0.2988444
67	0xbf0aa5bb	-0.54159135
68	0x3ec04148	0.37549806
69	0xbe25bc72	-0.16185167
70	0x3f36e49c	0.7144258
71	0x3f32d677	0.698585
72	0xbe91558a	-0.28385574
73	0xbe3ce02c	-0.1844489
74	0xbf28a947	-0.65883297
75	0xbc74668f	-0.01491703
76	0xbcd1c017	-0.02560429
77	0xbea1bcf0	-0.3158946
78	0xbecd2e83	-0.40074548
79	0xbadb13ff	-0.0016714333
80	0x3f8a77b6	1.0817783
81	0xbde9ad93	-0.1141006
82	0x3e03205b	0.12805311
83	0xbe71c8c4	-0.23611742
84	0x3e957298	0.2918899
85	0x3d84945f	0.06473612
86	0xbdf98444	-0.12183431
87	0xbea30ad6	-0.31844205
88	0xbf00ffc1	-0.5039025
89	0x3ecc46e4	0.39897835
90	0xbf1e2ae1	-0.6178418
91	0xbd32273b	-0.043494444
92	0xbee71df9	-0.45140055
93	0xbf01211b	-0.5044114
94	0xbebf4658	-0.37358356
95	0x3e787293	0.24262457
96	0xbeec369d	-0.46135417
97	0xbe7190a6	-0.23590335
98	0xbda86847	-0.08223014
99	0x3e88067d	0.2656745
100	0x3f2677da	0.6502663
101	0xbe6ea631	-0.23305584
102	0xbf9d8859	-1.2307235
103	0x3da7f49a	0.08200951
104	0x3eb2d1c7	0.34925672
105	0xbcc43535	-0.023951152
106	0xbdb15b57	-0.0866
107	0xbec4a062	-0.38403612
108	0x3e28311f	0.16424988
109	0x3ea5d1c7	0.3238661
110	0xbe740472	-0.23829821
111	0xbf21eab1	-0.63248736
112	0x3f0c2e79	0.5475841
113	0xbf04a7d8	-0.5181861
114	0xbef2c3f9	-0.4741514
115	0xbd121247	-0.035661962
116	0xbe551107	-0.20807277
117	0xbd37a03b	-0.044830542
118	0x3e071cd5	0.13194592
119	0x3f474f1c	0.77855086
120	0x3df433c7	0.11923938
121	0x3ed965c0	0.42460442
122	0xbd1a445b	-0.037662845
123	0x3df98c25	0.121849336
124	0xbe1a85ce	-0.15090105
125	0x3ec1e277	0.3786809
126	0xbeba95e6	-0.36442488
127	0xbf480933	-0.78139037
128	0x3dec8a87	0.115498595
129	0xbe91ff50	-0.285151
130	0xbc900641	-0.017581107
131	0x3eab9a79	0.3351629
132	0xbe91a74a	-0.28447944
133	0x3de3d164	0.111239225
134	0xbf2ce5d0	-0.67538166
135	0xbebe1fa9	-0.3713353
136	0xbdb07d0c	-0.08617601
137	0x3f3be1ec	0.73391604
138	0x3f4d4c5e	0.8019465
139	0xbdf167b1	-0.11787356
140	0x3ee91f17	0.45531532
141	0xbecbe742	-0.39824873
142	0x3eba6627	0.3640606
143	0xbe8e5d7d	-0.278057
144	0x3f127606	0.5721134
145	0xbe2d3209	-0.16913618
146	0x3f542c40	0.8288002
147	0x3e13fd12	0.14452007
148	0xbe94cf1a	-0.29064256
149	0x3f2eed42	0.68330777
150	0x3d82b1a0	0.063815355
151	0x3e291647	0.16512404
152	0x3f206d0d	0.626664
153	0x3ea40d2f	0.32041308
154	0xbd6888dc	-0.056771144
155	0x3f3ae6d7	0.73008484
156	0xbc2c951e	-0.010533599
157	0xbf01476e	-0.5049962
158	0x3e957810	0.29193163
159	0xbd9d0ae2	-0.07668091
160	0x3e773679	0.24141873
161	0xbe7c33e0	-0.24629164
162	0xbda548a4	-0.08070496
163	0xbe34a135	-0.1763962
164	0x3f352ac1	0.7076836
165	0xbe9aea8d	-0.30257073
166	0x3d869e1a	0.06573124
167	0x3ae7768d	0.0017659232
168	0xbebd7988	-0.37006783
169	0xbf0b1e79	-0.5434337
170	0x3d7e5ff9	0.062103245
171	0x3f25401f	0.64550966
172	0xbd725960	-0.059167266
173	0x3e286fbf	0.16448878
174	0xbf3e8463	-0.74420756
175	0xbea57c0f	-0.32321212
176	0x3da1b792	0.078963414
177	0x3ea19b2e	0.31563705
178	0x3eff2418	0.49832225
179	0xbef1ea01	-0.47248843
180	0x3f3ef6e9	0.74595505
181	0xbcdca413	-0.026933705
182	0xbf09e4b2	-0.53864586
183	0xbf2e4766	-0.68077695
184	0x3e8a7cc3	0.2704831
185	0x3eec2bb4	0.46127093
186	0xbf55fa43	-0.83584994
187	0x3ee63d35	0.44968572
188	0xbe180d09	-0.14848723
189	0xbf32f9a4	-0.6991217
190	0xbee77688	-0.4520762
191	0x3e6b47ee	0.22976658
192	0x3d3dcb16	0.046336256
193	0x3ef156e7	0.47136614
194	0xbeaaf443	-0.33389482
195	0xbd8c191d	-0.068407275
196	0xbe097a79	-0.13425626
197	0x3e81e196	0.2536742
198	0xbeb3fc5d	-0.35153475
199	0xbdf6c5a5	-0.120494165
200	0xbf29e3f1	-0.66363436
201	0xbe989bd0	-0.29806376
202	0x3f8b954b	1.0904936
203	0xbc97caac	-0.018529259
204	0x3ea0d74e	0.31414264
205	0xbd385d4d	-0.045010854
206	0x3ce60eda	0.028083254
207	0xbe294a6c	-0.16532296
208	0xbe5872ee	-0.21137592
209	0x3ea61e48	0.32444978
210	0x3e3d04d1	0.18458869
211	0x3f08d90e	0.534562
212	0x3ece5c6d	0.4030489
213	0x3f475d6d	0.7787693
214	0x3e6d564a	0.23177448
215	0xbe3afd76	-0.1826075
216	0x3df48463	0.11939313
217	0xbee1a62c	-0.44072092
218	0x3d3bf3db	0.045886856
219	0x3e7cf511	0.2470286
220	0xbe594ba4	-0.21220261
221	0x3ee01a25	0.43769947
222	0x3d1c9fe4	0.03823842
223	0x3f0c1139	0.5471378
224	0x3eadbd0b	0.3393329
225	0xbe8c42b5	-0.27394643
226	0xbd9028fc	-0.07039067
227	0x3ed6068d	0.41801873
228	0x3e5842f8	0.21119297
229	0x3c5ab547	0.013348884
230	0xbee0ac37	-0.4388139
231	0x3ed0b21f	0.40760896
232	0xbe694fbf	-0.22784327
233	0xbe0aa183	-0.13538174
234	0xbdc1c0a0	-0.094605684
235	0x3e30e8aa	0.17276254
236	0xbe6b339c	-0.22968906
237	0xbeef099d	-0.46687022
238	0xbec57d59	-0.38572195
239	0xbeb49eed	-0.352775
240	0xbc427d07	-0.011870629
241	0xbebd23e1	-0.36941436
242	0x3d2745df	0.04083812
243	0xbe5fbc7c	-0.21849245
244	0xbdcdda7b	-0.100514375
245	0x3ec27a38	0.3798387
246	0xbf716136	-0.9428896
247	0xbcd6cad5	-0.026219765
248	0x3f19edc8	0.6012845
249	0xbd180864	-0.037117377
250	0xbdee21c3	-0.11627533
251	0xbd89115e	-0.06692766
252	0x3e3da30b	0.18519227
253	0xbe5f784a	-0.2182323
254	0xbec76d2e	-0.38950485
255	0xbe46b781	-0.19405939

network_body._body_endoder.seq_layers.0.bias f4 [128]
0	0x00000000	0.0
1	0x00000000	0.0
2	0x00000000	0.0
3	0x00000000	0.0
4	0x00000000	0.0
5	0x00000000	0.0
6	0x00000000	0.0
7	0x00000000	0.0
8	0x00000000	0.0
9	0x00000000	0.0
10	0x00000000	0.0
11	0x00000000	0.0
12	0x00000000	0.0
13	0x00000000	0.0
14	0x00000000	0.0
15	0x00000000	0.0
16	0x00000000	0.0
17	0x00000000	0.0
18	0x00000000	0.0
19	0x00000000	0.0
20	0x00000000	0.0
21	0x00000000	0.0
22	0x00000000	0.0
23	0x00000000	0.0
24	0x00000000	0.0
25	0x00000000	0.0
26	0x00000000	0.0
27	0x00000000	0.0
28	0x00000000	0.0
29	0x00000000	0.0
30	0x00000000	0.0
31	0x00000000	0.0
32	0x00000000	0.0
33	0x00000000	0.0
34	0x00000000	0.0
35	0x00000000	0.0
36	0x00000000	0.0
37	0x00000000	0.0
38	0x00000000	0.0
39	0x00000000	0.0
40	0x00000000	0.0
41	0x00000000	0.0
42	0x00000000	0.0
43	0x00000000	0.0
44	0x00000000	0.0
45	0x00000000	0.0
46	0x00000000	0.0
47	0x00000000	0.0
48	0x00000000	0.0
49	0x00000000	0.0
50	0x00000000	0.0
51	0x00000000	0.0
52	0x00000000	0.0
53	0x00000000	0.0
54	0x00000000	0.0
55	0x00000000	0.0
56	0x00000000	0.0
57	0x00000000	0.0
58	0x00000000	0.0
59	0x00000000	0.0
60	0x00000000	0.0
61	0x00000000	0.0
62	0x00000000	0.0
63	0x00000000	0.0
64	0x00000000	0.0
65	0x00000000	0.0
66	0x00000000	0.0
67	0x00000000	0.0
68	0x00000000	0.0
69	0x00000000	0.0
70	0x00000000	0.0
71	0x00000000	0.0
72	0x00000000	0.0
73	0x00000000	0.0
74	0x00000000	0.0
75	0x00000000	0.0
76	0x00000000	0.0
77	0x00000000	0.0
78	0x00000000	0.0
79	0x00000000	0.0
80	0x00000000	0.0
81	0x00000000	0.0
82	0x00000000	0.0
83	0x00000000	0.0
84	0x00000000	0.0
85	0x00000000	0.0
86	0x00000000	0.0
87	0x00000000	0.0
88	0x00000000	0.0
89	0x00000000	0.0
90	0x00000000	0.0
91	0x00000000	0.0
92	0x00000000	0.0
93	0x00000000	0.0
94	0x00000000	0.0
95	0x00000000	0.0
96	0x00000000	0.0
97	0x00000000	0.0
98	0x00000000	0.0
99	0x00000000	0.0
100	0x00000000	0.0
101	0x00000000	0.0
102	0x00000000	0.0
103	0x00000000	0.0
104	0x00000000	0.0
105	0x00000000	0.0
106	0x00000000	0.0
107	0x00000000	0.0
108	0x00000000	0.0
109	0x00000000	0.0
110	0x00000000	0.0
111	0x00000000	0.0
112	0x00000000	0.0
113	0x00000000	0.0
114	0x00000000	0.0
115	0x00000000	0.0
116	0x00000000	0.0
117	0x00000000	0.0
118	0x00000000	0.0
119	0x00000000	0.0
120	0x00000000	0.0
121	0x00000000	0.0
122	0x00000000	0.0
123	0x00000000	0.0
124	0x00000000	0.0
125	0x00000000	0.0
126	0x00000000	0.0
127	0x00000000	0.0

network_body._body_endoder.seq_layers.2.weight f4 [128, 128]
0	0xbdecdc02	-0.11565401
1	0xbdadc300	-0.08484459
2	0xbcdbc5d0	-0.026827723
3	0x3c39c5ee	0.011338694
4	0x3dcf15f3	0.10111608
5	0xbda9ff1f	-0.083006136
6	0x3c64a526	0.01395539
7	0xbe1a2ddf	-0.15056561
8	0x3cc75e31	0.024336906
9	0xbcda773b	-0.026668182
10	0xbd4981d8	-0.049196094
11	0xbdde66b4	-0.10859433
12	0x3c8ead6d	0.01741668
13	0x3c9eab37	0.019368751
14	0x3d8805b2	0.06641711
15	0xbd4eafc0	-0.050460577
16	0x3d714323	0.058901917
17	0xbd09f30a	-0.033679046
18	0x3de8abd9	0.11360902
19	0xbd609085	-0.054825325
20	0x3af0fc26	0.0018385693
21	0x3e41fa30	0.18943095
22	0xbda317e8	-0.07963544
23	0x3c6f514f	0.014606788
24	0xbce7aac2	-0.028279666
25	0x3d96d2d6	0.073644325
26	0x3c197030	0.0093651265
27	0x3c9c63eb	0.019090613
28	0x3c904618	0.017611548
29	0xbdda003f	-0.10644578
30	0xbd1d1d71	-0.038358156
31	0xbd47c5f7	-0.04877278
32	0xbcb8a272	-0.022538397
33	0xbd458137	-0.048218932
34	0xbe172921	-0.14761783
35	0x3caff281	0.02147794
36	0xbcc550a3	-0.024086302
37	0x3d508732	0.050910182
38	0xbca749e1	-0.02042097
39	0x3d6b63c4	0.05746819
40	0xbd2f60a0	-0.04281676
41	0xbdd77d62	-0.10521962
42	0xbe251b52	-0.16123703
43	0x3dc895d7	0.09794205
44	0xbd8cc007	-0.06872564
45	0xbe13d9f8	-0.14438617
46	0xbb02b447	-0.001994388
47	0xbc0861ba	-0.008324081
48	0xbdc652bf	-0.09683751
49	0x3dbf392e	0.09337078
50	0x3d0c8751	0.034308735
51	0x3cfb4093	0.03067044
52	0xbdf8ada1	-0.12142492
53	0xbca367f7	-0.019947035
54	0xbd969ce8	-0.07354146
55	0x3d978d79	0.07400031
56	0xbdf61f70	-0.12017715
57	0x3d9783ad	0.07398162
58	0x3c916d40	0.01775229
59	0xbc3e6240	-0.011620104
60	0xbc9b01ab	-0.018921694
61	0xbcc391af	-0.023873178
62	0x3da2ac82	0.079430595
63	0x3e959fd7	0.2922351
64	0x3d0807f0	0.033210695
65	0xbe0e71d0	-0.13910604
66	0xbd099551	-0.033589665
67	0x3d25d07c	0.04048203
68	0xbdf845c7	-0.12122684
69	0x3e2b9742	0.16756919
70	0x3ddaa68a	0.10676296
71	0x3dfd3623	0.123638414
72	0x3d1a4b4a	0.037669457
73	0x3d97761c	0.073955745
74	0x3d66985e	0.056297652
75	0x3bee23b9	0.007267442
76	0x3d17834e	0.036990456
77	0xbd01225d	-0.031526912
78	0x3e35e116	0.17761645
79	0x3dfc182a	0.123092964
80	0x3e01a84d	0.12661858
81	0x3debf2cd	0.1152092
82	0x3e23f514	0.16011459
83	0x3d64bcee	0.05584424
84	0xbbe75989	-0.007060234
85	0xbd40d6aa	-0.04707972
86	0xbda18fa6	-0.07888727
87	0xbce7a6b4	-0.028277732
88	0x3d877aa4	0.06615189
89	0xbd6c6f6f	-0.05772346
90	0xbd9b9a80	-0.07597828
91	0x3e12eeb2	0.14348868
92	0xbca886f4	-0.020572163
93	0x3d22d90c	0.039757773
94	0x3e074f60	0.13213873
95	0xbd1c78dc	-0.038201198
96	0x3df211af	0.11819779
97	0x3bcbbd50	0.006217636
98	0x3e2ff44f	0.1718304
99	0xbdb8c49d	-0.09021876
100	0x3d8ae057	0.06781071
101	0xbe20a25c	-0.15686935
102	0xbc9e86c8	-0.019351378
103	0x3e152e7f	0.14568518
104	0xbd0df23f	-0.034654852
105	0x3e079b6c	0.13242882
106	0xbe5470f4	-0.20746213
107	0x3dcfc5ed	0.10145173
108	0x3b926435	0.004467512
109	0xbce38f0d	-0.027778173
110	0x3ddaa184	0.10675338
111	0x3dc2f014	0.095184475
112	0xbe56ef72	-0.20989779
113	0x3e074b89	0.13212408
114	0x3ddaceac	0.10683951
115	0xbdacd05d	-0.0843818
116	0x3e3f24c6	0.18666372
117	0xbdde1239	-0.108433194
118	0x3da6bcc7	0.08141475
119	0xbc5f6885	-0.013635759
120	0x3b946686	0.0045288233
121	0xbb5f39e5	-0.0034061607
122	0x3d1fbf7a	0.039000966
123	0xbe6e2d4b	-0.23259465
124	0x3a7dc6b0	0.0009680791
125	0xbdfbd0dc	-0.12295696
126	0x3c6b58c6	0.014364427
127	0xbcc10090	-0.023559839
128	0x3bbf3fb4	0.0058364514
129	0xbd2df686	-0.04247143
130	0xbc717f5b	-0.014739837
131	0xbdd0ecfe	-0.10201453
132	0xbdc02303	-0.09381678
133	0x3dbb3fa5	0.091429986
134	0x3c9f2ce2	0.019430581
135	0x3d84b087	0.064789824
136	0xbda4b9d1	-0.08043254
137	0xbe0f07fc	-0.1396789
138	0xbe0f63f1	-0.14002968
139	0xbd638697	-0.055548277
140	0x3c6e7cb7	0.0145561015
141	0xbb2e013c	-0.0026551029
142	0x3d807c81	0.06273747
143	0xbda56893	-0.080765866
144	0x3c9957d0	0.01871863
145	0xbdd4a976	-0.103838846
146	0xbd86343a	-0.0655293
147	0xbd2c15bd	-0.04201292
148	0x3dfa767f	0.122296326
149	0xbde35f8f	-0.11102211
150	0x3d9acdb4	0.07558766
151	0x3db8bbbd	0.09020183
152	0x3e5a343e	0.21308991
153	0x3c1910ee	0.009342415
154	0x3dfb440e	0.1226884
155	0xbcc075bc	-0.02349364
156	0x3e2f8a01	0.17142488
157	0x3c93d4ac	0.018045746
158	0x3de6b612	0.11265196
159	0xbda82f45	-0.08212141
160	0xbce9a84b	-0.028522631
161	0xbdcb79af	-0.09935319
162	0xbd9796e4	-0.07401827
163	0x3d13eb1c	0.03611289
164	0x3e2e8631	0.17043377
165	0xbc6079ec	-0.013700943
166	0x3d19677d	0.03745221
167	0xbdd35c8d	-0.10320387
168	0xbd9edcac	-0.077569336
169	0xbc0f28e9	-0.008737781
170	0xbe4570b3	-0.19281273
171	0xbd95e203	-0.07318499
172	0x3cd47fec	0.025939904
173	0x3c84df59	0.016219782
174	0x3cdf5640	0.027262807
175	0x3dafed43	0.08590176
176	0xbdf60b4e	-0.12013875
177	0x3e237457	0.15962349
178	0xbd0eb8fa	-0.034844376
179	0x3d1adaec	0.037806436
180	0x3d27720c	0.040880248
181	0xbcacbd85	-0.021086464
182	0x3d24cdc0	0.04023528
183	0x3d957656	0.072979614
184	0xbcb57ec2	-0.02215517
185	0x3d3312fc	0.043719277
186	0xbde7a469	-0.113106556
187	0x3c8fbf5c	0.017547302
188	0xbe234a15	-0.15946229
189	0x3ccb89ea	0.024846036
190	0x3e09cdc7	0.13457404
191	0x3d9ee6dc	0.07758877
192	0x3e5a5c58	0.21324289
193	0x3ab07ee3	0.001346555
194	0x3e16cace	0.14725801
195	0x3ddad77a	0.1068563
196	0x3d064ae9	0.032786284
197	0x3cc5cec8	0.024146453
198	0xbcdfb413	-0.027307546
199	0x3c63c464	0.013901804
200	0xbc900fbe	-0.017585631
201	0x3ca5eb30	0.020253748
202	0x3dbe7c6d	0.09301076
203	0xbdc89b14	-0.09795204
204	0x3e0fde6d	0.14049692
205	0x3da73cf0	0.0816592
206	0x3ddfe72b	0.10932764
207	0xbe591e4e	-0.21202967
208	0x3dabf905	0.08397106
209	0x3b9281cc	0.0044710394
210	0x3d5a5e93	0.05331285
211	0xbd6030b9	-0.054733966
212	0x3b83dad4	0.004023889
213	0x3ce01b99	0.02735691
214	0xbe2ce091	-0.1688254
215	0x3de719bd	0.11284206
216	0xbe22a540	-0.1588335
217	0xbd0deff7	-0.034652676
218	0xbd32594c	-0.04354219
219	0xbd4de16e	-0.050263815
220	0xbcdcba50	-0.02694431
221	0x3e353e9d	0.17699666
222	0xbdb0e6b4	-0.08637753
223	0x3d9df22d	0.07712207
224	0xbdc0d4d3	-0.09415593
225	0xbc4365c4	-0.011926118
226	0xbd504cba	-0.050854422
227	0x3d0a7251	0.033800427
228	0x3e441a98	0.1915077
229	0x3cb2540e	0.021768596
230	0x3d8a2d58	0.0674693
231	0x3c8470ed	0.016167128
232	0x3df4f8a3	0.11961486
233	0x3df85d50	0.12127173
234	0x3e379392	0.17927387
235	0xbdaf1d92	-0.08550562
236	0x3dcc75fa	0.0998344
237	0x3e06a01b	0.13147013
238	0x3d796709	0.060889278
239	0x3d925ddc	0.071468085
240	0xbd68d87e	-0.056847088
241	0x3acc1067	0.0015568853
242	0xbc4120a1	-0.0117875645
243	0x3ddeb60c	0.108745664
244	0xbd3fbd2d	-0.04681127
245	0x3e061ef0	0.13097739
246	0xbe03c53e	-0.1286821
247	0xbd0bb86c	-0.034111425
248	0x3d0e9a3c	0.034815058
249	0x3e196349	0.1497928
250	0x3d882da5	0.06649331
251	0x3d7d60d5	0.061859924
252	0x3df418f3	0.11918821
253	0xbdd4eb5a	-0.10396452
254	0xbe00da95	-0.12583382
255	0x3d05b3a7	0.032642033

network_body._body_endoder.seq_layers.2.bias f4 [128]
0	0x00000000	0.0
1	0x00000000	0.0
2	0x00000000	0.0
3	0x00000000	0.0
4	0x00000000	0.0
5	0x00000000	0.0
6	0x00000000	0.0
7	0x00000000	0.0
8	0x00000000	0.0
9	0x00000000	0.0
10	0x00000000	0.0
11	0x00000000	0.0
12	0x00000000	0.0
13	0x00000000	0.0
14	0x00000000	0.0
15	0x00000000	0.0
16	0x00000000	0.0
17	0x00000000	0.0
18	0x00000000	0.0
19	0x00000000	0.0
20	0x00000000	0.0
21	0x00000000	0.0
22	0x00000000	0.0
23	0x00000000	0.0
24	0x00000000	0.0
25	0x00000000	0.0
26	0x00000000	0.0
27	0x00000000	0.0
28	0x00000000	0.0
29	0x00000000	0.0
30	0x00000000	0.0
31	0x00000000	0.0
32	0x00000000	0.0
33	0x00000000	0.0
34	0x00000000	0.0
35	0x00000000	0.0
36	0x00000000	0.0
37	0x00000000	0.0
38	0x00000000	0.0
39	0x00000000	0.0
40	0x00000000	0.0
41	0x00000000	0.0
42	0x00000000	0.0
43	0x00000000	0.0
44	0x00000000	0.0
45	0x00000000	0.0
46	0x00000000	0.0
47	0x00000000	0.0
48	0x00000000	0.0
49	0x00000000	0.0
50	0x00000000	0.0
51	0x00000000	0.0
52	0x00000000	0.0
53	0x00000000	0.0
54	0x00000000	0.0
55	0x00000000	0.0
56	0x00000000	0.0
57	0x00000000	0.0
58	0x00000000	0.0
59	0x00000000	0.0
60	0x00000000	0.0
61	0x00000000	0.0
62	0x00000000	0.0
63	0x00000000	0.0
64	0x00000000	0.0
65	0x00000000	0.0
66	0x00000000	0.0
67	0x00000000	0.0
68	0x00000000	0.0
69	0x00000000	0.0
70	0x00000000	0.0
71	0x00000000	0.0
72	0x00000000	0.0
73	0x00000000	0.0
74	0x00000000	0.0
75	0x00000000	0.0
76	0x00000000	0.0
77	0x00000000	0.0
78	0x00000000	0.0
79	0x00000000	0.0
80	0x00000000	0.0
81	0x00000000	0.0
82	0x00000000	0.0
83	0x00000000	0.0
84	0x00000000	0.0
85	0x00000000	0.0
86	0x00000000	0.0
87	0x00000000	0.0
88	0x00000000	0.0
89	0x00000000	0.0
90	0x00000000	0.0
91	0x00000000	0.0
92	0x00000000	0.0
93	0x00000000	0.0
94	0x00000000	0.0
95	0x00000000	0.0
96	0x00000000	0.0
97	0x00000000	0.0
98	0x00000000	0.0
99	0x00000000	0.0
100	0x00000000	0.0
101	0x00000000	0.0
102	0x00000000	0.0
103	0x00000000	0.0
104	0x00000000	0.0
105	0x00000000	0.0
106	0x00000000	0.0
107	0x00000000	0.0
108	0x00000000	0.0
109	0x00000000	0.0
110	0x00000000	0.0
111	0x00000000	0.0
112	0x00000000	0.0
113	0x00000000	0.0
114	0x00000000	0.0
115	0x00000000	0.0
116	0x00000000	0.0
117	0x00000000	0.0
118	0x00000000	0.0
119	0x00000000	0.0
120	0x00000000	0.0
121	0x00000000	0.0
122	0x00000000	0.0
123	0x00000000	0.0
124	0x00000000	0.0
125	0x00000000	0.0
126	0x00000000	0.0
127	0x00000000	0.0

action_model._continuous_distribution.log_sigma f4 [1, 2]
0	0x00000000	0.0
1	0x00000000	0.0

action_model._continuous_distribution.mu.weight f4 [2, 128]
0	0xbb9af23a	-0.0047285827
1	0x3923f181	0.00015634859
2	0x3c73b0a8	0.014873661
3	0x3cb67b06	0.022275459
4	0x3ca20aff	0.019780634
5	0xbcf18d9a	-0.029486466
6	0x3c915e17	0.01774506
7	0x3c037992	0.00802459
8	0xbc8da9db	-0.017292907
9	0xbbb4b497	-0.005514692
10	0xbd056d15	-0.03257473
11	0x3d7ce2e3	0.061739814
12	0x3c23f34e	0.010006739
13	0xbd226176	-0.039643727
14	0xbd092047	-0.033478048
15	0x3cc0d242	0.023537759
16	0x3c3d47a3	0.011552724
17	0xbbd43cf8	-0.0064769946
18	0x3bca642b	0.0061764917
19	0x3b9a8a47	0.004716191
20	0xbcaef81d	-0.021358544
21	0x3bdcb912	0.0067359293
22	0x3c8a9107	0.016914858
23	0xbbda5663	-0.00666313
24	0x3c8317e4	0.016002603
25	0xbc4e83f3	-0.012604701
26	0xbbbfe449	-0.005856071
27	0xbb518ca5	-0.00319747
28	0x3bb94b7c	0.0056547504
29	0xbbf067f8	-0.007336613
30	0x3ab0ec47	0.001349815
31	0xbce1368d	-0.027491832
32	0x3b816a47	0.003949437
33	0xbbf75713	-0.007548222
34	0x3ccd62da	0.02507155
35	0x3c8c650e	0.01713803
36	0x3af24bff	0.0018485783
37	0x3bd723fd	0.0065655694
38	0xbcebe3c8	-0.028795138
39	0x3b31eedd	0.002715043
40	0x3cf49310	0.029855281
41	0xbc876019	-0.016525315
42	0xbc6d3a4d	-0.014479232
43	0x3cba0d5f	0.022711454
44	0xbb3fb0e2	-0.0029249717
45	0x3c0f6d17	0.008754036
46	0xbc9af597	-0.018915934
47	0xb978c72b	-0.00023725319
48	0xbc57a5c8	-0.013162084
49	0xbb5f00a8	-0.003402749
50	0x3c91931b	0.01777034
51	0xbbba7103	-0.0056897416
52	0xbc9452ff	-0.018105982
53	0x3afdb655	0.0019356707
54	0xbd04547d	-0.032307137
55	0xbccb1f18	-0.0247951
56	0x39d02528	0.00039700535
57	0xbc26e0da	-0.010185445
58	0xbc744b88	-0.014910586
59	0xbcdb8a88	-0.026799455
60	0xbcdb289a	-0.026752759
61	0x3d68e57d	0.056859482
62	0x3b1ce470	0.002393987
63	0x3cf67015	0.030082742
64	0x3bc286e2	0.0059364894
65	0x3d1b976b	0.0379862
66	0x3cd19c25	0.02558715
67	0xbc63901a	-0.013889337
68	0xbcf07eea	-0.029357392
69	0x3d2c1499	0.04201183
70	0xbc2b670a	-0.010461578
71	0xbd13ee2f	-0.03611582
72	0xbc48f059	-0.012264335
73	0xbcacadb1	-0.021078916
74	0xbc730770	-0.014833316
75	0xbc26e070	-0.010185346
76	0xbc3f8e21	-0.011691601
77	0x3c1787a3	0.009248647
78	0xbc2ea3cb	-0.0106591685
79	0x3c6e8107	0.01455713
80	0xbcd1ea52	-0.025624428
81	0x3ceaee3a	0.028678048
82	0x3d0386ef	0.032111105
83	0x3d0a66aa	0.033789314
84	0xbbd88d8b	-0.00660867
85	0xbc5510f3	-0.013004529
86	0x3b5176ea	0.0031961747
87	0xbc753047	-0.0149651235
88	0xbcf1c5df	-0.029513298
89	0x3b7173cb	0.00368427
90	0xbac08879	-0.001468911
91	0x3c0004fc	0.007813688
92	0x3c3fe81b	0.011713053
93	0xbc73e2a8	-0.014885582
94	0xbcca93f7	-0.024728758
95	0x3a4ff4b3	0.00079328864
96	0x3cc9c2f7	0.0246291
97	0xbc87f2d6	-0.016595285
98	0x3bfa9530	0.007647179
99	0xbbf316a2	-0.0074184695
100	0x3bd13f88	0.0063857473
101	0x3d00ca47	0.031442907
102	0xb924908c	-0.00015694107
103	0xbbe811c5	-0.0070821964
104	0x3bfdc2d3	0.007744172
105	0xba2a43be	-0.000649508
106	0x3c3e3f24	0.011611734
107	0x3c932408	0.017961517
108	0xbcceb2b2	-0.025231693
109	0xbc885fcd	-0.016647244
110	0x3c8bd8bd	0.017071122
111	0x3c8001bb	0.015625825
112	0xbc3ce5ea	-0.011529425
113	0x3cb888b4	0.022526123
114	0x3c1109d5	0.008852442
115	0xbc10864f	-0.008821084
116	0x3c0de1a9	0.008659759
117	0xbc89395c	-0.016750984
118	0xbbc33786	-0.0059575466
119	0xbab37337	-0.0013690953
120	0xbcc38607	-0.02386762
121	0xbd0aeef2	-0.033919282
122	0xbb89e976	-0.004208739
123	0xbbced1a3	-0.0063116117
124	0x3cdbb84b	0.026821276
125	0xbabe3d3f	-0.0014514102
126	0x3c97926a	0.018502433
127	0xbd056dea	-0.032575525
128	0xbb17743c	-0.0023110053
129	0xbc0decd3	-0.00866242
130	0x3ca4145c	0.02002924
131	0x3ca319e5	0.019909808
132	0x3c9063cd	0.017625714
133	0xbc356280	-0.0110708475
134	0xbb81fe35	-0.0039670714
135	0x3cadd92f	0.021221725
136	0xbba535ac	-0.0050417986
137	0xbc0953a8	-0.008381762
138	0xbc567973	-0.013090479
139	0xbb9cf995	-0.0047904947
140	0xbcc8889c	-0.024479203
141	0x3ce9e74f	0.02855268
142	0x3ba54d68	0.005044628
143	0x3bf37042	0.0074291537
144	0xbb6401e0	-0.0034791157
145	0x3c0396bc	0.008031543
146	0xbc0fd724	-0.008779321
147	0x3c8919c3	0.016735917
148	0x3a970c40	0.0011524037
149	0x3be73f5b	0.007057113
150	0xbbd3e225	-0.0064661675
151	0xbc0e1891	-0.008672849
152	0x3b9a60a0	0.0047112256
153	0x3c9ec4e3	0.019380992
154	0x39306d07	0.00016825284
155	0x3bf3305b	0.007421536
156	0x3d14b434	0.036304668
157	0xbcbdcc7b	-0.023168793
158	0xbbe16dfb	-0.006879566
159	0x3a9e2283	0.0012064729
160	0xbb30f26d	-0.0026999966
161	0x3c879519	0.016550587
162	0xbc137baa	-0.009001652
163	0x3c032b67	0.008005953
164	0x3b999cce	0.004687882
165	0x3c187ba4	0.009306822
166	0x3bac00a3	0.0052490993
167	0xbb4fb3dd	-0.00316929
168	0xbc94442a	-0.01809891
169	0xba7abce7	-0.0009564892
170	0x3ccae92c	0.024769388
171	0x3d1e100a	0.038589515
172	0x3ce331c7	0.027733697
173	0xbc43a3d4	-0.011940915
174	0xbb8494f8	-0.004046079
175	0xbc6645e5	-0.01405475
176	0xbcd86f0d	-0.02642014
177	0x3c2816e7	0.010259367
178	0x3c9a112f	0.018807022
179	0x3d57e988	0.052712947
180	0x3c5fc1aa	0.013657013
181	0x3c9cbdfd	0.019133562
182	0xbc1bfe16	-0.009521028
183	0xbb303ff3	-0.0026893585
184	0x3c86d504	0.016458996
185	0x3cb02c02	0.02150536
186	0x3c34fb80	0.01104629
187	0x3d238e67	0.039930727
188	0xbd0829fb	-0.03324316
189	0x39bf2945	0.00036461107
190	0xbbf540aa	-0.007484515
191	0x3c2e959e	0.010655789
192	0x3c9a8a89	0.018864887
193	0x3c32fff7	0.010925285
194	0x3c3e7377	0.011624209
195	0x3c8122df	0.015763698
196	0xbc858c55	-0.016302267
197	0x3c8c1463	0.017099565
198	0xbc1857d7	-0.009298286
199	0x3c0a2fa2	0.008434208
200	0xbcba0d57	-0.022711439
201	0xbc0d1c87	-0.0086127585
202	0xbd1ed45a	-0.038776733
203	0x3d04083b	0.03223441
204	0x3b88ade9	0.0041711223
205	0xbbd48fb0	-0.0064868554
206	0x3c5bd44f	0.0134173175
207	0x3be95350	0.0071205273
208	0x3c216820	0.0098514855
209	0xbc17518f	-0.009235754
210	0x3d004a4b	0.03132085
211	0x3c50e4f2	0.012749897
212	0xbc0df32a	-0.008663932
213	0x3c64139f	0.013920694
214	0xbc80090a	-0.01562931
215	0xbcab0c56	-0.020879906
216	0xbc91d61b	-0.017802289
217	0xbcfafe40	-0.030638814
218	0xba96fc1f	-0.001151923
219	0x3aad99dc	0.0013244706
220	0x3cdeeb87	0.027211918
221	0x3b79cc9f	0.0038116348
222	0xbcd6290b	-0.026142618
223	0x3ca0ea12	0.019642863
224	0xbd05b0fb	-0.032639485
225	0xbaa5b555	-0.0012642542
226	0x3ccdf34a	0.025140423
227	0xbb58271d	-0.0032982298
228	0x3c8093af	0.015695421
229	0x3877d998	5.909204e-05
230	0x3c53b8ab	0.012922446
231	0x3c9100da	0.017700601
232	0x3c559f67	0.013038493
233	0xb8b5949f	-8.6584354e-05
234	0x3c6df418	0.0145235285
235	0x3cc55d7f	0.024092434
236	0xbba62398	-0.005070161
237	0x3c888d85	0.016669044
238	0x3ca15adb	0.019696644
239	0x3bf66052	0.0075188065
240	0x3bbfb3ff	0.0058503146
241	0x3b0a7973	0.0021129518
242	0xbcd270b7	-0.025688512
243	0x3cdb486f	0.026767937
244	0xbbf19f72	-0.0073737437
245	0xbc13f121	-0.009029658
246	0x3c9983f3	0.018739676
247	0xba20f3bf	-0.00061398366
248	0xbc433f8e	-0.011917008
249	0xbce73792	-0.02822474
250	0xbc5fff67	-0.0136717325
251	0x3cc4642f	0.023973553
252	0xb90482b7	-0.00012637196
253	0xbc2974b3	-0.010342765
254	0x3af3df27	0.0018605933
255	0x3c3ea9fb	0.011637206

action_model._continuous_distribution.mu.bias f4 [2]
0	0x00000000	0.0
1	0x00000000	0.0

action_model._discrete_distribution.branches.0.weight f4 [1, 128]
0	0xbb734ef0	-0.0037125908
1	0xbc37ba9f	-0.0112139275
2	0xbbddbe27	-0.0067670527
3	0xbba7c9e2	-0.005120502
4	0x3c18d225	0.009327446
5	0x391c18c8	0.00014886551
6	0xbc0c7e0b	-0.008574973
7	0xbb0c4d46	-0.0021408363
8	0x3b6673b0	0.003516417
9	0xbc1e7873	-0.009672272
10	0xbb117b60	-0.0022198781
11	0xbc469ce7	-0.012122369
12	0x3b4e0a97	0.0031439418
13	0x3cc8c887	0.024509681
14	0xbc9480d0	-0.018127829
15	0x3c6f8ad3	0.014620501
16	0xbc1c4057	-0.009536824
17	0xbb2d4ead	-0.00264446
18	0xbbaa27ab	-0.005192717
19	0xbc1d8b25	-0.009615694
20	0xbc1903a8	-0.009339251
21	0xbc77a87f	-0.015115856
22	0x3b807cbf	0.003921121
23	0xbb98044c	-0.004639184
24	0xbc82a8c2	-0.01594961
25	0xbc2666d5	-0.010156353
26	0xbb7a768d	-0.0038217634
27	0xbb32ef3b	-0.0027303237
28	0x3ab676d4	0.0013920912
29	0x3bc5da4f	0.0060379873
30	0x3a8e65b9	0.0010864056
31	0xbcfd770b	-0.030940553
32	0xbc34c8e6	-0.011034226
33	0xbbdcec80	-0.00674206
34	0xbb873e79	-0.0041273204
35	0xbc547683	-0.0129677085
36	0xbc2e083b	-0.0106220795
37	0x3b9fe006	0.0048790006
38	0xbc4a5da0	-0.0123514235
39	0x3b469efa	0.003030716
40	0x3b2eb693	0.0026659116
41	0x3b4ebbc2	0.0031545018
42	0xbccb4881	-0.024814846
43	0xbc17f7e6	-0.009275412
44	0x3c39c46c	0.0113383345
45	0xbbe5b378	-0.0070099197
46	0xbb807cb4	-0.003921116
47	0xbc6f722a	-0.014614621
48	0x3c20f171	0.009823189
49	0x3c55228d	0.013008726
50	0xbc1f0787	-0.0097063845
51	0xbb97b046	-0.0046291677
52	0xbb19b30e	-0.0023452672
53	0x3b3dc571	0.0028956796
54	0x3b900b69	0.0043958914
55	0x3c213b90	0.009840861
56	0x3afc941a	0.0019270212
57	0x3c96b5c3	0.018397218
58	0x3c31e6d8	0.01085826
59	0xbc3bbe43	-0.011458936
60	0xbb1a2191	-0.0023518542
61	0xb99ca5b9	-0.00029878112
62	0xbc18a50b	-0.009316693
63	0x3c50ed8a	0.012751946
64	0x3b9bd0d0	0.004755117
65	0xbc66e0f8	-0.014091723
66	0xbb82e87f	-0.003995001
67	0xbbbd6c9d	-0.00578077
68	0x3b09bc83	0.0021016903
69	0x3c30b1e8	0.010784604
70	0xbca8a3f2	-0.020585988
71	0x3c2cc739	0.010545545
72	0xbc7749d8	-0.015093289
73	0x3b6610c2	0.0035105203
74	0xbc1d6006	-0.009605413
75	0xbbc4f06f	-0.006010107
76	0x3937ca70	0.00017527654
77	0xb9eda69b	-0.00045328293
78	0x3af50ae2	0.001869526
79	0x3c0c870a	0.008577118
80	0x3c618a52	0.013765888
81	0x3ba7054b	0.0050970665
82	0x3c3c525b	0.011494244
83	0xbc81f120	-0.015862048
84	0x3bf45e88	0.007457558
85	0x3c599ba2	0.013281735
86	0xbbc71a17	-0.006076108
87	0xbc7591cf	-0.014988377
88	0x3a9cb6f5	0.0011956381
89	0xbb6c0878	-0.003601579
90	0xbc2f1cb4	-0.010687996
91	0xbba3dc6b	-0.005000641
92	0x3c324f46	0.010883158
93	0x3c2de1dc	0.010612931
94	0x3c8086f5	0.015689353
95	0x3cb512af	0.022103636
96	0x3c404d0a	0.011737118
97	0x3b699248	0.003564017
98	0xbb0b4adb	-0.0021254334
99	0x3bdbf382	0.006712378
100	0x3c30a81b	0.010782267
101	0xbc580af8	-0.013186209
102	0xbc1cccef	-0.009570344
103	0x3c3e011f	0.011596947
104	0x3c1c4020	0.009536773
105	0x3b005fc0	0.0019588321
106	0x3a651137	0.0008738222
107	0x3c3ecf93	0.011646169
108	0x3cab7c24	0.020933218
109	0x3ac3910d	0.0014920548
110	0x3a0c0045	0.00053406163
111	0x3b8fc75f	0.0043877806
112	0x3bbe3f9a	0.0058059217
113	0x3be10e43	0.006868155
114	0xbba22f54	-0.0049494896
115	0x3c32524c	0.010883879
116	0x3b2fbf6f	0.0026816984
117	0xbce516f7	-0.027965052
118	0xbbb04047	-0.005378756
119	0xbc30c06a	-0.010788063
120	0xbc300eab	-0.010745685
121	0xbbc10deb	-0.0058915517
122	0x3b3b5443	0.002858416
123	0x3c82073f	0.015872596
124	0xba7293d3	-0.0009253595
125	0x3c0a75bb	0.008450921
126	0xbb531ffb	-0.0032215107
127	0xbacf277f	-0.0015804617

network_body._body_endoder.seq_layers.0.weight f4 [128, 6]
0	0xbc5aa909	-0.013345965
1	0x3f115393	0.5676815
2	0xbdb68584	-0.08912185
3	0xbfa0429f	-1.2520331
4	0x3e082562	0.1329551
5	0xbead773a	-0.33880025
6	0x3e6cc3fb	0.23121636
7	0xbedbc899	-0.4292648
8	0xbe2a3f34	-0.16625673
9	0x3f1e0bdb	0.6173684
10	0xbcab5d99	-0.020918654
11	0xbf3ea12c	-0.7446468
12	0x3d0f1cc3	0.03493954
13	0xbf40353d	-0.75081235
14	0xbefda2c8	-0.49538255
15	0xbebfd26f	-0.37465236
16	0xbd9c1abe	-0.07622288
17	0x3eef5b29	0.46749237
18	0x3eeba909	0.460274
19	0xbef6480f	-0.4810185
20	0xbb0c92d3	-0.0021449819
21	0xbd7265ef	-0.059179243
22	0xbf4ca94f	-0.79945844
23	0xbe5213f6	-0.20515427
24	0xbe4b193f	-0.1983385
25	0xbf38319b	-0.7195069
26	0xbee783f5	-0.45217863
27	0xbeab55c4	-0.3346387
28	0x3d5e5794	0.05428274
29	0xbe304527	-0.1721388
30	0xbf927bea	-1.1444066
31	0x3f061fed	0.52392465
32	0x3d973868	0.073838055
33	0xbe242185	-0.16028412
34	0xbf5fee01	-0.8747254
35	0x3e783a08	0.24240887
36	0x3eae00d5	0.3398501
37	0xbe9446c6	-0.28960246
38	0x3f415dfc	0.75534034
39	0x3eb84cc2	0.35996062
40	0xbe0e7cb2	-0.13914755
41	0x3cb41bdf	0.021985946
42	0xbe10d06d	-0.14142008
43	0x3e0a1fc8	0.13488686
44	0xbc904aeb	-0.017613849
45	0xbea31790	-0.31853914
46	0xbe8dcdc0	-0.27696037
47	0x3ecc36a9	0.39885452
48	0x3e2cfee5	0.1689411
49	0x3efb92dc	0.49135482
50	0xbd8d9f1a	-0.06915112
51	0xbccf5940	-0.025311112
52	0x3f08ce62	0.53439915
53	0xbe8f3daf	-0.27976748
54	0x3ea4c3c8	0.3218062
55	0xbe795a6f	-0.24350904
56	0x3ed8e467	0.42361757
57	0x3e4f48cc	0.20242614
58	0xbe131491	-0.14363314
59	0x3f00e31b	0.50346535
60	0xbd843885	-0.06456093
61	0xbf19faae	-0.6014813
62	0x3db384ad	0.0876554
63	0x3e856242	0.26051527
64	0xbd7e0e50	-0.06202537
65	0x3edfbd55	0.43699136
66	0x3ee27805	0.44232193
67	0xbf2e6085	-0.6811603
68	0xbdca9d0a	-0.09893234
69	0x3ef8eb2a	0.48616916
70	0x3ebd5f96	0.3698699
71	0x3eda529e	0.42641157
72	0x3e5a518d	0.21320172
73	0xbe9c64d7	-0.30545685
74	0x3e4ed9ad	0.20200224
75	0xbe027e91	-0.12743594
76	0xbd5ce089	-0.05392507
77	0xbe85f2be	-0.2616176
78	0xbe3b2da7	-0.18279134
79	0x3ef91a43	0.4865285
80	0x3e89332a	0.26796848
81	0xbe221693	-0.15828924
82	0xbeb0fe87	-0.3456919
83	0x3e900d4d	0.28135148
84	0x3f03bb18	0.5145736
85	0xbe933d22	-0.28757578
86	0x3f271e0d	0.6528023
87	0xbe0331c0	-0.12811947
88	0x3f0fc2fd	0.56156904
89	0x3df9d426	0.12198667
90	0x3f167df7	0.5878596
91	0xbe01dad1	-0.12681128
92	0x3e545bed	0.20738192
93	0x3e02cde9	0.12773861
94	0x3f555218	0.8332839
95	0xbee297dd	-0.44256487
96	0x3e7d72d5	0.24750836
97	0x3e5b0f87	0.21392642
98	0xbf003554	-0.5008137
99	0xbdec0a12	-0.11525358
100	0x3de56e08	0.112026274
101	0xbc3208a6	-0.01086632
102	0x3ee288e6	0.4424507
103	0x3ebcb80d	0.3685917
104	0xbef98681	-0.4873543
105	0xbd7a116c	-0.06105177
106	0x3ee2d22a	0.44300967
107	0x3f0b88c7	0.5450558
108	0x3d842480	0.06452274
109	0xbe5fd065	-0.2185684
110	0xbcc86984	-0.024464376
111	0x3eb8534c	0.3600105
112	0x3e7c6b6b	0.24650352
113	0x3ce399fa	0.027783383
114	0xbf6f28a7	-0.93421406
115	0x3ea287e6	0.31744307
116	0x3eca8c05	0.3955995
117	0xbf0d7c95	-0.5526822
118	0x3e802821	0.25030616
119	0x3f5b24b7	0.856029
120	0xbf759275	-0.959266
121	0xbee04f8b	-0.43810686
122	0x3cd2ac8c	0.025717042
123	0xbf2fa860	-0.68616295
124	0xbef01584	-0.46891415
125	0xbebae9f8	-0.3650663
126	0x3e51e6b3	0.20498161
127	0x3d6cbcaa	0.05779711
128	0x3ecd80fe	0.40137476
129	0xbf161589	-0.5862661
130	0xbeb61dee	-0.3556971
131	0xbe7613ee	-0.2403104
132	0xbddc614b	-0.10760745
133	0x3ecf0d80	0.40439987
134	0x3d11dc9a	0.035610773
135	0xbf5fa5a4	-0.8736212
136	0x3f612cdc	0.87959075
137	0xbf30db70	-0.69084835
138	0xbe5dd4ca	-0.21663204
139	0x3f200a06	0.62515295
140	0xbe704833	-0.23465042
141	0x3e872674	0.26396525
142	0x3e57b5f5	0.21065505
143	0x3f145f01	0.57957464
144	0xbf2428db	-0.6412484
145	0x3e78c17b	0.24292557
146	0xbe0a0972	-0.13480166
147	0xbf4f3634	-0.8094208
148	0x3ea13749	0.31487492
149	0x3e623ada	0.22092763
150	0xbf0e7810	-0.5565195
151	0xbea03831	-0.3129287
152	0xbf00d308	-0.5032201
153	0xbeb1c2df	-0.34718987
154	0x3e604f5a	0.2190527
155	0xbee6bb09	-0.45064571
156	0x3e4f08e3	0.20218234
157	0x3ee13532	0.43985897
158	0xbe297879	-0.16549863
159	0x3dc8c3d4	0.09802976
160	0x3ef9ab4c	0.48763502
161	0x3e8ad9b4	0.2711922
162	0xbeb2c6ab	-0.34917197
163	0x3f088577	0.5332865
164	0x3ec5ed02	0.38657385
165	0x3e06379a	0.13107148
166	0x3de8c74e	0.11366139
167	0x3ee9d6a8	0.45671582
168	0xbe59f48a	-0.2128469
169	0xbd8a49f7	-0.06752389
170	0x3ebda5d4	0.3704058
171	0x3e910e0b	0.28331026
172	0xbd1066be	-0.035254233
173	0xbe475449	-0.19465746
174	0xbe8d098f	-0.27546355
175	0xbdf34ba1	-0.118796594
176	0x3efffddd	0.4999837
177	0xbe1dc83a	-0.15408412
178	0x3eb83907	0.35981008
179	0x3dd079cf	0.10179483
180	0xbe2815cc	-0.16414565
181	0x3f41100e	0.7541512
182	0xbe00ad90	-0.12566209
183	0xbe3e87a3	-0.18606429
184	0x3f08dd44	0.53462625
185	0x3efa94c9	0.4894164
186	0x3e289d61	0.16466285
187	0x3e57ec22	0.21086171
188	0x3ec6cf0c	0.3882984
189	0x3f09e63c	0.53866935
190	0x3e261411	0.16218592
191	0x3f597e8e	0.8495873
192	0xbe7e33a4	-0.24824387
193	0xbee4d90e	-0.4469685
194	0x3f001dc5	0.50045425
195	0xbd52e318	-0.051486105
196	0xbebedd94	-0.37278426
197	0xbea28e6b	-0.3174928
198	0x3edf6457	0.4363124
199	0xbe9731ad	-0.29530087
200	0x3e8ca5ae	0.27470154
201	0x3f049b78	0.51799726
202	0x3f0444f0	0.5166769
203	0x3f635c01	0.8881226
204	0x3db91c7e	0.090386376
205	0xbeab5169	-0.3346055
206	0x3efee190	0.49781466
207	0x3f236e99	0.63840634
208	0xbf40a440	-0.75250626
209	0xbea8c9f8	-0.3296659
210	0xbc33b57b	-0.010968561
211	0xbd7f51b9	-0.062333796
212	0x3f112fc1	0.5671349
213	0x3f5ef758	0.87096167
214	0xbf113365	-0.56719047
215	0xbed12572	-0.4084888
216	0x3ed8ee37	0.42369244
217	0x3ea46c73	0.3211399
218	0xbe47dc0a	-0.19517532
219	0xbe657ac2	-0.2241011
220	0x3d895414	0.0670549
221	0xbe66ff04	-0.22558218
222	0x3f8b25cc	1.087091
223	0x3ed58804	0.41705334
224	0xbf86605b	-1.0498155
225	0x3e4e694f	0.2015736
226	0x3e3e5210	0.18585992
227	0x3e9008a6	0.28131598
228	0x3e2b19a7	0.16709004
229	0xbec537f6	-0.38519257
230	0xbddae8ec	-0.106889576
231	0x3e186841	0.1488352
232	0x3f034fdc	0.5129373
233	0x3ef85093	0.48498973
234	0x3c99b68e	0.018763807
235	0x3f405549	0.75130135
236	0xbf297f13	-0.66209525
237	0x3f03cb67	0.5148224
238	0xbf1d5805	-0.6146243
239	0x3e7ae45e	0.24501178
240	0x3ae4170e	0.001740189
241	0x3f90baac	1.1306968
242	0xbe43f917	-0.19137989
243	0xbd9825e6	-0.074291036
244	0x39b3f9ed	0.0003432775
245	0x3f8cbeb0	1.0995693
246	0x3f111d35	0.5668519
247	0xbf3b249d	-0.7310274
248	0x3d57bea6	0.05267205
249	0xbf319f5c	-0.6938379
250	0xbe97ffdf	-0.29687402
251	0xbebf56bf	-0.3737087
252	0xbec86d75	-0.3914601
253	0xbeefca50	-0.4683404
254	0xbeb20b39	-0.34774187
255	0xbe358396	-0.17725977

network_body._body_endoder.seq_layers.0.bias f4 [128]
0	0x00000000	0.0
1	0x00000000	0.0
2	0x00000000	0.0
3	0x00000000	0.0
4	0x00000000	0.0
5	0x00000000	0.0
6	0x00000000	0.0
7	0x00000000	0.0
8	0x00000000	0.0
9	0x00000000	0.0
10	0x00000000	0.0
11	0x00000000	0.0
12	0x00000000	0.0
13	0x00000000	0.0
14	0x00000000	0.0
15	0x00000000	0.0
16	0x00000000	0.0
17	0x00000000	0.0
18	0x00000000	0.0
19	0x00000000	0.0
20	0x00000000	0.0
21	0x00000000	0.0
22	0x00000000	0.0
23	0x00000000	0.0
24	0x00000000	0.0
25	0x00000000	0.0
26	0x00000000	0.0
27	0x00000000	0.0
28	0x00000000	0.0
29	0x00000000	0.0
30	0x00000000	0.0
31	0x00000000	0.0
32	0x00000000	0.0
33	0x00000000	0.0
34	0x00000000	0.0
35	0x00000000	0.0
36	0x00000000	0.0
37	0x00000000	0.0
38	0x00000000	0.0
39	0x00000000	0.0
40	0x00000000	0.0
41	0x00000000	0.0
42	0x00000000	0.0
43	0x00000000	0.0
44	0x00000000	0.0
45	0x00000000	0.0
46	0x00000000	0.0
47	0x00000000	0.0
48	0x00000000	0.0
49	0x00000000	0.0
50	0x00000000	0.0
51	0x00000000	0.0
52	0x00000000	0.0
53	0x00000000	0.0
54	0x00000000	0.0
55	0x00000000	0.0
56	0x00000000	0.0
57	0x00000000	0.0
58	0x00000000	0.0
59	0x00000000	0.0
60	0x00000000	0.0
61	0x00000000	0.0
62	0x00000000	0.0
63	0x00000000	0.0
64	0x00000000	0.0
65	0x00000000	0.0
66	0x00000000	0.0
67	0x00000000	0.0
68	0x00000000	0.0
69	0x00000000	0.0
70	0x00000000	0.0
71	0x00000000	0.0
72	0x00000000	0.0
73	0x00000000	0.0
74	0x00000000	0.0
75	0x00000000	0.0
76	0x00000000	0.0
77	0x00000000	0.0
78	0x00000000	0.0
79	0x00000000	0.0
80	0x00000000	0.0
81	0x00000000	0.0
82	0x00000000	0.0
83	0x00000000	0.0
84	0x00000000	0.0
85	0x00000000	0.0
86	0x00000000	0.0
87	0x00000000	0.0
88	0x00000000	0.0
89	0x00000000	0.0
90	0x00000000	0.0
91	0x00000000	0.0
92	0x00000000	0.0
93	0x00000000	0.0
94	0x00000000	0.0
95	0x00000000	0.0
96	0x00000000	0.0
97	0x00000000	0.0
98	0x00000000	0.0
99	0x00000000	0.0
100	0x00000000	0.0
101	0x00000000	0.0
102	0x00000000	0.0
103	0x00000000	0.0
104	0x00000000	0.0
105	0x00000000	0.0
106	0x00000000	0.0
107	0x00000000	0.0
108	0x00000000	0.0
109	0x00000000	0.0
110	0x00000000	0.0
111	0x00000000	0.0
112	0x00000000	0.0
113	0x00000000	0.0
114	0x00000000	0.0
115	0x00000000	0.0
116	0x00000000	0.0
117	0x00000000	0.0
118	0x00000000	0.0
119	0x00000000	0.0
120	0x00000000	0.0
121	0x00000000	0.0
122	0x00000000	0.0
123	0x00000000	0.0
124	0x00000000	0.0
125	0x00000000	0.0
126	0x00000000	0.0
127	0x00000000	0.0

network_body._body_endoder.seq_layers.2.weight f4 [128, 128]
0	0xbdeeadc1	-0.11654235
1	0xbcc8a662	-0.0244934
2	0xbcc5ba74	-0.02413676
3	0x3dd65f59	0.10467405
4	0x3dae58ae	0.08513008
5	0xbb4582e1	-0.0030137824
6	0xbd80c651	-0.06287826
7	0xbd18c2a9	-0.037295017
8	0x3e2d170e	0.16903326
9	0xbd9f532c	-0.07779536
10	0x3d9ba84b	0.07600459
11	0x3e0a21ef	0.13489507
12	0xbd102d76	-0.035199605
13	0xbd6fe29f	-0.058565732
14	0x3e3ee8b6	0.1864346
15	0xbceafa13	-0.028683698
16	0xbd871d73	-0.06597414
17	0x3d96367b	0.0733461
18	0xbdcb4cad	-0.09926734
19	0xbd19394d	-0.037408162
20	0xbdfeb80e	-0.124374494
21	0x3e02ec01	0.12785341
22	0xbe0163fd	-0.12635799
23	0xbe0ffc54	-0.140611
24	0x3ca1ea0a	0.019764919
25	0xbe17a52b	-0.148091
26	0x3e29ee28	0.16594756
27	0x3e70e711	0.23525645
28	0xbd921f95	-0.0713493
29	0xbd852850	-0.065018296
30	0xbe28d7ad	-0.16488524
31	0xbd72d89b	-0.059288602
32	0x3e24738c	0.16059703
33	0xba32dc3f	-0.00068229804
34	0xbd4d5b6d	-0.05013602
35	0xbe08a29a	-0.13343278
36	0x3dcb369a	0.09922524
37	0x3ceaa67a	0.028643835
38	0xbc875df7	-0.016524298
39	0xbd4446c4	-0.04791905
40	0xbc88ba00	-0.016690254
41	0xbcfb2e62	-0.030661765
42	0x3cdb9e9a	0.026809026
43	0xbda85d92	-0.08220972
44	0xbdb9169e	-0.09037517
45	0x3d672bfc	0.05643843
46	0x3e425bcd	0.18980332
47	0x3c8708d9	0.016483711
48	0xbda95096	-0.08267324
49	0xbd875fac	-0.06610045
50	0xbd4c915b	-0.04994331
51	0x3d437201	0.047716144
52	0x3d4e2dc8	0.05033663
53	0xbc70cf46	-0.014697855
54	0x3d77b47c	0.060474858
55	0xbd2bdf93	-0.041961264
56	0xbcd8f0e6	-0.026482057
57	0x3da9cd53	0.082911156
58	0x3c038c48	0.008029051
59	0xbdd51945	-0.104052104
60	0x3d50f0f3	0.051011037
61	0xbd4b3e49	-0.049619947
62	0xbdc52e56	-0.096279785
63	0xbd8a196d	-0.06743131
64	0x3d4e27a2	0.050330766
65	0x3d56191f	0.05227005
66	0xbdc9eb10	-0.09859288
67	0xbd392a76	-0.04520651
68	0x3db7b9b6	0.089709684
69	0xbcc9eb7e	-0.024648424
70	0x3d97fb44	0.07420972
71	0x3d56b76e	0.052421026
72	0xbe49e70d	-0.19717045
73	0x3d509bbf	0.05092978
74	0xbdb151e4	-0.086581975
75	0x3c45d9a6	0.012075817
76	0x3dcfaecb	0.10140761
77	0x3a376756	0.0006996294
78	0x3dc89c71	0.09795464
79	0xbd920936	-0.07130663
80	0x3e5d1816	0.2159122
81	0xbc87e9ca	-0.016590971
82	0x3cd4a303	0.025956636
83	0xbd40369f	-0.04692709
84	0x3d533238	0.051561564
85	0x3db25cdb	0.08709117
86	0x3d817e24	0.063228875
87	0x3cf7d1fd	0.030251497
88	0x3e1a018e	0.15039656
89	0xbd4d21ea	-0.05008117
90	0xbde92e89	-0.11385829
91	0x3da60b8c	0.08107671
92	0x3cebf150	0.02880159
93	0xbd150502	-0.03638173
94	0x3cf6255c	0.030047111
95	0xbd9280ab	-0.07153448
96	0x3e07da17	0.13266788
97	0x3da702ac	0.081548065
98	0x3d14074f	0.036139783
99	0xbbdd63a0	-0.006756261
100	0xbdd3308b	-0.10311993
101	0x3d4ab32a	0.04948727
102	0x3d149d9f	0.03628313
103	0x3de0dad4	0.10979238
104	0x3cdba4d5	0.026811996
105	0x3e0d5439	0.1380166
106	0x3e32b383	0.17451291
107	0x3b454450	0.0030100532
108	0xbd375ee3	-0.044768225
109	0x3d83ad68	0.06429559
110	0xbc6c1a56	-0.014410576
111	0x3e1b05f5	0.15138991
112	0xbda88cbd	-0.08229969
113	0xbe3e648f	-0.18593048
114	0xbd699d6f	-0.057034906
115	0xbd34f7fa	-0.0441818
116	0x3e1c24e6	0.1524845
117	0xbd362ad2	-0.04447443
118	0xbdca9ae5	-0.09892825
119	0xbdd126bd	-0.10212467
120	0x3e087ced	0.13328905
121	0x3d0f313e	0.03495907
122	0xbd071c40	-0.032985926
123	0x3cd3f03b	0.025871387
124	0xbc6e1202	-0.014530661
125	0xbe17e578	-0.14833629
126	0xbd67d447	-0.056598928
127	0x3dd05e21	0.10174204
128	0xbe29fd2c	-0.16600484
129	0xbc161169	-0.009159424
130	0x3ccd9cdd	0.025099212
131	0x3cc1ffdf	0.02368158
132	0xbcd5f0c6	-0.026115786
133	0x3db28a50	0.08717787
134	0x3e4a2dc7	0.19744025
135	0x3ca5226a	0.020158011
136	0xbe136d60	-0.14397192
137	0x3cb4b0ac	0.0220569
138	0xbd5ea9f7	-0.05436131
139	0xbcbcc42b	-0.023042759
140	0xbcdd9be5	-0.027051875
141	0x3c39ce28	0.011340655
142	0x3cc4bf90	0.024017125
143	0x3d85c1d1	0.06531108
144	0xbcf6a925	-0.030109951
145	0x3d3fda8f	0.046839293
146	0xbe363b18	-0.1779598
147	0x3dc7e010	0.097595334
148	0xbc865aa9	-0.016400652
149	0xbdea213a	-0.11432119
150	0xbd708511	-0.058720652
151	0x3ca824b5	0.020525316
152	0xbd82d1aa	-0.063876465
153	0x3d2357e6	0.03987875
154	0x3e33a812	0.17544582
155	0xbdcd230d	-0.10016451
156	0xbd313724	-0.043265477
157	0xbbd98a55	-0.006638805
158	0xbdf2c790	-0.1185447
159	0x3dcf9e32	0.10137595
160	0x3d51f6b2	0.051260658
161	0x3c16a4ff	0.009194612
162	0xbdd68816	-0.10475175
163	0xbde3bd3f	-0.1112008
164	0xbd6e6a2a	-0.058206715
165	0x3d645975	0.055749375
166	0x3ceb9b5a	0.0287606
167	0xbd77b43b	-0.060474616
168	0x3dbe06ea	0.092786625
169	0x3d62428d	0.05523925
170	0xbb92cafb	-0.0044797636
171	0xbd94d741	-0.07267619
172	0x3e50a4ca	0.20375362
173	0x3d7ebf6f	0.062194284
174	0xbe09b41d	-0.13447614
175	0x3c77403e	0.015091
176	0xbd85bcfe	-0.06530188
177	0xbe464168	-0.19360888
178	0xbd946035	-0.072449125
179	0x3dfbd363	0.12296178
180	0x3dab6a83	0.08369925
181	0x3d57b8cd	0.052666474
182	0x3db045ef	0.08607089
183	0xbe5227fa	-0.20523062
184	0x3de526be	0.1118903
185	0xbd33396f	-0.043755945
186	0x3d775083	0.060379516
187	0x3e0178d5	0.1264375
188	0xbe0dea76	-0.13858971
189	0x3c7137ea	0.014722804
190	0xbdbe9eba	-0.093076184
191	0x3db811bf	0.0898776
192	0x3d64d689	0.05586866
193	0xbd3b5813	-0.04573829
194	0xbda0e439	-0.0785603
195	0xbdaf9a89	-0.08574397
196	0xbd297282	-0.04136897
197	0xbd0c7e06	-0.034299873
198	0x3d88cf15	0.06680123
199	0xbbf35d36	-0.007426883
200	0x3d0e3d01	0.034726147
201	0xbc3a7ff1	-0.011383043
202	0xbd7b7aef	-0.061396535
203	0xbe0549ee	-0.13016483
204	0xbd4b3355	-0.0496095
205	0xbdd26466	-0.10273056
206	0x3d28b62e	0.041189365
207	0x3de164bf	0.11005544
208	0x3dc270a9	0.094941445
209	0xbe29950c	-0.16560763
210	0x3d9f1a3d	0.077686764
211	0x3d851a92	0.064992085
212	0x3d86dca9	0.06585056
213	0x3e648c04	0.22319037
214	0x3e2164aa	0.15761057
215	0x3db59273	0.088658236
216	0x3e217893	0.15768652
217	0x3a6af44d	0.0008962795
218	0x3d88e30c	0.06683931
219	0x391b0c66	0.0001478657
220	0xbbaa571a	-0.0051983716
221	0x3df5311b	0.11972257
222	0x3d130fc4	0.035903707
223	0x3e051ce9	0.1299931
224	0xbcc56268	-0.024094775
225	0x3bc4f5cc	0.0060107466
226	0xbdd8f708	-0.105939925
227	0x3d5ef38c	0.054431483
228	0x3d5c5767	0.05379429
229	0x3c70168a	0.014653811
230	0x3d9de4be	0.07709645
231	0xbd83a41c	-0.06427786
232	0xbc7afb97	-0.015318773
233	0xbd717517	-0.058949556
234	0xbce5ed9b	-0.0280674
235	0x3d2f0f81	0.042739395
236	0xbd0f4f2b	-0.03498761
237	0xbd23de28	-0.040006787
238	0xbd33d116	-0.04390057
239	0xbd4016f5	-0.046896894
240	0x3d369237	0.044573035
241	0x3c86a342	0.01643527
242	0xbd38a5a4	-0.045079842
243	0x3e8185f9	0.25297526
244	0x3de58827	0.112076096
245	0xbd78bbee	-0.0607261
246	0x3da3aa54	0.07991472
247	0xbd5e8757	-0.05432829
248	0x3cc2a9f9	0.02376269
249	0xbdc149dd	-0.094379164
250	0xbd701fc9	-0.058624063
251	0xbe382fa3	-0.17986922
252	0x3e113619	0.14180793
253	0x3deba1fe	0.11505507
254	0x3d831248	0.06399971
255	0x3de4380c	0.111435026

network_body._body_endoder.seq_layers.2.bias f4 [128]
0	0x00000000	0.0
1	0x00000000	0.0
2	0x00000000	0.0
3	0x00000000	0.0
4	0x00000000	0.0
5	0x00000000	0.0
6	0x00000000	0.0
7	0x00000000	0.0
8	0x00000000	0.0
9	0x00000000	0.0
10	0x00000000	0.0
11	0x00000000	0.0
12	0x00000000	0.0
13	0x00000000	0.0
14	0x00000000	0.0
15	0x00000000	0.0
16	0x00000000	0.0
17	0x00000000	0.0
18	0x00000000	0.0
19	0x00000000	0.0
20	0x00000000	0.0
21	0x00000000	0.0
22	0x00000000	0.0
23	0x00000000	0.0
24	0x00000000	0.0
25	0x00000000	0.0
26	0x00000000	0.0
27	0x00000000	0.0
28	0x00000000	0.0
29	0x00000000	0.0
30	0x00000000	0.0
31	0x00000000	0.0
32	0x00000000	0.0
33	0x00000000	0.0
34	0x00000000	0.0
35	0x00000000	0.0
36	0x00000000	0.0
37	0x00000000	0.0
38	0x00000000	0.0
39	0x00000000	0.0
40	0x00000000	0.0
41	0x00000000	0.0
42	0x00000000	0.0
43	0x00000000	0.0
44	0x00000000	0.0
45	0x00000000	0.0
46	0x00000000	0.0
47	0x00000000	0.0
48	0x00000000	0.0
49	0x00000000	0.0
50	0x00000000	0.0
51	0x00000000	0.0
52	0x00000000	0.0
53	0x00000000	0.0
54	0x00000000	0.0
55	0x00000000	0.0
56	0x00000000	0.0
57	0x00000000	0.0
58	0x00000000	0.0
59	0x00000000	0.0
60	0x00000000	0.0
61	0x00000000	0.0
62	0x00000000	0.0
63	0x00000000	0.0
64	0x00000000	0.0
65	0x00000000	0.0
66	0x00000000	0.0
67	0x00000000	0.0
68	0x00000000	0.0
69	0x00000000	0.0
70	0x00000000	0.0
71	0x00000000	0.0
72	0x00000000	0.0
73	0x00000000	0.0
74	0x00000000	0.0
75	0x00000000	0.0
76	0x00000000	0.0
77	0x00000000	0.0
78	0x00000000	0.0
79	0x00000000	0.0
80	0x00000000	0.0
81	0x00000000	0.0
82	0x00000000	0.0
83	0x00000000	0.0
84	0x00000000	0.0
85	0x00000000	0.0
86	0x00000000	0.0
87	0x00000000	0.0
88	0x00000000	0.0
89	0x00000000	0.0
90	0x00000000	0.0
91	0x00000000	0.0
92	0x00000000	0.0
93	0x00000000	0.0
94	0x00000000	0.0
95	0x00000000	0.0
96	0x00000000	0.0
97	0x00000000	0.0
98	0x00000000	0.0
99	0x00000000	0.0
100	0x00000000	0.0
101	0x00000000	0.0
102	0x00000000	0.0
103	0x00000000	0.0
104	0x00000000	0.0
105	0x00000000	0.0
106	0x00000000	0.0
107	0x00000000	0.0
108	0x00000000	0.0
109	0x00000000	0.0
110	0x00000000	0.0
111	0x00000000	0.0
112	0x00000000	0.0
113	0x00000000	0.0
114	0x00000000	0.0
115	0x00000000	0.0
116	0x00000000	0.0
117	0x00000000	0.0
118	0x00000000	0.0
119	0x00000000	0.0
120	0x00000000	0.0
121	0x00000000	0.0
122	0x00000000	0.0
123	0x00000000	0.0
124	0x00000000	0.0
125	0x00000000	0.0
126	0x00000000	0.0
127	0x00000000	0.0

value_heads.value_heads.extrinsic.weight f4 [1, 128]
0	0xbe49fdf9	-0.19725789
1	0xbda0cb20	-0.07851243
2	0x3e38916a	0.18024221
3	0xbe174795	-0.147734
4	0x3c9f7278	0.019463763
5	0xbcafd858	-0.021465465
6	0x3da7b2b8	0.08188385
7	0xbe3e8272	-0.18604448
8	0x3b9b9600	0.004748106
9	0xbcc19290	-0.023629457
10	0x3e2c5930	0.16830897
11	0x3d9eb3d0	0.0774914
12	0xbe14b774	-0.14523107
13	0x3d6bcd50	0.057568848
14	0xbde9c67d	-0.11414812
15	0x3dedf9d8	0.116199195
16	0x3d90a194	0.070620686
17	0x3aec0180	0.0018005818
18	0xbe57a0e8	-0.21057475
19	0xbe59a0f6	-0.21252808
20	0xbe0a8e77	-0.13530909
21	0x3e2f6080	0.17126656
22	0xbe0f69f8	-0.14005268
23	0x3d0f9da0	0.035062432
24	0xbe082a80	-0.13297462
25	0xbe4e4f84	-0.2014752
26	0xbe39009b	-0.18066637
27	0x3e09bc88	0.13450825
28	0xbd1e0ce8	-0.038586527
29	0x3d80efc8	0.06295735
30	0x3cd8f6a8	0.026484802
31	0x3e297cc2	0.16551498
32	0x3e46b0dc	0.19403404
33	0x3de67a68	0.11253816
34	0xbc5748e0	-0.013139933
35	0x3d01da94	0.031702593
36	0xbd3617ec	-0.044456407
37	0xbe4d5b5d	-0.20054384
38	0xbd7e5688	-0.06209424
39	0xbe17dfd8	-0.14831483
40	0x3d0e50d8	0.034745067
41	0x3d61f368	0.05516377
42	0xbd5287f4	-0.051399186
43	0x3c642780	0.013925433
44	0x3e0f665a	0.14003888
45	0x3dc9eff8	0.098602235
46	0x3d8c0288	0.0683642
47	0xbe3f5501	-0.1868477
48	0x3c1c5d70	0.009543762
49	0xbd4edf3c	-0.05050586
50	0x3bffb860	0.0078039616
51	0xbe3fab48	-0.18717682
52	0x3c90f8f8	0.017696843
53	0x3d06cbf0	0.032909334
54	0xbd936f90	-0.07199013
55	0x3e5c96e2	0.21541932
56	0xbe58717d	-0.21137042
57	0x3e2e7410	0.17036462
58	0xbe05a978	-0.13052928
59	0xbd98b28a	-0.074559286
60	0x3dad6364	0.08466223
61	0x3e5a42e6	0.21314582
62	0x3e48f708	0.19625485
63	0x3d33fcc0	0.043942213
64	0x3c09d6c0	0.008413017
65	0xbcbcd0b0	-0.023048729
66	0x3db48018	0.088134944
67	0x3db27bc8	0.08715016
68	0xbcebff68	-0.02880831
69	0xbe11e0ea	-0.14245954
70	0xbc0b2aa0	-0.008494049
71	0xbe424778	-0.18972576
72	0xbdfa1ab2	-0.12212123
73	0x3e44c51a	0.19215813
74	0x3da2d0a0	0.07949948
75	0xbe2d90d8	-0.16949785
76	0xbe58ce09	-0.21172346
77	0xbd4389ac	-0.047738716
78	0x3dc105fc	0.094249696
79	0xbd5b13c0	-0.053485632
80	0x3d8aeb30	0.0678314
81	0x3cd883e0	0.02643007
82	0x3e4c332a	0.19941393
83	0xbd656e8c	-0.05601363
84	0xbde84507	-0.11341291
85	0xbe1084cc	-0.14113158
86	0xbe0eb82a	-0.1393744
87	0x3d62a888	0.055336505
88	0x3d0dc2e8	0.034609705
89	0x3d80d078	0.06289762
90	0xbce6f6e0	-0.028193891
91	0xbc9fbfd8	-0.019500658
92	0xbe354b8d	-0.17704602
93	0x3d30a6d8	0.043127865
94	0xbe5758b1	-0.21029927
95	0x3e0d718a	0.13812843
96	0xbe3b79d6	-0.18308195
97	0xbddb3be6	-0.10704784
98	0x3da91000	0.08255005
99	0xbe415ca3	-0.18882994
100	0x3d4c8150	0.04992801
101	0x3e25edfa	0.16204062
102	0xbcce84b0	-0.025209755
103	0xbdc27d8c	-0.094966024
104	0x3d70eaf8	0.058817834
105	0xbdc5ebb2	-0.09664096
106	0x3e2bb5d2	0.16768578
107	0x3ded121c	0.1157572
108	0x3d81653c	0.06318137
109	0xbd5f4a7c	-0.054514393
110	0xbe485ceb	-0.19566695
111	0x3e0eb8ac	0.13937634
112	0xbe506d58	-0.20354211
113	0xbd147a60	-0.03624952
114	0xbcbc3100	-0.022972584
115	0x3d920b88	0.07131106
116	0xbd91271e	-0.07087539
117	0xbd5fe6bc	-0.054663405
118	0x3e143e7e	0.14476964
119	0xbe261af0	-0.16221213
120	0xbe197aea	-0.14988294
121	0x3d5ba750	0.05362636
122	0x3c00ced0	0.007861808
123	0x3e44ddca	0.19225231
124	0xbc0a4300	-0.008438826
125	0x3daaf3f8	0.083473146
126	0x3e2c059e	0.16799018
127	0x3d095b54	0.033534363
