Assets/results/ChaserRun2/My Behavior/My Behavior-2003.onnx (onnx, 77801 bytes, 7 tensors)

network_body._body_endoder.seq_layers.0.weight f4 [128, 6]
0.01248651 -0.3922425 -0.12914619 0.32408157 0.5906105 -0.020456076 -0.023111196 -0.07575028
-0.3951483 -0.5572002 0.22264153 0.39841238 -0.23114993 0.17525996 -0.14850807 -0.3803568
0.16072421 -0.5717653 0.5487388 0.15299161 0.05937447 -0.9490465 -0.65486056 -0.13882887
0.26220807 0.08475156 -0.42196023 0.39519143 -0.3858763 -0.3717756 -0.019229202 -0.6929905
0.16470146 -0.30647364 0.21405375 -0.4007307 -0.0967004 0.056115977 0.14460045 0.2653288
-0.15423828 -0.46238273 -0.024431285 0.37739983 -0.25951 -0.13506874 0.12544407 -0.0289047
-0.2568126 -0.18410432 0.4223522 -0.010966574 0.43783695 0.14976977 0.9198275 0.84310263
-0.35578182 -0.067212716 -0.52324957 0.0691595 0.35115907 -0.016032223 -0.13395688 -0.2559383
-0.056435842 0.42638636 -0.2988444 -0.54159135 0.37549806 -0.16185167 0.7144258 0.698585
-0.28385574 -0.1844489 -0.65883297 -0.01491703 -0.02560429 -0.3158946 -0.40074548 -0.0016714333
1.0817783 -0.1141006 0.12805311 -0.23611742 0.2918899 0.06473612 -0.12183431 -0.31844205
-0.5039025 0.39897835 -0.6178418 -0.043494444 -0.45140055 -0.5044114 -0.37358356 0.24262457
-0.46135417 -0.23590335 -0.08223014 0.2656745 0.6502663 -0.23305584 -1.2307235 0.08200951
0.34925672 -0.023951152 -0.0866 -0.38403612 0.16424988 0.3238661 -0.23829821 -0.63248736
0.5475841 -0.5181861 -0.4741514 -0.035661962 -0.20807277 -0.044830542 0.13194592 0.77855086
0.11923938 0.42460442 -0.037662845 0.121849336 -0.15090105 0.3786809 -0.36442488 -0.78139037
0.115498595 -0.285151 -0.017581107 0.3351629 -0.28447944 0.111239225 -0.67538166 -0.3713353
-0.08617601 0.73391604 0.8019465 -0.11787356 0.45531532 -0.39824873 0.3640606 -0.278057
0.5721134 -0.16913618 0.8288002 0.14452007 -0.29064256 0.68330777 0.063815355 0.16512404
0.626664 0.32041308 -0.056771144 0.73008484 -0.010533599 -0.5049962 0.29193163 -0.07668091
0.24141873 -0.24629164 -0.08070496 -0.1763962 0.7076836 -0.30257073 0.06573124 0.0017659232
-0.37006783 -0.5434337 0.062103245 0.64550966 -0.059167266 0.16448878 -0.74420756 -0.32321212
0.078963414 0.31563705 0.49832225 -0.47248843 0.74595505 -0.026933705 -0.53864586 -0.68077695
0.2704831 0.46127093 -0.83584994 0.44968572 -0.14848723 -0.6991217 -0.4520762 0.22976658
0.046336256 0.47136614 -0.33389482 -0.068407275 -0.13425626 0.2536742 -0.35153475 -0.120494165
-0.66363436 -0.29806376 1.0904936 -0.018529259 0.31414264 -0.045010854 0.028083254 -0.16532296
-0.21137592 0.32444978 0.18458869 0.534562 0.4030489 0.7787693 0.23177448 -0.1826075
0.11939313 -0.44072092 0.045886856 0.2470286 -0.21220261 0.43769947 0.03823842 0.5471378
0.3393329 -0.27394643 -0.07039067 0.41801873 0.21119297 0.013348884 -0.4388139 0.40760896
-0.22784327 -0.13538174 -0.094605684 0.17276254 -0.22968906 -0.46687022 -0.38572195 -0.352775
-0.011870629 -0.36941436 0.04083812 -0.21849245 -0.100514375 0.3798387 -0.9428896 -0.026219765
0.6012845 -0.037117377 -0.11627533 -0.06692766 0.18519227 -0.2182323 -0.38950485 -0.19405939
00000000: 3894 4c3c 02d4 c8be e63e 04be 05ee a53e
00000010: 4032 173f 8093 a7bc b153 bdbc f622 9bbd
00000020: e150 cabe aca4 0ebf 24fc 633e b5fc cb3e
00000030: 91b2 6cbe 5977 333e 8012 18be 20be c2be
00000040: e394 243e 365f 12bf 257a 0c3f d5a9 1c3e
00000050: a532 733d b6f4 72bf f1a4 27bf 2829 0ebe
00000060: 2340 863e 3a92 ad3d 2c0b d8be 8856 ca3e
00000070: 9491 c5be 5f59 bebe 8f86 9dbc d367 31bf
00000080: 80a7 283e 1dea 9cbe e830 5b3e 932c cdbe
00000090: dc0a c6bd ded9 653d 2412 143e 2dd9 873e
000000a0: a4f0 1dbe 6ebd ecbe 1e24 c8bc 8d3a c13e
000000b0: 7fde 84be 764f 0abe 6974 003e 8dc9 ecbc
000000c0: f17c 83be d885 3cbe 8c3e d83e 25ad 33bc
000000d0: 2a2c e03e 3f5d 193e d179 6b3f 93d5 573f
000000e0: 0929 b6be d2a6 89bd aff3 05bf 7fa3 8d3d
000000f0: 1fcb b33e 0256 83bc fe2b 09be 580a 83be
00000100: 4529 67bd 504f da3e 2202 99be bba5 0abf
00000110: 4841 c03e 72bc 25be 9ce4 363f 77d6 323f
00000120: 8a55 91be 2ce0 3cbe 47a9 28bf 8f66 74bc
00000130: 17c0 d1bc f0bc a1be 832e cdbe ff13 dbba
00000140: b677 8a3f 93ad e9bd 5b20 033e c4c8 71be
00000150: 9872 953e 5f94 843d 4484 f9bd d60a a3be
00000160: c1ff 00bf e446 cc3e e12a 1ebf 3b27 32bd
00000170: f91d e7be 1b21 01bf 5846 bfbe 9372 783e
00000180: 9d36 ecbe a690 71be 4768 a8bd 7d06 883e
00000190: da77 263f 31a6 6ebe 5988 9dbf 9af4 a73d
000001a0: c7d1 b23e 3535 c4bc 575b b1bd 62a0 c4be
000001b0: 1f31 283e c7d1 a53e 7204 74be b1ea 21bf
000001c0: 792e 0c3f d8a7 04bf f9c3 f2be 4712 12bd
000001d0: 0711 55be 3ba0 37bd d51c 073e 1c4f 473f
000001e0: c733 f43d c065 d93e 5b44 1abd 258c f93d
000001f0: ce85 1abe 77e2 c13e e695 babe 3309 48bf
00000200: 878a ec3d 50ff 91be 4106 90bc 799a ab3e
00000210: 4aa7 91be 64d1 e33d d0e5 2cbf a91f bebe
00000220: 0c7d b0bd ece1 3b3f 5e4c 4d3f b167 f1bd
00000230: 171f e93e 42e7 cbbe 2766 ba3e 7d5d 8ebe
00000240: 0676 123f 0932 2dbe 402c 543f 12fd 133e
00000250: 1acf 94be 42ed 2e3f a0b1 823d 4716 293e
00000260: 0d6d 203f 2f0d a43e dc88 68bd d7e6 3a3f
00000270: 1e95 2cbc 6e47 01bf 1078 953e e20a 9dbd
00000280: 7936 773e e033 7cbe a448 a5bd 35a1 34be
00000290: c12a 353f 8dea 9abe 1a9e 863d 8d76 e73a
000002a0: 8879 bdbe 791e 0bbf f95f 7e3d 1f40 253f
000002b0: 6059 72bd bf6f 283e 6384 3ebf 0f7c a5be
000002c0: 92b7 a13d 2e9b a13e 1824 ff3e 01ea f1be
000002d0: e9f6 3e3f 13a4 dcbc b2e4 09bf 6647 2ebf
000002e0: c37c 8a3e b42b ec3e 43fa 55bf 353d e63e
000002f0: 090d 18be a4f9 32bf 8876 e7be ee47 6b3e
00000300: 16cb 3d3d e756 f13e 43f4 aabe 1d19 8cbd
00000310: 797a 09be 96e1 813e 5dfc b3be a5c5 f6bd
00000320: f1e3 29bf d09b 98be 4b95 8b3f acca 97bc
00000330: 4ed7 a03e 4d5d 38bd da0e e63c 6c4a 29be
00000340: ee72 58be 481e a63e d104 3d3e 0ed9 083f
00000350: 6d5c ce3e 6d5d 473f 4a56 6d3e 76fd 3abe
00000360: 6384 f43d 2ca6 e1be dbf3 3b3d 11f5 7c3e
00000370: a44b 59be 251a e03e e49f 1c3d 3911 0c3f
00000380: 0bbd ad3e b542 8cbe fc28 90bd 8d06 d63e
00000390: f842 583e 47b5 5a3c 37ac e0be 1fb2 d03e
000003a0: bf4f 69be 83a1 0abe a0c0 c1bd aae8 303e
000003b0: 9c33 6bbe 9d09 efbe 597d c5be ed9e b4be
000003c0: 077d 42bc e123 bdbe df45 273d 7cbc 5fbe
000003d0: 7bda cdbd 387a c23e 3661 71bf d5ca d6bc
000003e0: c8ed 193f 6408 18bd c321 eebd 5e11 89bd
000003f0: 0ba3 3d3e 4a78 5fbe 2e6d c7be 81b7 46be

network_body._body_endoder.seq_layers.0.bias f4 [128]
0.0 0.0 0.0 0.0 0.0 0.0 0.0 0.0
0.0 0.0 0.0 0.0 0.0 0.0 0.0 0.0
0.0 0.0 0.0 0.0 0.0 0.0 0.0 0.0
0.0 0.0 0.0 0.0 0.0 0.0 0.0 0.0
0.0 0.0 0.0 0.0 0.0 0.0 0.0 0.0
0.0 0.0 0.0 0.0 0.0 0.0 0.0 0.0
0.0 0.0 0.0 0.0 0.0 0.0 0.0 0.0
0.0 0.0 0.0 0.0 0.0 0.0 0.0 0.0
0.0 0.0 0.0 0.0 0.0 0.0 0.0 0.0
0.0 0.0 0.0 0.0 0.0 0.0 0.0 0.0
0.0 0.0 0.0 0.0 0.0 0.0 0.0 0.0
0.0 0.0 0.0 0.0 0.0 0.0 0.0 0.0
0.0 0.0 0.0 0.0 0.0 0.0 0.0 0.0
0.0 0.0 0.0 0.0 0.0 0.0 0.0 0.0
0.0 0.0 0.0 0.0 0.0 0.0 0.0 0.0
0.0 0.0 0.0 0.0 0.0 0.0 0.0 0.0
00000000: 0000 0000 0000 0000 0000 0000 0000 0000
00000010: 0000 0000 0000 0000 0000 0000 0000 0000
00000020: 0000 0000 0000 0000 0000 0000 0000 0000
00000030: 0000 0000 0000 0000 0000 0000 0000 0000
00000040: 0000 0000 0000 0000 0000 0000 0000 0000
00000050: 0000 0000 0000 0000 0000 0000 0000 0000
00000060: 0000 0000 0000 0000 0000 0000 0000 0000
00000070: 0000 0000 0000 0000 0000 0000 0000 0000
00000080: 0000 0000 0000 0000 0000 0000 0000 0000
00000090: 0000 0000 0000 0000 0000 0000 0000 0000
000000a0: 0000 0000 0000 0000 0000 0000 0000 0000
000000b0: 0000 0000 0000 0000 0000 0000 0000 0000
000000c0: 0000 0000 0000 0000 0000 0000 0000 0000
000000d0: 0000 0000 0000 0000 0000 0000 0000 0000
000000e0: 0000 0000 0000 0000 0000 0000 0000 0000
000000f0: 0000 0000 0000 0000 0000 0000 0000 0000
00000100: 0000 0000 0000 0000 0000 0000 0000 0000
00000110: 0000 0000 0000 0000 0000 0000 0000 0000
00000120: 0000 0000 0000 0000 0000 0000 0000 0000
00000130: 0000 0000 0000 0000 0000 0000 0000 0000
00000140: 0000 0000 0000 0000 0000 0000 0000 0000
00000150: 0000 0000 0000 0000 0000 0000 0000 0000
00000160: 0000 0000 0000 0000 0000 0000 0000 0000
00000170: 0000 0000 0000 0000 0000 0000 0000 0000
00000180: 0000 0000 0000 0000 0000 0000 0000 0000
00000190: 0000 0000 0000 0000 0000 0000 0000 0000
000001a0: 0000 0000 0000 0000 0000 0000 0000 0000
000001b0: 0000 0000 0000 0000 0000 0000 0000 0000
000001c0: 0000 0000 0000 0000 0000 0000 0000 0000
000001d0: 0000 0000 0000 0000 0000 0000 0000 0000
000001e0: 0000 0000 0000 0000 0000 0000 0000 0000
000001f0: 0000 0000 0000 0000 0000 0000 0000 0000

network_body._body_endoder.seq_layers.2.weight f4 [128, 128]
-0.11565401 -0.08484459 -0.026827723 0.011338694 0.10111608 -0.083006136 0.01395539 -0.15056561
0.024336906 -0.026668182 -0.049196094 -0.10859433 0.01741668 0.019368751 0.06641711 -0.050460577
0.058901917 -0.033679046 0.11360902 -0.054825325 0.0018385693 0.18943095 -0.07963544 0.014606788
-0.028279666 0.073644325 0.0093651265 0.019090613 0.017611548 -0.10644578 -0.038358156 -0.04877278
-0.022538397 -0.048218932 -0.14761783 0.02147794 -0.024086302 0.050910182 -0.02042097 0.05746819
-0.04281676 -0.10521962 -0.16123703 0.09794205 -0.06872564 -0.14438617 -0.001994388 -0.008324081
-0.09683751 0.09337078 0.034308735 0.03067044 -0.12142492 -0.019947035 -0.07354146 0.07400031
-0.12017715 0.07398162 0.01775229 -0.011620104 -0.018921694 -0.023873178 0.079430595 0.2922351
0.033210695 -0.13910604 -0.033589665 0.04048203 -0.12122684 0.16756919 0.10676296 0.123638414
0.037669457 0.073955745 0.056297652 0.007267442 0.036990456 -0.031526912 0.17761645 0.123092964
0.12661858 0.1152092 0.16011459 0.05584424 -0.007060234 -0.04707972 -0.07888727 -0.028277732
0.06615189 -0.05772346 -0.07597828 0.14348868 -0.020572163 0.039757773 0.13213873 -0.038201198
0.11819779 0.006217636 0.1718304 -0.09021876 0.06781071 -0.15686935 -0.019351378 0.14568518
-0.034654852 0.13242882 -0.20746213 0.10145173 0.004467512 -0.027778173 0.10675338 0.095184475
-0.20989779 0.13212408 0.10683951 -0.0843818 0.18666372 -0.108433194 0.08141475 -0.013635759
0.0045288233 -0.0034061607 0.039000966 -0.23259465 0.0009680791 -0.12295696 0.014364427 -0.023559839
0.0058364514 -0.04247143 -0.014739837 -0.10201453 -0.09381678 0.091429986 0.019430581 0.064789824
-0.08043254 -0.1396789 -0.14002968 -0.055548277 0.0145561015 -0.0026551029 0.06273747 -0.080765866
0.01871863 -0.103838846 -0.0655293 -0.04201292 0.122296326 -0.11102211 0.07558766 0.09020183
0.21308991 0.009342415 0.1226884 -0.02349364 0.17142488 0.018045746 0.11265196 -0.08212141
-0.028522631 -0.09935319 -0.07401827 0.03611289 0.17043377 -0.013700943 0.03745221 -0.10320387
-0.077569336 -0.008737781 -0.19281273 -0.07318499 0.025939904 0.016219782 0.027262807 0.08590176
-0.12013875 0.15962349 -0.034844376 0.037806436 0.040880248 -0.021086464 0.04023528 0.072979614
-0.02215517 0.043719277 -0.113106556 0.017547302 -0.15946229 0.024846036 0.13457404 0.07758877
0.21324289 0.001346555 0.14725801 0.1068563 0.032786284 0.024146453 -0.027307546 0.013901804
-0.017585631 0.020253748 0.09301076 -0.09795204 0.14049692 0.0816592 0.10932764 -0.21202967
0.08397106 0.0044710394 0.05331285 -0.054733966 0.004023889 0.02735691 -0.1688254 0.11284206
-0.1588335 -0.034652676 -0.04354219 -0.050263815 -0.02694431 0.17699666 -0.08637753 0.07712207
-0.09415593 -0.011926118 -0.050854422 0.033800427 0.1915077 0.021768596 0.0674693 0.016167128
0.11961486 0.12127173 0.17927387 -0.08550562 0.0998344 0.13147013 0.060889278 0.071468085
-0.056847088 0.0015568853 -0.0117875645 0.108745664 -0.04681127 0.13097739 -0.1286821 -0.034111425
0.034815058 0.1497928 0.06649331 0.061859924 0.11918821 -0.10396452 -0.12583382 0.032642033
00000000: 02dc ecbd 00c3 adbd d0c5 dbbc eec5 393c
00000010: f315 cf3d 1fff a9bd 26a5 643c df2d 1abe
00000020: 315e c73c 3b77 dabc d881 49bd b466 debd
00000030: 6dad 8e3c 37ab 9e3c b205 883d c0af 4ebd
00000040: 2343 713d 0af3 09bd d9ab e83d 8590 60bd
00000050: 26fc f03a 30fa 413e e817 a3bd 4f51 6f3c
00000060: c2aa e7bc d6d2 963d 3070 193c eb63 9c3c
00000070: 1846 903c 3f00 dabd 711d 1dbd f7c5 47bd
00000080: 72a2 b8bc 3781 45bd 2129 17be 81f2 af3c
00000090: a350 c5bc 3287 503d e149 a7bc c463 6b3d
000000a0: a060 2fbd 627d d7bd 521b 25be d795 c83d
000000b0: 07c0 8cbd f8d9 13be 47b4 02bb ba61 08bc
000000c0: bf52 c6bd 2e39 bf3d 5187 0c3d 9340 fb3c
000000d0: a1ad f8bd f767 a3bc e89c 96bd 798d 973d
000000e0: 701f f6bd ad83 973d 406d 913c 4062 3ebc
000000f0: ab01 9bbc af91 c3bc 82ac a23d d79f 953e
00000100: f007 083d d071 0ebe 5195 09bd 7cd0 253d
00000110: c745 f8bd 4297 2b3e 8aa6 da3d 2336 fd3d
00000120: 4a4b 1a3d 1c76 973d 5e98 663d b923 ee3b
00000130: 4e83 173d 5d22 01bd 16e1 353e 2a18 fc3d
00000140: 4da8 013e cdf2 eb3d 14f5 233e eebc 643d
00000150: 8959 e7bb aad6 40bd a68f a1bd b4a6 e7bc
00000160: a47a 873d 6f6f 6cbd 809a 9bbd b2ee 123e
00000170: f486 a8bc 0cd9 223d 604f 073e dc78 1cbd
00000180: af11 f23d 50bd cb3b 4ff4 2f3e 9dc4 b8bd
00000190: 57e0 8a3d 5ca2 20be c886 9ebc 7f2e 153e
000001a0: 3ff2 0dbd 6c9b 073e f470 54be edc5 cf3d
000001b0: 3564 923b 0d8f e3bc 84a1 da3d 14f0 c23d
000001c0: 72ef 56be 894b 073e acce da3d 5dd0 acbd
000001d0: c624 3f3e 3912 debd c7bc a63d 8568 5fbc
000001e0: 8666 943b e539 5fbb 7abf 1f3d 4b2d 6ebe
000001f0: b0c6 7d3a dcd0 fbbd c658 6b3c 9000 c1bc
00000200: b43f bf3b 86f6 2dbd 5b7f 71bc feec d0bd
00000210: 0323 c0bd a53f bb3d e22c 9f3c 87b0 843d
00000220: d1b9 a4bd fc07 0fbe f163 0fbe 9786 63bd
00000230: b77c 6e3c 3c01 2ebb 817c 803d 9368 a5bd
00000240: d057 993c 76a9 d4bd 3a34 86bd bd15 2cbd
00000250: 7f76 fa3d 8f5f e3bd b4cd 9a3d bdbb b83d
00000260: 3e34 5a3e ee10 193c 0e44 fb3d bc75 c0bc
00000270: 018a 2f3e acd4 933c 12b6 e63d 452f a8bd
00000280: 4ba8 e9bc af79 cbbd e496 97bd 1ceb 133d
00000290: 3186 2e3e ec79 60bc 7d67 193d 8d5c d3bd
000002a0: acdc 9ebd e928 0fbc b370 45be 03e2 95bd
000002b0: ec7f d43c 59df 843c 4056 df3c 43ed af3d
000002c0: 4e0b f6bd 5774 233e fab8 0ebd ecda 1a3d
000002d0: 0c72 273d 85bd acbc c0cd 243d 5676 953d
000002e0: c27e b5bc fc12 333d 69a4 e7bd 5cbf 8f3c
000002f0: 154a 23be ea89 cb3c c7cd 093e dce6 9e3d
00000300: 585c 5a3e e37e b03a ceca 163e 7ad7 da3d
00000310: e94a 063d c8ce c53c 13b4 dfbc 64c4 633c
00000320: be0f 90bc 30eb a53c 6d7c be3d 149b c8bd
00000330: 6dde 0f3e f03c a73d 2be7 df3d 4e1e 59be
00000340: 05f9 ab3d cc81 923b 935e 5a3d b930 60bd
00000350: d4da 833b 991b e03c 91e0 2cbe bd19 e73d
00000360: 40a5 22be f7ef 0dbd 4c59 32bd 6ee1 4dbd
00000370: 50ba dcbc 9d3e 353e b4e6 b0bd 2df2 9d3d
00000380: d3d4 c0bd c465 43bc ba4c 50bd 5172 0a3d
00000390: 981a 443e 0e54 b23c 582d 8a3d ed70 843c
000003a0: a3f8 f43d 505d f83d 9293 373e 921d afbd
000003b0: fa75 cc3d 1ba0 063e 0967 793d dc5d 923d
000003c0: 7ed8 68bd 6710 cc3a a120 41bc 0cb6 de3d
000003d0: 2dbd 3fbd f01e 063e 3ec5 03be 6cb8 0bbd
000003e0: 3c9a 0e3d 4963 193e a52d 883d d560 7d3d
000003f0: f318 f43d 5aeb d4bd 95da 00be a7b3 053d

action_model._continuous_distribution.log_sigma f4 [1, 2]
0.0 0.0
00000000: 0000 0000 0000 0000

action_model._continuous_distribution.mu.weight f4 [2, 128]
-0.0047285827 0.00015634859 0.014873661 0.022275459 0.019780634 -0.029486466 0.01774506 0.00802459
-0.017292907 -0.005514692 -0.03257473 0.061739814 0.010006739 -0.039643727 -0.033478048 0.023537759
0.011552724 -0.0064769946 0.0061764917 0.004716191 -0.021358544 0.0067359293 0.016914858 -0.00666313
0.016002603 -0.012604701 -0.005856071 -0.00319747 0.0056547504 -0.007336613 0.001349815 -0.027491832
0.003949437 -0.007548222 0.02507155 0.01713803 0.0018485783 0.0065655694 -0.028795138 0.002715043
0.029855281 -0.016525315 -0.014479232 0.022711454 -0.0029249717 0.008754036 -0.018915934 -0.00023725319
-0.013162084 -0.003402749 0.01777034 -0.0056897416 -0.018105982 0.0019356707 -0.032307137 -0.0247951
0.00039700535 -0.010185445 -0.014910586 -0.026799455 -0.026752759 0.056859482 0.002393987 0.030082742
0.0059364894 0.0379862 0.02558715 -0.013889337 -0.029357392 0.04201183 -0.010461578 -0.03611582
-0.012264335 -0.021078916 -0.014833316 -0.010185346 -0.011691601 0.009248647 -0.0106591685 0.01455713
-0.025624428 0.028678048 0.032111105 0.033789314 -0.00660867 -0.013004529 0.0031961747 -0.0149651235
-0.029513298 0.00368427 -0.001468911 0.007813688 0.011713053 -0.014885582 -0.024728758 0.00079328864
0.0246291 -0.016595285 0.007647179 -0.0074184695 0.0063857473 0.031442907 -0.00015694107 -0.0070821964
0.007744172 -0.000649508 0.011611734 0.017961517 -0.025231693 -0.016647244 0.017071122 0.015625825
-0.011529425 0.022526123 0.008852442 -0.008821084 0.008659759 -0.016750984 -0.0059575466 -0.0013690953
-0.02386762 -0.033919282 -0.004208739 -0.0063116117 0.026821276 -0.0014514102 0.018502433 -0.032575525
-0.0023110053 -0.00866242 0.02002924 0.019909808 0.017625714 -0.0110708475 -0.0039670714 0.021221725
-0.0050417986 -0.008381762 -0.013090479 -0.0047904947 -0.024479203 0.02855268 0.005044628 0.0074291537
-0.0034791157 0.008031543 -0.008779321 0.016735917 0.0011524037 0.007057113 -0.0064661675 -0.008672849
0.0047112256 0.019380992 0.00016825284 0.007421536 0.036304668 -0.023168793 -0.006879566 0.0012064729
-0.0026999966 0.016550587 -0.009001652 0.008005953 0.004687882 0.009306822 0.0052490993 -0.00316929
-0.01809891 -0.0009564892 0.024769388 0.038589515 0.027733697 -0.011940915 -0.004046079 -0.01405475
-0.02642014 0.010259367 0.018807022 0.052712947 0.013657013 0.019133562 -0.009521028 -0.0026893585
0.016458996 0.02150536 0.01104629 0.039930727 -0.03324316 0.00036461107 -0.007484515 0.010655789
0.018864887 0.010925285 0.011624209 0.015763698 -0.016302267 0.017099565 -0.009298286 0.008434208
-0.022711439 -0.0086127585 -0.038776733 0.03223441 0.0041711223 -0.0064868554 0.0134173175 0.0071205273
0.0098514855 -0.009235754 0.03132085 0.012749897 -0.008663932 0.013920694 -0.01562931 -0.020879906
-0.017802289 -0.030638814 -0.001151923 0.0013244706 0.027211918 0.0038116348 -0.026142618 0.019642863
-0.032639485 -0.0012642542 0.025140423 -0.0032982298 0.015695421 5.909204e-05 0.012922446 0.017700601
0.013038493 -8.6584354e-05 0.0145235285 0.024092434 -0.005070161 0.016669044 0.019696644 0.0075188065
0.0058503146 0.0021129518 -0.025688512 0.026767937 -0.0073737437 -0.009029658 0.018739676 -0.00061398366
-0.011917008 -0.02822474 -0.0136717325 0.023973553 -0.00012637196 -0.010342765 0.0018605933 0.011637206
00000000: 3af2 9abb 81f1 2339 a8b0 733c 067b b63c
00000010: ff0a a23c 9a8d f1bc 175e 913c 9279 033c
00000020: dba9 8dbc 97b4 b4bb 156d 05bd e3e2 7c3d
00000030: 4ef3 233c 7661 22bd 4720 09bd 42d2 c03c
00000040: a347 3d3c f83c d4bb 2b64 ca3b 478a 9a3b
00000050: 1df8 aebc 12b9 dc3b 0791 8a3c 6356 dabb
00000060: e417 833c f383 4ebc 49e4 bfbb a58c 51bb
00000070: 7c4b b93b f867 f0bb 47ec b03a 8d36 e1bc
00000080: 476a 813b 1357 f7bb da62 cd3c 0e65 8c3c
00000090: ff4b f23a fd23 d73b c8e3 ebbc ddee 313b
000000a0: 1093 f43c 1960 87bc 4d3a 6dbc 5f0d ba3c
000000b0: e2b0 3fbb 176d 0f3c 97f5 9abc 2bc7 78b9
000000c0: c8a5 57bc a800 5fbb 1b93 913c 0371 babb
000000d0: ff52 94bc 55b6 fd3a 7d54 04bd 181f cbbc
000000e0: 2825 d039 dae0 26bc 884b 74bc 888a dbbc
000000f0: 9a28 dbbc 7de5 683d 70e4 1c3b 1570 f63c
00000100: e286 c23b 6b97 1b3d 259c d13c 1a90 63bc
00000110: ea7e f0bc 9914 2c3d 0a67 2bbc 2fee 13bd
00000120: 59f0 48bc b1ad acbc 7007 73bc 70e0 26bc
00000130: 218e 3fbc a387 173c cba3 2ebc 0781 6e3c
00000140: 52ea d1bc 3aee ea3c ef86 033d aa66 0a3d
00000150: 8b8d d8bb f310 55bc ea76 513b 4730 75bc
00000160: dfc5 f1bc cb73 713b 7988 c0ba fc04 003c
00000170: 1be8 3f3c a8e2 73bc f793 cabc b3f4 4f3a
00000180: f7c2 c93c d6f2 87bc 3095 fa3b a216 f3bb
00000190: 883f d13b 47ca 003d 8c90 24b9 c511 e8bb
000001a0: d3c2 fd3b be43 2aba 243f 3e3c 0824 933c
000001b0: b2b2 cebc cd5f 88bc bdd8 8b3c bb01 803c
000001c0: eae5 3cbc b488 b83c d509 113c 4f86 10bc
000001d0: a9e1 0d3c 5c39 89bc 8637 c3bb 3773 b3ba
000001e0: 0786 c3bc f2ee 0abd 76e9 89bb a3d1 cebb
000001f0: 4bb8 db3c 3f3d beba 6a92 973c ea6d 05bd
00000200: 3c74 17bb d3ec 0dbc 5c14 a43c e519 a33c
00000210: cd63 903c 8062 35bc 35fe 81bb 2fd9 ad3c
00000220: ac35 a5bb a853 09bc 7379 56bc 95f9 9cbb
00000230: 9c88 c8bc 4fe7 e93c 684d a53b 4270 f33b
00000240: e001 64bb bc96 033c 24d7 0fbc c319 893c
00000250: 400c 973a 5b3f e73b 25e2 d3bb 9118 0ebc
00000260: a060 9a3b e3c4 9e3c 076d 3039 5b30 f33b
00000270: 34b4 143d 7bcc bdbc fb6d e1bb 8322 9e3a
00000280: 6df2 30bb 1995 873c aa7b 13bc 672b 033c
00000290: ce9c 993b a47b 183c a300 ac3b ddb3 4fbb
000002a0: 2a44 94bc e7bc 7aba 2ce9 ca3c 0a10 1e3d
000002b0: c731 e33c d4a3 43bc f894 84bb e545 66bc
000002c0: 0d6f d8bc e716 283c 2f11 9a3c 88e9 573d
000002d0: aac1 5f3c fdbd 9c3c 16fe 1bbc f33f 30bb
000002e0: 04d5 863c 022c b03c 80fb 343c 678e 233d
000002f0: fb29 08bd 4529 bf39 aa40 f5bb 9e95 2e3c
00000300: 898a 9a3c f7ff 323c 7773 3e3c df22 813c
00000310: 558c 85bc 6314 8c3c d757 18bc a22f 0a3c
00000320: 570d babc 871c 0dbc 5ad4 1ebd 3b08 043d
00000330: e9ad 883b b08f d4bb 4fd4 5b3c 5053 e93b
00000340: 2068 213c 8f51 17bc 4b4a 003d f2e4 503c
00000350: 2af3 0dbc 9f13 643c 0a09 80bc 560c abbc
00000360: 1bd6 91bc 40fe fabc 1ffc 96ba dc99 ad3a
00000370: 87eb de3c 9fcc 793b 0b29 d6bc 12ea a03c
00000380: fbb0 05bd 55b5 a5ba 4af3 cd3c 1d27 58bb
00000390: af93 803c 98d9 7738 abb8 533c da00 913c
000003a0: 679f 553c 9f94 b5b8 18f4 6d3c 7f5d c53c
000003b0: 9823 a6bb 858d 883c db5a a13c 5260 f63b
000003c0: ffb3 bf3b 7379 0a3b b770 d2bc 6f48 db3c
000003d0: 729f f1bb 21f1 13bc f383 993c bff3 20ba
000003e0: 8e3f 43bc 9237 e7bc 67ff 5fbc 2f64 c43c
000003f0: b782 04b9 b374 29bc 27df f33a fba9 3e3c

action_model._continuous_distribution.mu.bias f4 [2]
0.0 0.0
00000000: 0000 0000 0000 0000

action_model._discrete_distribution.branches.0.weight f4 [1, 128]
-0.0037125908 -0.0112139275 -0.0067670527 -0.005120502 0.009327446 0.00014886551 -0.008574973 -0.0021408363
0.003516417 -0.009672272 -0.0022198781 -0.012122369 0.0031439418 0.024509681 -0.018127829 0.014620501
-0.009536824 -0.00264446 -0.005192717 -0.009615694 -0.009339251 -0.015115856 0.003921121 -0.004639184
-0.01594961 -0.010156353 -0.0038217634 -0.0027303237 0.0013920912 0.0060379873 0.0010864056 -0.030940553
-0.011034226 -0.00674206 -0.0041273204 -0.0129677085 -0.0106220795 0.0048790006 -0.0123514235 0.003030716
0.0026659116 0.0031545018 -0.024814846 -0.009275412 0.0113383345 -0.0070099197 -0.003921116 -0.014614621
0.009823189 0.013008726 -0.0097063845 -0.0046291677 -0.0023452672 0.0028956796 0.0043958914 0.009840861
0.0019270212 0.018397218 0.01085826 -0.011458936 -0.0023518542 -0.00029878112 -0.009316693 0.012751946
0.004755117 -0.014091723 -0.003995001 -0.00578077 0.0021016903 0.010784604 -0.020585988 0.010545545
-0.015093289 0.0035105203 -0.009605413 -0.006010107 0.00017527654 -0.00045328293 0.001869526 0.008577118
0.013765888 0.0050970665 0.011494244 -0.015862048 0.007457558 0.013281735 -0.006076108 -0.014988377
0.0011956381 -0.003601579 -0.010687996 -0.005000641 0.010883158 0.010612931 0.015689353 0.022103636
0.011737118 0.003564017 -0.0021254334 0.006712378 0.010782267 -0.013186209 -0.009570344 0.011596947
0.009536773 0.0019588321 0.0008738222 0.011646169 0.020933218 0.0014920548 0.00053406163 0.0043877806
0.0058059217 0.006868155 -0.0049494896 0.010883879 0.0026816984 -0.027965052 -0.005378756 -0.010788063
-0.010745685 -0.0058915517 0.002858416 0.015872596 -0.0009253595 0.008450921 -0.0032215107 -0.0015804617
00000000: f04e 73bb 9fba 37bc 27be ddbb e2c9 a7bb
00000010: 25d2 183c c818 1c39 0b7e 0cbc 464d 0cbb
00000020: b073 663b 7378 1ebc 607b 11bb e79c 46bc
00000030: 970a 4e3b 87c8 c83c d080 94bc d38a 6f3c
00000040: 5740 1cbc ad4e 2dbb ab27 aabb 258b 1dbc
00000050: a803 19bc 7fa8 77bc bf7c 803b 4c04 98bb
00000060: c2a8 82bc d566 26bc 8d76 7abb 3bef 32bb
00000070: d476 b63a 4fda c53b b965 8e3a 0b77 fdbc
00000080: e6c8 34bc 80ec dcbb 793e 87bb 8376 54bc
00000090: 3b08 2ebc 06e0 9f3b a05d 4abc fa9e 463b
000000a0: 93b6 2e3b c2bb 4e3b 8148 cbbc e6f7 17bc
000000b0: 6cc4 393c 78b3 e5bb b47c 80bb 2a72 6fbc
000000c0: 71f1 203c 8d22 553c 8707 1fbc 46b0 97bb
000000d0: 0eb3 19bb 71c5 3d3b 690b 903b 903b 213c
000000e0: 1a94 fc3a c3b5 963c d8e6 313c 43be 3bbc
000000f0: 9121 1abb b9a5 9cb9 0ba5 18bc 8aed 503c
00000100: d0d0 9b3b f8e0 66bc 7fe8 82bb 9d6c bdbb
00000110: 83bc 093b e8b1 303c f2a3 a8bc 39c7 2c3c
00000120: d849 77bc c210 663b 0660 1dbc 6ff0 c4bb
00000130: 70ca 3739 9ba6 edb9 e20a f53a 0a87 0c3c
00000140: 528a 613c 4b05 a73b 5b52 3c3c 20f1 81bc
00000150: 885e f43b a29b 593c 171a c7bb cf91 75bc
00000160: f5b6 9c3a 7808 6cbb b41c 2fbc 6bdc a3bb
00000170: 464f 323c dce1 2d3c f586 803c af12 b53c
00000180: 0a4d 403c 4892 693b db4a 0bbb 82f3 db3b
00000190: 1ba8 303c f80a 58bc efcc 1cbc 1f01 3e3c
000001a0: 2040 1c3c c05f 003b 3711 653a 93cf 3e3c
000001b0: 247c ab3c 0d91 c33a 4500 0c3a 5fc7 8f3b
000001c0: 9a3f be3b 430e e13b 542f a2bb 4c52 323c
000001d0: 6fbf 2f3b f716 e5bc 4740 b0bb 6ac0 30bc
000001e0: ab0e 30bc eb0d c1bb 4354 3b3b 3f07 823c
000001f0: d393 72ba bb75 0a3c fb1f 53bb 7f27 cfba
