results/ChaserRun3/My Behavior.onnx (onnx, 78254 bytes, 8 tensors)

network_body._body_endoder.seq_layers.0.weight f4 [128, 6]
0	0x3ea95523	0.33072767
1	0xbe6d5d94	-0.23180228
2	0x3dbb9755	0.09159724
3	0xbe6c3277	-0.23066126
4	0xbf1f7a9b	-0.62296456
5	0x3f07bc6b	0.5302188
6	0xbebdf94f	-0.3710427
7	0x3f63407e	0.8877028
8	0x3eaaf715	0.33391634
9	0xbf20a11d	-0.6274584
10	0x3d94aa6c	0.07259068
11	0xbe48edd9	-0.19621982
12	0xbea1e60b	-0.3162082
13	0x3e6fade5	0.23406179
14	0x3f294150	0.66115284
15	0xbdfc435a	-0.12317534
16	0x3e965903	0.29364786
17	0xbed95ec6	-0.4245512
18	0xbd9ea364	-0.07746008
19	0x3dd51ed2	0.10406269
20	0x3c504127	0.012710846
21	0x3e919d40	0.28440285
22	0xbef4debf	-0.47826192
23	0x3ddc176d	0.107466556
24	0xbe18f76c	-0.14938134
25	0x3f0575ae	0.5213269
26	0x3ee0331b	0.4378899
27	0x3e75262a	0.2394034
28	0xbe9013f5	-0.28140226
29	0xbeb7dc1e	-0.35910124
30	0x3ec3ff31	0.38280633
31	0xbe8b3603	-0.27189645
32	0x3db1f874	0.08689967
33	0x3f3c4bab	0.7355296
34	0x3ea083fa	0.3135069
35	0x3d8d4369	0.06897623
36	0x3d9ffcb5	0.07811872
37	0x3f846177	1.0342244
38	0xbe44fd75	-0.19237311
39	0xbca5467b	-0.02017521
40	0xbd734a6c	-0.059397146
41	0x3f0dbd2c	0.5536678
42	0xbd65fb5b	-0.056147914
43	0x3e0b5f7f	0.13610648
44	0xbd7b5de7	-0.06136885
45	0x3c824260	0.01590079
46	0xbed05ab1	-0.40694192
47	0xbf53a8ef	-0.8267965
48	0xbe9ff6c4	-0.31242955
49	0x3e453797	0.19259487
50	0xbcc71645	-0.024302611
51	0xbeb1fb92	-0.34762245
52	0x3e26718f	0.16254257
53	0xbf53f38e	-0.8279351
54	0xbe3488cd	-0.1763031
55	0x3e71fdb4	0.23631936
56	0xbef3727f	-0.4754829
57	0x3e16f588	0.147421
58	0x3ec79082	0.38977438
59	0x3e0a2846	0.13491926
60	0xbf1abf9b	-0.60448617
61	0x3f039e68	0.51413584
62	0xbd281182	-0.04103232
63	0xbe26316a	-0.16229787
64	0x3cb37973	0.021908497
65	0xbe971bca	-0.2951339
66	0x3f219c0e	0.63128746
67	0xbe8efd6d	-0.27927724
68	0xbe905bda	-0.28195077
69	0x3e34c324	0.17652565
70	0x3e83e247	0.25758573
71	0x3d363f5d	0.04449402
72	0x3ea55e65	0.3229858
73	0xbf0c7d3f	-0.5487861
74	0xbd376a25	-0.04477896
75	0x3f0c7f8a	0.5488211
76	0xbe960220	-0.29298496
77	0x3f97ca01	1.1858522
78	0xbe223dc4	-0.15843874
79	0x3d07af69	0.03312627
80	0xbf1e67c7	-0.618771
81	0x3ee6eb28	0.45101285
82	0x3f27da6a	0.6556765
83	0xbcb9b679	-0.022670018
84	0xbe1a0977	-0.15042673
85	0xbe90fd06	-0.28318042
86	0x3e9a8081	0.30176166
87	0x3dbeea6b	0.093220554
88	0xbdffe0a2	-0.12494017
89	0x3e25fea4	0.16210419
90	0xbd567b86	-0.052363895
91	0xbdc11fd7	-0.09429901
92	0xbecb1626	-0.39665335
93	0xbedd8e3b	-0.43272576
94	0xbc0d496e	-0.008623464
95	0x3f0b89a9	0.5450693
96	0xbedfdd55	-0.4372355
97	0xbe4364c5	-0.1908141
98	0xbea46ebd	-0.32115737
99	0xbe9e67ea	-0.30938655
100	0x3e51457b	0.20436661
101	0x3e6f19d1	0.23349692
102	0xbf518611	-0.81845194
103	0x3efc9d90	0.4933896
104	0x3d292b27	0.04130092
105	0x3e181448	0.14851487
106	0xbea40717	-0.3203666
107	0xbca887b1	-0.020572515
108	0x3e0c3cc9	0.13695063
109	0xbf5f3ce7	-0.87202305
110	0xbdd39c81	-0.10332585
111	0x3e0ecf6d	0.13946314
112	0xbee79bf1	-0.4523616
113	0x3d560990	0.052255213
114	0x3ec1173e	0.37713045
115	0x3f7baff3	0.9831535
116	0xbe0d113b	-0.13776104
117	0x3da00a3b	0.07814451
118	0x3dd07378	0.10178274
119	0xbe2af0c0	-0.16693401
120	0xbdf37b9f	-0.11888813
121	0xbf47a90a	-0.7799231
122	0xbed0718e	-0.40711635
123	0xbd2e84e2	-0.042607196
124	0x3d96bc78	0.07360166
125	0xbf1d961e	-0.61557186
126	0xbbe65149	-0.007028733
127	0x3e7ba765	0.24575575
128	0xbeabe44f	-0.33572623
129	0xbc563148	-0.013073273
130	0xbea622e2	-0.32448488
131	0xbea04f0b	-0.31310305
132	0xbe654295	-0.2238868
133	0xbe3f06c2	-0.18654922
134	0xbd9074c6	-0.07053523
135	0xbf4b94e6	-0.79524076
136	0xbebc923c	-0.36830318
137	0x3e878973	0.26472053
138	0x3e9b0f55	0.30285135
139	0x3ce6df0d	0.02818253
140	0xbe58b65f	-0.21163319
141	0xbf27c699	-0.6553741
142	0xbd8997d2	-0.067184106
143	0x3db94650	0.09046614
144	0xbf0d407b	-0.55176514
145	0x3e137a25	0.14402063
146	0xbe47d00c	-0.19512957
147	0xbcc4690a	-0.023975868
148	0xbddb08d2	-0.10695042
149	0x3ecc8504	0.39945233
150	0x3daad3dd	0.08341191
151	0xbeb4dfdc	-0.3532704
152	0x3e58840b	0.2114412
153	0xbf522445	-0.8208659
154	0x3ec4ccdd	0.38437548
155	0xbea4baeb	-0.32173857
156	0xbe2aa528	-0.16664565
157	0xbebe190f	-0.37128493
158	0xbd7c2074	-0.061554387
159	0x3d83c5fa	0.064342454
160	0xbdf7d944	-0.12101987
161	0x3e935b78	0.28780723
162	0xbda6323c	-0.0811505
163	0xbdef23fc	-0.11676785
164	0xbe5af364	-0.21381909
165	0x3d031913	0.032006335
166	0xbf073956	-0.5282186
167	0xbe9f10b5	-0.31067434
168	0x3f10f107	0.5661778
169	0xbe73c78f	-0.23806594
170	0x3e679bb9	0.22617997
171	0xbebbc7fc	-0.36676013
172	0xbea7af3d	-0.32750884
173	0xbd845de1	-0.064632185
174	0x3eec2158	0.4611919
175	0x3d429a20	0.047510266
176	0x3f0133f9	0.5046993
177	0x3e5d0d98	0.21587217
178	0x3e0329d0	0.12808919
179	0x3e45ad8b	0.19304483
180	0x3e6bf974	0.23044378
181	0x3ef336db	0.4750279
182	0x3ab02fb5	0.0013441952
183	0xbf08090c	-0.53138804
184	0x3e5477d3	0.20748834
185	0x3e4521c5	0.19251163
186	0xbd9fa4eb	-0.077951275
187	0x3debf022	0.11520411
188	0xbf44e7d4	-0.7691624
189	0xbea86152	-0.3288675
190	0x3e29cabe	0.16581246
191	0xbec15df2	-0.37766987
192	0x3e191f2f	0.14953302
193	0xbe4174f3	-0.18892269
194	0xbf34b8e4	-0.7059462
195	0x3f3060dc	0.68897796
196	0x3eb59164	0.35462487
197	0xbf41a449	-0.75641304
198	0xbe11c4f2	-0.14235285
199	0xbec96109	-0.39331844
200	0xbedde264	-0.43336785
201	0x3dfc34e0	0.123147726
202	0x3ef47dca	0.4775222
203	0x3f3bf1d5	0.7341588
204	0x3f0c2d4d	0.54756624
205	0x3de8c1fc	0.113651246
206	0xbdfb0c56	-0.12258212
207	0xbe39f8a5	-0.18161257
208	0x3e929536	0.28629464
209	0x3dd09acc	0.10185775
210	0x3ee8d4f6	0.45474976
211	0xbe9d8e64	-0.30772698
212	0x3cdf511b	0.027260354
213	0xbcad1006	-0.021125805
214	0xbcef628c	-0.029221795
215	0xbe6471fe	-0.2230911
216	0xbf5a7b47	-0.85344356
217	0xbf0736bc	-0.52817893
218	0x3e80068e	0.25005
219	0xbf082732	-0.5318481
220	0x3d8e7f0b	0.06957825
221	0x3f71a40e	0.9439095
222	0xbf442a96	-0.7662748
223	0xbeb130d0	-0.34607553
224	0xbd4b4716	-0.04962834
225	0xbe3d6502	-0.18495563
226	0x3ef89f73	0.4855915
227	0x3f17d18e	0.5930413
228	0x3f9e87ab	1.2385153
229	0x3eef028f	0.4668164
230	0x3cf16c0f	0.029470472
231	0xbf17f414	-0.5935681
232	0xbc64e24c	-0.013969969
233	0xbe570cb9	-0.21000947
234	0xbee55cc5	-0.4479734
235	0xbe89cde5	-0.26914898
236	0x3e4fb55a	0.20284024
237	0xbdae6818	-0.08515948
238	0x3f2103c2	0.6289636
239	0x3f123f12	0.5712749
240	0xbee14e98	-0.44005275
241	0x3e859e45	0.26097313
242	0xbe23b618	-0.15987432
243	0x3ebd0ea2	0.36925226
244	0xbf3338fa	-0.70008814
245	0x3ef9786e	0.48724693
246	0x3e0bac25	0.13639887
247	0xbe5da345	-0.21644314
248	0x3e986a99	0.29768828
249	0x3f7fd845	0.99939376
250	0xbe826365	-0.25466457
251	0xbecb7e53	-0.39744815
252	0xbda6299a	-0.081134036
253	0xbe6428f4	-0.22281247
254	0x3f62943f	0.88507456
255	0x3f0f536a	0.55986655

network_body._body_endoder.seq_layers.0.bias f4 [128]
0	0x3b8c343b	0.0042786873
1	0x3aae3d34	0.0013293386
2	0xbabdeaa3	-0.0014489483
3	0x3a82925e	0.0009961834
4	0x3aa52325	0.0012598975
5	0xbb0d5360	-0.0021564588
6	0xb9ffae18	-0.000487671
7	0xbaf87a2d	-0.001895731
8	0xbb4fb3a7	-0.0031692775
9	0x3b9c5034	0.004770303
10	0xbb7f34de	-0.0038941423
11	0x3b240b89	0.002503129
12	0xbaea0793	-0.001785504
13	0x3a893252	0.0010467267
14	0xbb1bd841	-0.002378002
15	0xb98b9b3f	-0.00026627813
16	0x3a58a98c	0.00082650105
17	0xb95c5120	-0.00021011056
18	0x3a9fc2f6	0.001218884
19	0x3b330e7a	0.002732186
20	0x3a9bf412	0.00118983
21	0x3997ee10	0.00028978335
22	0xbaa4711a	-0.0012545914
23	0xbb1cd49e	-0.002393044
24	0xbb4946ba	-0.0030712322
25	0xbb02b31c	-0.0019943183
26	0xbb1cb7db	-0.0023913297
27	0x3b3a6df0	0.0028446876
28	0xb9cef04a	-0.0003947041
29	0xbb217932	-0.0024638888
30	0x3b2ac134	0.00260551
31	0x390c829c	0.00013400096
32	0x3a761ec0	0.00093887374
33	0xb9794097	-0.00023770552
34	0xbb68bdad	-0.0035513446
35	0x3ac3fca5	0.0014952613
36	0xbb4ff45d	-0.0031731345
37	0x3b0a6019	0.0021114408
38	0x3b498e0e	0.0030754837
39	0xba9f2c39	-0.0012143917
40	0xb791af4e	-1.736698e-05
41	0xbadb2d9e	-0.0016721969
42	0xba809255	-0.0009809235
43	0x3abdb0fe	0.0014472303
44	0xbb0304b3	-0.0019991815
45	0x3a806cd1	0.0009798055
46	0x3ae26f45	0.0017275593
47	0xba172ce7	-0.0005766884
48	0xbb1f15ab	-0.002427439
49	0x3b258ced	0.0025261
50	0x3ad16653	0.001597593
51	0xbb39543b	-0.0028278965
52	0x395b4073	0.00020909477
53	0x3b3805ec	0.0028079702
54	0xbac972c5	-0.0015369287
55	0x3a8a347a	0.0010544204
56	0xbadd684d	-0.0016892046
57	0x3b6c781e	0.0036082338
58	0x3b0229bd	0.0019861304
59	0x3adeca9f	0.0016997642
60	0x3b8e7b50	0.004348196
61	0xbade4ab1	-0.0016959516
62	0xb91ab235	-0.00014752972
63	0x3a33ec60	0.0006863531
64	0xbb120b09	-0.002228441
65	0xbadf1116	-0.0017018642
66	0xbb18f96e	-0.002334203
67	0xbb170ed9	-0.0023049621
68	0xbaac9e17	-0.0013169673
69	0xba91f8a8	-0.0011136727
70	0x3ae14b38	0.0017188555
71	0xbb66573f	-0.0035147218
72	0x3a174037	0.00057697616
73	0x3b014b3a	0.0019728676
74	0x3b32ad25	0.0027263847
75	0xbb29afd7	-0.0025892162
76	0x3a58daa9	0.0008272329
77	0x3b0a08ce	0.0021062377
78	0xbab12248	-0.0013514245
79	0xbaa55c82	-0.001261607
80	0xbb8fc0bf	-0.004386991
81	0x3aaedacf	0.0013340357
82	0x3b150fb7	0.0022744962
83	0xb943ea90	-0.0001868403
84	0xba799842	-0.00095212844
85	0x3b10d04c	0.002209681
86	0xb9fdf386	-0.0004843736
87	0x3a9ead92	0.0012106171
88	0x3b542aa1	0.0032374042
89	0x3b9945d1	0.004677512
90	0x3ae269b6	0.0017273936
91	0xbb692fb9	-0.0035581423
92	0xbb694986	-0.0035596802
93	0x39ce75aa	0.00039379048
94	0xbae36ed3	-0.0017351754
95	0xbb49aa11	-0.0030771533
96	0x3adc60e9	0.001681355
97	0xb9f63e5a	-0.00046967232
98	0xb9ebc4ff	-0.00044969466
99	0x3a072dac	0.0005156647
100	0xbb058df0	-0.002037879
101	0x3ab3342f	0.0013672168
102	0x39ff1818	0.0004865534
103	0x3ad11c12	0.00159538
104	0x3a12a1ac	0.0005593549
105	0xba480c67	-0.00076312426
106	0x3b23fca5	0.0025022414
107	0x3ae2b749	0.0017297055
108	0x3b12b0af	0.0022383144
109	0xbb427f20	-0.0029677823
110	0x3b642acf	0.0034815555
111	0xbb37ccdb	-0.0028045687
112	0xbabf99fc	-0.0014618034
113	0x3b16df77	0.002302138
114	0x39b815c3	0.0003511143
115	0x3b2a977c	0.0026030233
116	0x399df120	0.00030125026
117	0x393a063c	0.00017740665
118	0xba12997f	-0.00055923307
119	0x3aaf90c4	0.0013394584
120	0xbb7397e6	-0.0037169396
121	0x3afdafb0	0.0019354727
122	0x39b71db8	0.00034926622
123	0xbad25615	-0.0016047383
124	0xbb1ab76a	-0.0023607858
125	0xbb352632	-0.0027641174
126	0xb96db6bb	-0.00022670154
127	0xbb202cf9	-0.0024440868

network_body._body_endoder.seq_layers.2.weight f4 [128, 128]
0	0x3b5118fe	0.0031905766
1	0xbdc300d8	-0.09521645
2	0x3db9bbca	0.09069021
3	0x3d804207	0.06262594
4	0x3d531798	0.051536173
5	0xbcae109e	-0.021248158
6	0xbe484981	-0.1955929
7	0x3e852c60	0.26010418
8	0xbe352cdc	-0.17692894
9	0x3dd6b94e	0.10484563
10	0xbdd6e2ac	-0.10492453
11	0xbb990bd5	-0.0046706
12	0x3da40006	0.08007817
13	0xbd575bf4	-0.052577928
14	0xbc962bd1	-0.01833144
15	0x3c29edd5	0.010371645
16	0xbe383e95	-0.17992623
17	0x3dac85bc	0.08423945
18	0x3dd3d44a	0.10343225
19	0xbd72a8a4	-0.05924286
20	0x3d00cd94	0.031446055
21	0x3e176d34	0.14787751
22	0x3cac482d	0.02103051
23	0x3df00206	0.11719136
24	0xbe3c7103	-0.18402486
25	0xbd35e6c4	-0.04440953
26	0xbb7a75df	-0.003821723
27	0xbd95d1ba	-0.07315393
28	0x3cc736e1	0.02431816
29	0x3c2e3c61	0.010634513
30	0xbd3b8a7f	-0.045786377
31	0x3dd503ad	0.10401092
32	0xbda076f8	-0.078351915
33	0xbd6ffcbf	-0.058590647
34	0xbe3e8bd2	-0.18608025
35	0xbd11cf20	-0.03559792
36	0x3de01f7e	0.10943507
37	0x3d922bce	0.07137261
38	0xbdaa672a	-0.08320458
39	0xbe1a73bd	-0.15083213
40	0x3e4d6131	0.20056607
41	0x3d3ad790	0.045615733
42	0xbce9955e	-0.028513607
43	0xbd0a785d	-0.033806194
44	0x3da69364	0.08133581
45	0xbd92aec2	-0.07162239
46	0x3df4f963	0.11961629
47	0x3d483aa8	0.048884064
48	0x3cba697f	0.022755383
49	0x3dee506f	0.11636435
50	0x3d218213	0.03943069
51	0xbdd81573	-0.10550966
52	0xbd88a4de	-0.06672071
53	0x3e3c1900	0.18368912
54	0xbdff2208	-0.12457663
55	0x3d276160	0.04086435
56	0xbd540adc	-0.05176817
57	0x3deabb31	0.11461485
58	0xbd6f59d6	-0.058435284
59	0x3e14302e	0.14471504
60	0xbe3abc00	-0.18235779
61	0x3d1d65e7	0.03842726
62	0xbe7229a6	-0.236487
63	0x3d282713	0.04105289
64	0xbdb3c5e2	-0.087779775
65	0x3cf7bb66	0.030240726
66	0xbccf3358	-0.025293037
67	0x3d0d7520	0.034535527
68	0xbd2dd3ca	-0.042438306
69	0xbe940f77	-0.2891805
70	0xbd8deb2b	-0.0692962
71	0xbcc1c763	-0.023654645
72	0x3cf724bc	0.030168884
73	0xbd74e3fc	-0.059787735
74	0x3d46b179	0.048509095
75	0x3d036bfe	0.03208541
76	0x3dda521e	0.10660194
77	0x3c03b5da	0.008038962
78	0x3cbb12c7	0.022836102
79	0x3c9da05b	0.019241503
80	0xbbda7a6a	-0.006667425
81	0x3cb9aab1	0.0226644
82	0x3d83eca0	0.06441617
83	0xbda6255b	-0.08112594
84	0xbd927cc4	-0.071527034
85	0x3e23d4a7	0.15999089
86	0x3c68bac8	0.014204688
87	0xbd63df1a	-0.055632688
88	0x3dd70a61	0.105000265
89	0xbd805b94	-0.06267467
90	0x3dcaeda4	0.099086076
91	0x3db1a74c	0.086744875
92	0xbc3f5efb	-0.01168036
93	0x3db3d8ba	0.08781572
94	0xbd977396	-0.07395093
95	0xbdbd93f6	-0.09256737
96	0x3d393fb5	0.04522677
97	0xbcaff13a	-0.02147733
98	0x3dac9ce0	0.08428359
99	0x3d2f8957	0.042855587
100	0xbbf47d31	-0.007461213
101	0xbdb5b3c8	-0.08872181
102	0xbcbd45da	-0.023104597
103	0x3e015bb0	0.12632632
104	0x3d541f66	0.051787756
105	0xbe0088ce	-0.12552187
106	0x3cba70e4	0.022758909
107	0x3ccb1f1c	0.024795108
108	0x3d10facb	0.035395425
109	0xbdf8d821	-0.12150598
110	0x3dabc20e	0.08386622
111	0xbcfa450e	-0.030550506
112	0x3ce48f65	0.027900407
113	0xbd7f4d8d	-0.062329818
114	0x3d9ad3af	0.07559907
115	0x3cb4cb68	0.022069648
116	0x3d527f5b	0.051390987
117	0xbba5ebaf	-0.005063496
118	0xbdd3637b	-0.10321709
119	0x3e11c078	0.14233577
120	0x3d9be2d6	0.07611625
121	0x3cd6ef05	0.02623702
122	0x3de03bbf	0.10948896
123	0x3c2b71b5	0.010464122
124	0x3d50680d	0.05088048
125	0xbd65840d	-0.056034137
126	0x3b799b46	0.0038086935
127	0xbe2df016	-0.16986117
128	0x3d307995	0.0430847
129	0xbd04b23c	-0.03239654
130	0x3c0ca53a	0.008584315
131	0xbe28ae44	-0.16472727
132	0x3ccabc94	0.024748124
133	0xbdc83f55	-0.097777046
134	0xbd296244	-0.04135348
135	0xbcb93a20	-0.022610724
136	0xbd8f49ad	-0.069964744
137	0xbdbc6ff9	-0.092010446
138	0x3d5c7648	0.05382374
139	0x3e070966	0.13187179
140	0x3e0b4154	0.1359914
141	0x3e053bb7	0.1301106
142	0xbdda9200	-0.106723785
143	0xbdf2f9f1	-0.11864079
144	0xbe1537da	-0.14572087
145	0x3df4e0b8	0.11956924
146	0x3dcc1224	0.099643975
147	0x3c27ed0d	0.010249388
148	0x3db3fe69	0.08788759
149	0xbe1790fe	-0.14801404
150	0xbd104215	-0.03521927
151	0x3d3e2d92	0.046430178
152	0x3a3d4c33	0.00072211324
153	0x3e22763c	0.15865415
154	0xbc802438	-0.01564227
155	0x3c9ae8a7	0.018909765
156	0x3e49e9e1	0.19718124
157	0xbb594fb4	-0.003315908
158	0x3da29f8a	0.07940586
159	0x3e30d9d8	0.17270601
160	0x3d2d7273	0.042345475
161	0x3d17df07	0.03707793
162	0x3d62f9d8	0.05541405
163	0xbc9742cc	-0.018464468
164	0xbc87b833	-0.016567325
165	0xbdb802b2	-0.08984889
166	0xbd16f5ed	-0.036855627
167	0x3daf3fbc	0.08557078
168	0x3d306f2a	0.043074764
169	0x3da012e7	0.07816105
170	0xbde3064f	-0.11085188
171	0x3d577c3d	0.052608717
172	0x3b835a43	0.004008563
173	0x3d815e89	0.06316859
174	0x3d9fda3c	0.07805297
175	0x3c241936	0.010015776
176	0x3c40585a	0.011739815
177	0x3a67fc6c	0.00088495645
178	0x3d53e951	0.05173618
179	0xbd07ed30	-0.033185184
180	0xbce86315	-0.028367558
181	0xbdb48917	-0.0881521
182	0xbd5ae4be	-0.0534408
183	0x3d95580e	0.07292186
184	0x3d56ff7f	0.052489754
185	0x3e26e7b2	0.16299322
186	0x3c14a7e6	0.009073233
187	0x3cfabf51	0.030608805
188	0x3dd54159	0.10412855
189	0x3ddbe980	0.10737896
190	0xbd89fbed	-0.06737504
191	0x3cbf2d29	0.023336964
192	0xbd498062	-0.0491947
193	0x3cce81b7	0.025208337
194	0xbd5b105f	-0.05348241
195	0xbd147208	-0.03624156
196	0x3da26a8c	0.079304785
197	0x3e4734d8	0.19453752
198	0xbdeb93fe	-0.11502837
199	0xbda49e8e	-0.080380544
200	0x3bf3c171	0.0074388315
201	0x3d2a8587	0.041631248
202	0x3d15ac13	0.036541056
203	0x3cb2dab6	0.021832805
204	0x3d7a7d0d	0.061154414
205	0x3e091d33	0.13390045
206	0x3d796c10	0.060894072
207	0x3c0d9ed4	0.008643825
208	0xbdd889b9	-0.105731435
209	0x3e12b9ca	0.14328685
210	0xbd8ffb71	-0.070303805
211	0x3d0f852a	0.035039105
212	0xbdd44463	-0.10364606
213	0x3dbcc7f5	0.09217826
214	0x3cab22e4	0.02089066
215	0x3de51a83	0.11186697
216	0xbe214547	-0.15749083
217	0xbdf2c036	-0.118530676
218	0x3e1d1782	0.15340999
219	0xbd3165b8	-0.043309897
220	0xbd8b14f3	-0.06791105
221	0x3c86e9e8	0.016468957
222	0xbd7938f5	-0.060845334
223	0x3a9dcdaf	0.0012039448
224	0x3d5adecb	0.05343513
225	0xbdc488e6	-0.09596424
226	0xbdc508b5	-0.09620801
227	0x3d698361	0.05701006
228	0xbd0d6888	-0.034523517
229	0x3d6ff680	0.05858469
230	0xbd999cbf	-0.075006
231	0xbdd52705	-0.10407833
232	0x3d3feda0	0.046857476
233	0x3db81b1b	0.08989545
234	0xbd84a73b	-0.06477209
235	0x3d102ae0	0.03519714
236	0xbd9b4850	-0.07582152
237	0x3d2df9bf	0.042474505
238	0xbd0f300b	-0.034957927
239	0xbe743fe9	-0.23852505
240	0x3e0201de	0.12696025
241	0xbbb8a190	-0.005634494
242	0xbda3dc87	-0.08001047
243	0x3ab23500	0.0013596117
244	0x3e1ad1d1	0.15119101
245	0xbb9263e3	-0.004467474
246	0xbca06dfe	-0.019583698
247	0x3cf8fc40	0.03039372
248	0x3d15ab23	0.03654016
249	0x3ca7d075	0.020485142
250	0x3d597026	0.05308547
251	0xbde235b5	-0.110454
252	0x3d15683f	0.03647637
253	0xbde34061	-0.11096264
254	0x3dc211fa	0.09476085
255	0xbdd4e448	-0.10395104

network_body._body_endoder.seq_layers.2.bias f4 [128]
0	0x3a4382d0	0.0007458152
1	0xba9c6474	-0.0011931793
2	0x3add9dc8	0.0016907984
3	0x3b13af16	0.002253478
4	0x3aa50e73	0.0012592807
5	0x3b11c2ee	0.0022241431
6	0xba9f5cda	-0.0012158409
7	0xbb419395	-0.0029537429
8	0x3a6d32e9	0.0009048419
9	0x39d2aa07	0.00040181002
10	0x3b0436d9	0.0020174293
11	0x3af63cd9	0.0018786445
12	0x3b4d2891	0.0031304697
13	0x3b38b60a	0.0028184676
14	0xb848aa91	-4.7842568e-05
15	0xbad88aa7	-0.0016520814
16	0x398e3b97	0.00027128748
17	0xbae0c8e0	-0.0017149709
18	0xbb19715b	-0.0023413512
19	0xbb2ef614	-0.0026696967
20	0xbaed0309	-0.001808257
21	0x3ab64b61	0.0013907963
22	0x3a77b16d	0.0009448741
23	0xba83a43f	-0.0010043456
24	0x3afa422c	0.0019093207
25	0x39dda54c	0.0004227556
26	0xba9ab635	-0.001180357
27	0x39b903e6	0.00035288854
28	0xbb3e85dc	-0.0029071486
29	0xba927691	-0.0011174252
30	0x384e5cd8	4.9200695e-05
31	0x3a3e6362	0.0007262734
32	0xbb0f7e8f	-0.0021895503
33	0x3aff6f4f	0.0019488129
34	0xbafc961f	-0.0019270814
35	0x3aa41846	0.0012519441
36	0xbb3023d7	-0.002687683
37	0xbb316790	-0.0027069785
38	0x3a8c1d01	0.0010689796
39	0xbb049729	-0.00202317
40	0xbb2aaacb	-0.0026041742
41	0xbb587e6f	-0.0033034345
42	0xbb333d5a	-0.00273498
43	0xb9ebdc7f	-0.00044986975
44	0xba9282ce	-0.0011177899
45	0xbb14eef1	-0.0022725428
46	0xba709bd4	-0.00091784936
47	0x3898a311	7.278298e-05
48	0x3a97ee8f	0.0011591482
49	0x3aea07ac	0.001785507
50	0xbb0175d4	-0.001975407
51	0xbb4f40d0	-0.0031624325
52	0x3aacac29	0.0013173866
53	0x3ac95aa0	0.0015362091
54	0x39fc160b	0.0004808161
55	0xbaab357a	-0.0013062202
56	0xbac6cf4e	-0.0015167983
57	0xb9ecdbfb	-0.00045177326
58	0xbb4d7dd9	-0.0031355529
59	0x3abba6ed	0.0014316716
60	0x3b101012	0.0021982235
61	0x3ad9559a	0.0016581297
62	0x3994539a	0.00028291048
63	0xbae94eea	-0.0017800007
64	0xbafbd940	-0.0019214526
65	0xba54e934	-0.0008121908
66	0x3a4eccb6	0.00078887807
67	0x3ae11625	0.0017172737
68	0x3a213df6	0.00061508955
69	0x3aacfaad	0.0013197266
70	0xbadc0b02	-0.0016787949
71	0xba85815d	-0.0010185648
72	0x3ad90dee	0.0016559938
73	0xba2f35a6	-0.00066837145
74	0x3a9cf784	0.0011975621
75	0x3b0ee641	0.0021804722
76	0x3abfef1c	0.0014643404
77	0x3a8c7f46	0.0010719083
78	0xbb5b6410	-0.003347639
79	0x3aaae698	0.0013038693
80	0xba868e23	-0.0010265749
81	0x3b800487	0.0039067897
82	0xbb00c5bd	-0.0019649111
83	0xb980cc6b	-0.00024566366
84	0xbafc4a1f	-0.0019248164
85	0xba60644e	-0.00085598684
86	0xbb4e709a	-0.0031500221
87	0x3aa21665	0.0012366293
88	0xbae1d667	-0.0017230035
89	0x3af42d84	0.0018629287
90	0xb9a89548	-0.0003215468
91	0xba40aa55	-0.00073496
92	0xbb59668a	-0.003317269
93	0xbacaff3e	-0.0015487445
94	0xbb5762ec	-0.0032865359
95	0x3b7b92a8	0.0038386974
96	0xbb090a62	-0.002091073
97	0x3b3dd59c	0.0028966432
98	0xba59c057	-0.0008306554
99	0xbad3b5b7	-0.0016152178
100	0x3abce358	0.0014411015
101	0xbb1a17a7	-0.0023512633
102	0x3b03db36	0.0020119674
103	0xbae77b14	-0.0017660582
104	0x3abdd86d	0.0014484056
105	0xbb2c8af1	-0.0026327933
106	0xba9ac722	-0.0011808614
107	0xbad57a32	-0.0016287027
108	0xbac73102	-0.0015197101
109	0xbaebf856	-0.0018003087
110	0x3aaf0049	0.0013351525
111	0xbaddbc0e	-0.0016917007
112	0x3971f8a4	0.00023076177
113	0xbaeba512	-0.0017978272
114	0xbb0b0cfd	-0.0021217458
115	0x3a1e8c67	0.0006048143
116	0x3b060612	0.0020450396
117	0x3b88ba1b	0.004172576
118	0x3a39c779	0.00070869137
119	0xba814acf	-0.0009864214
120	0xb9950581	-0.00028423595
121	0x38a39fd0	7.802213e-05
122	0x3acc6c86	0.0015596307
123	0xbaa6c3cc	-0.0012723147
124	0x3abe6405	0.0014525658
125	0x3ad6f686	0.0016400374
126	0xbb221de2	-0.002473705
127	0xb9cab82c	-0.0003866566

action_model._continuous_distribution.log_sigma f4 [1, 2]
0	0x3a62283e	0.00086272124
1	0x3aa85a36	0.0012844268

action_model._continuous_distribution.mu.weight f4 [2, 128]
0	0x3d500f79	0.050796006
1	0xbab2d4ac	-0.0013643703
2	0x3cbdd49b	0.023172667
3	0xbc0a4b58	-0.008440815
4	0x3bad1207	0.00528169
5	0xbbf86463	-0.0075803264
6	0x3b284449	0.0025675467
7	0x3b213522	0.002459832
8	0xbc3de6b3	-0.0115906475
9	0xbcc6ffeb	-0.024291953
10	0x3c7e57fc	0.015523907
11	0x3c8fb47a	0.017542113
12	0xbc786a91	-0.015162126
13	0xbb8165f3	-0.003948921
14	0x3ce9b9e2	0.028531019
15	0x3c3056b7	0.010762862
16	0xbc421681	-0.011846186
17	0x3b971482	0.004610599
18	0x3c0179ee	0.007902605
19	0x3c702230	0.014656588
20	0x3bc4ad78	0.0060021244
21	0x3a0cb397	0.0005367337
22	0x3d03b077	0.032150712
23	0x3b919093	0.0044422834
24	0x3d225cb4	0.03963919
25	0xbc0fb063	-0.008770081
26	0x3c5dce95	0.0135380225
27	0x3c34b33d	0.011029062
28	0xbb48df77	-0.0030650774
29	0x3d27b995	0.04094847
30	0xbbe04efd	-0.0068453536
31	0xbbd1c389	-0.0064014834
32	0x3c22c17f	0.009933828
33	0x3c803d8e	0.015654352
34	0x3c425af1	0.011862502
35	0xbc42ec0a	-0.011897096
36	0xbd0ac618	-0.033880323
37	0xbb173239	-0.0023070707
38	0x3cad781f	0.021175442
39	0xbb2ad3cf	-0.002606619
40	0x3b54a0ae	0.0032444405
41	0xbc180c88	-0.009280331
42	0x3ba3b820	0.0049963146
43	0xbc0640fc	-0.008194204
44	0xbc615e5c	-0.013755407
45	0xbcc32f77	-0.023826344
46	0xbb2793b2	-0.002557021
47	0x3c5b695e	0.013391821
48	0xbc853ada	-0.016263414
49	0x3ce25a89	0.027631061
50	0x3c9fef2e	0.01952323
51	0xbc462c52	-0.012095528
52	0xbcf9e711	-0.030505689
53	0x3c05b53c	0.008160885
54	0xb8045436	-3.154968e-05
55	0xbc01504e	-0.007892681
56	0x3bfc7d3d	0.0077053593
57	0x3b1e4969	0.0024152643
58	0x3a10f787	0.00055300485
59	0x3c28153f	0.010258972
60	0xbbd286e6	-0.0064247726
61	0x38748186	5.829476e-05
62	0xbbfe2a70	-0.007756524
63	0xbc4284cb	-0.011872481
64	0x3aeadb25	0.0017918093
65	0x3b034ee7	0.0020036043
66	0xbbe1b86f	-0.0068884413
67	0xbc6cd2d2	-0.01445456
68	0xbc7dce39	-0.015491062
69	0xbc8a02d9	-0.016847061
70	0x3c679e3a	0.014136845
71	0xbca7bcf6	-0.020475846
72	0x3a52d374	0.0008042373
73	0x3c334ef7	0.01094412
74	0x3d1748a2	0.036934502
75	0x3c94758a	0.018122453
76	0xbc1cf0f4	-0.009578932
77	0xbc8f6d52	-0.017508183
78	0xbb3cc491	-0.0028803686
79	0xbc08674e	-0.008325411
80	0x3ccc4389	0.024934547
81	0x3c98eee2	0.018668596
82	0x3cb1031f	0.021607934
83	0x3c1a2dd7	0.009410343
84	0xbad80569	-0.0016481105
85	0x3d11e3ba	0.035617568
86	0xbc1bd980	-0.009512305
87	0xbc333cdd	-0.010939804
88	0x3c4835a9	0.012219825
89	0xbaeebd95	-0.0018214459
90	0xbc9559ae	-0.01823124
91	0x3cab4b63	0.02090997
92	0x3ac6a42a	0.0015155126
93	0x3c948574	0.018130042
94	0xbc46a8bc	-0.01212519
95	0x3c557f01	0.013030768
96	0x3ae5b83b	0.0017526218
97	0x3bfafda2	0.00765963
98	0x3d02db42	0.03194738
99	0x3bdb2da0	0.0066887885
100	0x3c3826e4	0.011239741
101	0x3bb582ba	0.0055392655
102	0xbb2726fe	-0.002550542
103	0x3d1c0e75	0.038099725
104	0x3c284545	0.010270421
105	0x3bd4409f	0.00647743
106	0x3cfe898c	0.031071447
107	0xbc2928f8	-0.010324709
108	0xbc2d9bdd	-0.010596243
109	0xbc4d9d89	-0.012549766
110	0xbbb87f90	-0.005630441
111	0xbc257d70	-0.010100707
112	0x3a5173b2	0.0007989957
113	0xbbaf2812	-0.005345353
114	0xbb99b0d5	-0.0046902695
115	0xbbf43c77	-0.007453497
116	0xbc7d72be	-0.015469251
117	0x3c9b4044	0.018951543
118	0xbc2122ee	-0.009834988
119	0x3c14289d	0.009042886
120	0x3cf8d514	0.030375041
121	0xbc321c2b	-0.010870974
122	0x3c930b6b	0.01794978
123	0x3ca0d786	0.01963402
124	0x3cf5ea08	0.030018821
125	0xbca472c0	-0.020074248
126	0xbc8ca834	-0.01717005
127	0x3cdf1af0	0.027234524
128	0xbc4caf3e	-0.012492953
129	0x3bff70b5	0.007795418
130	0xbc190408	-0.00933934
131	0xbcd39fb7	-0.025832994
132	0xbc036bed	-0.008021337
133	0xbcb38dd4	-0.021918215
134	0x37cbddc5	2.4302755e-05
135	0x3c0a816e	0.00845371
136	0xbc56a9e7	-0.013102031
137	0xbcec5365	-0.02884836
138	0xbc62c8d2	-0.013841825
139	0xbbeff0cb	-0.007322406
140	0x3c984092	0.018585477
141	0x3c77b710	0.015119329
142	0x3c884cd5	0.016638199
143	0x3c3bd955	0.01146539
144	0xbc6bed78	-0.014399879
145	0x3cab24a1	0.02089149
146	0x3c184a88	0.009295113
147	0x3cfa1f01	0.030532362
148	0x3ad74b18	0.0016425578
149	0xbc0c9e76	-0.008582702
150	0xbd0c847c	-0.034306034
151	0x3bf7cb95	0.0075621107
152	0xbbe17895	-0.0068808296
153	0x3a67653d	0.00088270364
154	0x3bd8110b	0.0065938286
155	0x3c6ede02	0.014579298
156	0x3bfed509	0.0077768606
157	0x3c3d2268	0.011543848
158	0x394cd6f0	0.00019535027
159	0xbc82030d	-0.015870595
160	0xbb05d415	-0.00204206
161	0xbcb397cd	-0.02192297
162	0x3c75d6f8	0.015004866
163	0xbc99373f	-0.018703101
164	0x3c9ed45f	0.019388376
165	0x3bd01ca3	0.00635107
166	0xbac1e1b8	-0.0014792001
167	0x3c65c458	0.014023863
168	0x3c0a9b24	0.00845984
169	0x3cb4a873	0.02205298
170	0x3cda2c0b	0.02663233
171	0x3b79b8c1	0.0038104507
172	0xba6d6de2	-0.00090572063
173	0x3cdde058	0.027084514
174	0x3c76ea81	0.0150705585
175	0xbcc35b84	-0.023847349
176	0xbbc21130	-0.005922459
177	0xbc97092c	-0.01843699
178	0x3c02ff0c	0.007995378
179	0x3c1b9065	0.009494876
180	0xbc03df9a	-0.008048916
181	0xbc1a096a	-0.009401659
182	0xba3b0345	-0.0007133971
183	0x3ceed67a	0.029155005
184	0xbb3530f9	-0.0027647598
185	0x3c9cba2c	0.019131742
186	0x38d966ef	0.00010366539
187	0xbae5e6b4	-0.0017540068
188	0xbc84e9ba	-0.01622473
189	0xbccc74b0	-0.024957985
190	0xbbe16ef8	-0.0068796836
191	0x3c61e7db	0.013788189
192	0x3c0b4cf8	0.0085022375
193	0x3afcd4dd	0.0019289512
194	0xbc11d806	-0.008901602
195	0xbba35b88	-0.0049852766
196	0xbb2c154e	-0.0026257816
197	0xbcfed0c0	-0.0311054
198	0x3ac785ad	0.0015222334
199	0x3c63e294	0.013909001
200	0xbc3625b1	-0.011117385
201	0xbb84385b	-0.0040350384
202	0xbc30a03f	-0.010780393
203	0xbc6671fd	-0.014065263
204	0xbbe27cf0	-0.0069118664
205	0x3b7d2092	0.003862415
206	0xb9d05c17	-0.00039741464
207	0xbbbc7158	-0.0057508163
208	0x3c74df58	0.014945827
209	0xbbced0a3	-0.0063114925
210	0x3cca665f	0.024707017
211	0x3c62b883	0.013837936
212	0x3c603b05	0.013685946
213	0x3c3a7b60	0.011381954
214	0x3bdb5b82	0.006694258
215	0xbcc60448	-0.024171963
216	0x3cee7ced	0.029112304
217	0xbbfbd301	-0.0076850657
218	0xbc5a04cb	-0.013306807
219	0x3a826fc1	0.0009951518
220	0x39f7bb13	0.00047250892
221	0x3cfe061e	0.031008776
222	0x3b27b611	0.0025590698
223	0x398cfbc5	0.00026890464
224	0x3c42a048	0.011879034
225	0x3c070258	0.008240305
226	0x3cc991aa	0.02460559
227	0x3d0f3dd3	0.03497107
228	0xbc1c92f6	-0.009556523
229	0x3b80b6f8	0.0039280616
230	0xbd29eb5e	-0.04148423
231	0x3c78005f	0.015136807
232	0xbcd19bdd	-0.025587017
233	0x3b26ee02	0.0025471454
234	0x3d152b71	0.036418382
235	0x3c754c06	0.014971739
236	0x3d331a96	0.043726526
237	0x3c1f3be4	0.009718869
238	0xbc10a996	-0.008829495
239	0x3badce8a	0.0053041624
240	0xbab34eee	-0.0013680139
241	0x3ccec19c	0.025238805
242	0xbc171b04	-0.00922275
243	0x3ba36b45	0.0049871528
244	0xbd0b4f3e	-0.034011118
245	0xbccfd6b2	-0.02537093
246	0xbb954f40	-0.0045565665
247	0x3ccbf8d9	0.024898933
248	0x3b277cbb	0.0025556523
249	0x3bfb1163	0.007661985
250	0xbca9b699	-0.020716952
251	0xb9841ab2	-0.00025196892
252	0xbb010cc0	-0.0019691437
253	0xbc99003c	-0.01867687
254	0x3c1860bf	0.00930041
255	0xbc07e537	-0.008294395

action_model._continuous_distribution.mu.bias f4 [2]
0	0xb9f60a5c	-0.00046928495
1	0xbaebbd90	-0.0017985571

action_model._discrete_distribution.branches.0.weight f4 [1, 128]
0	0x3b6b14db	0.0035870585
1	0x3ab4dff8	0.0013799658
2	0xba47b917	-0.0007618828
3	0x3c48c7cb	0.012254666
4	0x3b8ab49f	0.0042329575
5	0xbc6cfdda	-0.01446482
6	0x3bbb63d4	0.0057186875
7	0xba07f93e	-0.0005186981
8	0xbb5a28e5	-0.0033288535
9	0x3b8a478f	0.004219956
10	0xbbb6db5b	-0.0055803484
11	0xbc487057	-0.012233815
12	0x3c047940	0.008085549
13	0xbb18e6fa	-0.0023331032
14	0x3ad29b3b	0.0016067991
15	0xbbf10b9f	-0.0073561217
16	0xba0b4a83	-0.00053135323
17	0x3c370e45	0.011172836
18	0xbc3859b4	-0.011251856
19	0xbb914a08	-0.004433874
20	0xbc26e4cd	-0.010186386
21	0x3c019de0	0.0079111755
22	0x3ba024a7	0.004887182
23	0xbc68b740	-0.014203846
24	0xbc53cfa7	-0.012927926
25	0x3b442442	0.0029928838
26	0xbb9d859b	-0.004807187
27	0x3c549df2	0.01297711
28	0xbc1fa9ff	-0.00974512
29	0x3c39aba3	0.011332425
30	0xbb0c533c	-0.0021411916
31	0x3b3830f0	0.002810534
32	0x3c2c148b	0.010502945
33	0xbc81d2f6	-0.015847664
34	0xbc48819f	-0.012237935
35	0x3c91504b	0.017738482
36	0x3c5ac10d	0.013351691
37	0x3c5566c2	0.013024988
38	0x3bf974cb	0.0076127998
39	0xbb585f35	-0.0033015732
40	0xbaa10477	-0.0012284656
41	0xbbcba8cb	-0.00621519
42	0xbbe59de5	-0.007007348
43	0xbc520a2b	-0.012819807
44	0x3bcb97f7	0.006213184
45	0xbbe3cb48	-0.0069517232
46	0x3c27b5d0	0.010236219
47	0x3b7dafcd	0.0038709522
48	0x3bcca502	0.0062452564
49	0x3c83e477	0.016100151
50	0x3c4c5156	0.012470564
51	0xba965556	-0.0011469524
52	0x3ba6365a	0.005072397
53	0xb881bf69	-6.186852e-05
54	0x3b3a9f51	0.0028476308
55	0xbb8f0b2e	-0.0043653464
56	0xbc22a50f	-0.009927048
57	0xbb95f337	-0.0045761126
58	0x3bbb55c7	0.0057170126
59	0xbbbf5571	-0.005839043
60	0x3b58a263	0.0033055774
61	0xbc652b72	-0.013987409
62	0x3babaf70	0.0052394196
63	0xbc3c5092	-0.011493819
64	0x3c04fdbf	0.008117138
65	0xbb906a1f	-0.004407182
66	0xbc294508	-0.0103314
67	0x3c0ce542	0.008599581
68	0x3b824e62	0.003976629
69	0xbc2b4b18	-0.010454915
70	0xbbd47a22	-0.006484286
71	0xbaa0f10c	-0.0012278869
72	0xbc7ade9d	-0.015311864
73	0x3bc6b327	0.006063837
74	0xbcc40168	-0.023926452
75	0x3c1b71d7	0.009487591
76	0x3c683b47	0.014174289
77	0x3b9fa799	0.004872274
78	0x3c0ba86f	0.008524044
79	0xbb926a2f	-0.0044682245
80	0xba648dbf	-0.00087186316
81	0x3c00839f	0.007843881
82	0xbbb55a88	-0.005534474
83	0xbc98bbcd	-0.018644238
84	0x3bee8bff	0.0072798724
85	0x3c3bd7ea	0.011465052
86	0xbba3c382	-0.0049976716
87	0x38e96100	0.000111283734
88	0xbc172e43	-0.009227338
89	0xbaef63ed	-0.0018264033
90	0x3b01c840	0.0019803196
91	0x3b3a4ddf	0.0028427762
92	0xb918088e	-0.00014499036
93	0x3b09f1c7	0.0021048652
94	0x3b7b979d	0.003838993
95	0xbbb27d32	-0.0054470534
96	0x3b1ea622	0.002420791
97	0xbc273f0b	-0.010207902
98	0xbc262298	-0.010140084
99	0x3bd98fe7	0.006639469
100	0xbbbeac36	-0.005818869
101	0x3c0ad933	0.008474636
102	0x3bafce7a	0.00536519
103	0xbb9d8fb2	-0.0048083896
104	0x3be68c8a	0.0070357965
105	0x3c3da06f	0.011573895
106	0x3c79d5fb	0.015248771
107	0x3b229825	0.0024809923
108	0xbac63e27	-0.0015124724
109	0x3b2df0ff	0.002654135
110	0x3b8dcc9e	0.004327371
111	0x3b106e8d	0.002203855
112	0x3caa5975	0.02079461
113	0xbb6c6ec0	-0.0036076754
114	0xbc19e4c1	-0.009392918
115	0x3bd5599a	0.0065109255
116	0xba3f3567	-0.00072940293
117	0x3bf2c44d	0.007408655
118	0xbc2a63d6	-0.010399779
119	0x3b9ca6ab	0.0047806106
120	0x3c32f00f	0.010921492
121	0xbc17e624	-0.009271178
122	0x39e8f79d	0.00044434975
123	0x3c0ee196	0.008720776
124	0x3c81c83b	0.015842548
125	0x3c026cfa	0.007960552
126	0xba30c91f	-0.00067438366
127	0x3b1c7889	0.0023875555
