results/ChaserRun1/My Behavior/checkpoint.pt (torch, 145186 bytes, 11 tensors)

network_body._body_endoder.seq_layers.0.weight f4 [128, 1]
000000 e9 e9 cf 3f af 2b 26 bf b3 1a b0 bf c1 be cc 3e
       1.6243259 -0.64910406 -1.3758148 0.39989284
000010 cf f6 f3 3e ed c9 08 3e 8d 11 29 bf a6 48 85 be
       0.47649238 0.13358279 -0.66042405 -0.2603199
000020 9e a3 8d 3f 49 42 24 3f e3 c5 15 bf 24 ad b6 3f
       1.1065557 0.64163643 -0.58505076 1.4271588
000030 1d e3 df 3f 7d 1a d0 bc 2e 82 bc 3f cd e5 c5 bf
       1.7491184 -0.025403256 1.4727228 -1.5460755
000040 63 30 13 bd 15 c9 81 3e 4c 8e 92 be da 99 24 3e
       -0.035934817 0.25348726 -0.2862419 0.16074315
000050 e3 d8 9d be e3 54 cd 3f 67 d2 df 3b 0e 1c fa 3f
       -0.30829534 1.604153 0.006830502 1.9539812
000060 b1 77 95 3f 87 07 a7 3e 3d 0e 02 bf d4 26 e0 3e
       1.1677152 0.3262293 -0.50802976 0.43779624
000070 9b ae 8c be 7c 5f 4a bf 06 ff 95 be 6b 9f 1d 3f
       -0.27476963 -0.7905195 -0.2929613 0.6157138
000080 78 86 ab bf 77 88 fc 3c 99 89 95 3f 0f 53 96 bf
       -1.3400412 0.03082679 1.1682616 -1.1744097
000090 8a bc 23 bf 62 ff 07 40 5b 36 0e bc fc 04 e8 3e
       -0.6395956 2.1249623 -0.008679952 0.45316303
0000a0 c0 7a dd 3f d9 d3 0f 3f 3c aa 05 40 17 6a d1 3f
       1.7303085 0.5618263 2.0885153 1.6360501
0000b0 7e 16 45 3e fc 2f 0f bf eb c9 5d 3f 37 1f 93 3d
       0.19246861 -0.55932593 0.8663623 0.07183688
0000c0 68 10 13 bf 24 c5 94 3d 70 c3 c1 3f 16 ac 38 40
       -0.5744691 0.07264164 1.5137768 2.8855033
0000d0 ef 4d 00 3f dc 32 95 bf 2c 72 13 40 78 a4 bb 3d
       0.5011892 -1.1656146 2.3038435 0.09162229
0000e0 6b 7b 86 3e 8a 16 7c 3f 5a 38 11 be d2 1f b2 bf
       0.26266035 0.9847189 -0.14181653 -1.3915961
0000f0 ce f0 ab be bb 00 32 be 02 f2 b5 3d 33 07 c4 3f
       -0.33582157 -0.17383091 0.0888405 1.5314697
000100 33 6a dc be 85 9c 8c 3e dc 57 32 bd de af 48 3c
       -0.43049774 0.27463165 -0.04354082 0.012248961
000110 be b6 2f be 14 45 0b c0 f4 6e 94 bf 45 2e a4 bf
       -0.17159554 -2.1760912 -1.159636 -1.282662
000120 5c 55 9e be 9e aa 2d 3f 72 47 e9 3e e8 c0 0c bf
       -0.309245 0.67838466 0.4556232 -0.5498185
000130 88 d7 13 be 3b bb de 3e 46 59 ea bf fa 71 a9 3f
       -0.14437687 0.4350222 -1.8308494 1.3237908
000140 9a f3 96 bd 79 c1 dd bf 8a f3 94 bf f2 35 57 bf
       -0.07370682 -1.7324668 -1.1636822 -0.8406669
000150 b3 46 ac bf 9f b6 25 3f a7 cb bb 3e ab ba 4a 3f
       -1.3459076 0.6473178 0.36678812 0.7919108
000160 2a 13 92 bf 09 41 7b bf 45 52 6c 3f 4a cf 66 bf
       -1.1412098 -0.9814611 0.92313033 -0.9016005
000170 04 a8 b7 3f 5e aa b7 3f 07 f3 3d 3f 65 6d 64 3f
       1.4348149 1.4348867 0.74198955 0.8922942
000180 ba 31 8a bd ca 95 10 40 c9 f5 bd be 14 0b 1b bf
       -0.06747766 2.2591424 -0.37101582 -0.6056378
000190 e6 ff 3d be 49 37 c2 3d b1 6b af 3e b7 60 31 bf
       -0.18554649 0.09483201 0.3426185 -0.692882
0001a0 61 cb 35 3f 21 51 c0 be d7 ea 95 3f 93 69 96 3e
       0.71013457 -0.37561896 1.1712292 0.29377422
0001b0 82 44 7f bd 6b 8d b7 bf fd 6c c8 bf c1 c7 6c 3f
       -0.062321194 -1.4340032 -1.565826 0.924923
0001c0 11 f3 32 bc b2 66 85 bd 42 7c ff bf 7b cc 90 3f
       -0.010922209 -0.06513728 -1.9959795 1.1312402
0001d0 05 d7 67 3e c0 c6 e7 3e b9 eb 81 3f 89 60 fe bf
       0.22640617 0.45268822 1.0150062 -1.987321
0001e0 58 88 44 3f 3a 23 ba bf 0e 2f 87 3e ea 67 4c 3c
       0.76770544 -1.4542 0.26403087 0.012475947
0001f0 aa c4 e7 be db 9c 10 bd 56 62 de be 59 5a 0a be
       -0.4526723 -0.03530584 -0.434344 -0.13511027

network_body._body_endoder.seq_layers.0.bias f4 [128]
000000 00 00 00 00 00 00 00 00 00 00 00 00 00 00 00 00
       0.0 0.0 0.0 0.0
000010 00 00 00 00 00 00 00 00 00 00 00 00 00 00 00 00
       0.0 0.0 0.0 0.0
000020 00 00 00 00 00 00 00 00 00 00 00 00 00 00 00 00
       0.0 0.0 0.0 0.0
000030 00 00 00 00 00 00 00 00 00 00 00 00 00 00 00 00
       0.0 0.0 0.0 0.0
000040 00 00 00 00 00 00 00 00 00 00 00 00 00 00 00 00
       0.0 0.0 0.0 0.0
000050 00 00 00 00 00 00 00 00 00 00 00 00 00 00 00 00
       0.0 0.0 0.0 0.0
000060 00 00 00 00 00 00 00 00 00 00 00 00 00 00 00 00
       0.0 0.0 0.0 0.0
000070 00 00 00 00 00 00 00 00 00 00 00 00 00 00 00 00
       0.0 0.0 0.0 0.0
000080 00 00 00 00 00 00 00 00 00 00 00 00 00 00 00 00
       0.0 0.0 0.0 0.0
000090 00 00 00 00 00 00 00 00 00 00 00 00 00 00 00 00
       0.0 0.0 0.0 0.0
0000a0 00 00 00 00 00 00 00 00 00 00 00 00 00 00 00 00
       0.0 0.0 0.0 0.0
0000b0 00 00 00 00 00 00 00 00 00 00 00 00 00 00 00 00
       0.0 0.0 0.0 0.0
0000c0 00 00 00 00 00 00 00 00 00 00 00 00 00 00 00 00
       0.0 0.0 0.0 0.0
0000d0 00 00 00 00 00 00 00 00 00 00 00 00 00 00 00 00
       0.0 0.0 0.0 0.0
0000e0 00 00 00 00 00 00 00 00 00 00 00 00 00 00 00 00
       0.0 0.0 0.0 0.0
0000f0 00 00 00 00 00 00 00 00 00 00 00 00 00 00 00 00
       0.0 0.0 0.0 0.0
000100 00 00 00 00 00 00 00 00 00 00 00 00 00 00 00 00
       0.0 0.0 0.0 0.0
000110 00 00 00 00 00 00 00 00 00 00 00 00 00 00 00 00
       0.0 0.0 0.0 0.0
000120 00 00 00 00 00 00 00 00 00 00 00 00 00 00 00 00
       0.0 0.0 0.0 0.0
000130 00 00 00 00 00 00 00 00 00 00 00 00 00 00 00 00
       0.0 0.0 0.0 0.0
000140 00 00 00 00 00 00 00 00 00 00 00 00 00 00 00 00
       0.0 0.0 0.0 0.0
000150 00 00 00 00 00 00 00 00 00 00 00 00 00 00 00 00
       0.0 0.0 0.0 0.0
000160 00 00 00 00 00 00 00 00 00 00 00 00 00 00 00 00
       0.0 0.0 0.0 0.0
000170 00 00 00 00 00 00 00 00 00 00 00 00 00 00 00 00
       0.0 0.0 0.0 0.0
000180 00 00 00 00 00 00 00 00 00 00 00 00 00 00 00 00
       0.0 0.0 0.0 0.0
000190 00 00 00 00 00 00 00 00 00 00 00 00 00 00 00 00
       0.0 0.0 0.0 0.0
0001a0 00 00 00 00 00 00 00 00 00 00 00 00 00 00 00 00
       0.0 0.0 0.0 0.0
0001b0 00 00 00 00 00 00 00 00 00 00 00 00 00 00 00 00
       0.0 0.0 0.0 0.0
0001c0 00 00 00 00 00 00 00 00 00 00 00 00 00 00 00 00
       0.0 0.0 0.0 0.0
0001d0 00 00 00 00 00 00 00 00 00 00 00 00 00 00 00 00
       0.0 0.0 0.0 0.0
0001e0 00 00 00 00 00 00 00 00 00 00 00 00 00 00 00 00
       0.0 0.0 0.0 0.0
0001f0 00 00 00 00 00 00 00 00 00 00 00 00 00 00 00 00
       0.0 0.0 0.0 0.0

network_body._body_endoder.seq_layers.2.weight f4 [128, 128]
000000 ce 2e 00 3e d5 e0 cd 3c f5 eb 36 bd c7 62 0c 3e
       0.12517855 0.025131622 -0.04465862 0.13709556
000010 10 73 88 3d 86 c0 b3 3d f4 50 21 3d 8b 61 b7 bd
       0.066625714 0.08776955 0.039383844 -0.08954152
000020 f8 b9 13 bd 74 73 2a 3d 6f 97 b1 bc 91 ff 53 bd
       -0.036066025 0.04161401 -0.021678654 -0.0517574
000030 35 38 27 3d 9f 46 01 3c 3b d9 b5 3d 70 6c 1a 3d
       0.040825088 0.007890373 0.08879324 0.03770107
000040 06 71 10 3e 6c b8 91 3d 72 11 6e 3a 62 b0 9e bc
       0.14105615 0.07115254 0.0009081579 -0.019371215
000050 b2 ec 65 3d d2 27 ae 3d d6 1f 84 bd b6 8e cf 3d
       0.056133933 0.08503689 -0.06451385 0.10134642
000060 db 0c 02 be 66 8e 9a bd 20 ea e1 bd c5 a7 16 bc
       -0.12700216 -0.075466916 -0.11030984 -0.009195273
000070 bb 3c d1 bd 31 3b 9e bd de 47 d6 bd b1 bb f1 3d
       -0.102166615 -0.077261336 -0.10462926 0.118033774
000080 5b ff 24 be 6b b9 41 bd 8c f5 b8 bd 68 95 81 bd
       -0.16113035 -0.04729597 -0.09031209 -0.06327325
000090 e2 4d 03 bd 63 10 e9 3c 5e 7b 23 3e 04 ef 30 3e
       -0.032056697 0.028450197 0.1596503 0.17278677
0000a0 b1 a8 2b bd fb d0 56 be 95 b5 95 bb 1d f8 a2 3b
       -0.041908924 -0.20978157 -0.0045687654 0.004973425
0000b0 d1 0a f9 3b a2 e0 0e 3e 44 48 03 bc f2 3b a5 3d
       0.0076001664 0.13952878 -0.008012835 0.08068074
0000c0 f3 3b 32 be b1 8c db bd 15 56 29 be d5 73 71 bb
       -0.17405681 -0.10720194 -0.16536744 -0.0036842723
0000d0 6b 15 f8 3d b6 e4 de bd 65 86 70 bc 88 fd b6 bd
       0.1211346 -0.10883467 -0.01468048 -0.08935076
0000e0 2c f0 d6 3d 4d 60 a6 bd 3f b7 c6 bd 2d 6c b0 ba
       0.10495028 -0.08123837 -0.0970292 -0.0013459973
0000f0 c9 55 2c 3d a7 10 86 bc 0e 2b ee bc cc 86 5b bc
       0.042074 -0.016365362 -0.029073264 -0.013398837
000100 64 ec f8 bd d8 63 a4 bd b9 fc 5c 3d 5d a7 62 3d
       -0.12154463 -0.08026856 0.053951953 0.05533539
000110 db db c7 bd 6d f3 96 3d 02 49 ad bd bb fe 8b 3d
       -0.09758731 0.073706485 -0.08461191 0.06835695
000120 11 d2 01 bd a7 5a db bd 8f db cd 3c f9 cb 31 3d
       -0.031694476 -0.1071065 0.025129108 0.043407414
000130 5e 19 b4 bd ce 8c a4 3d 1b 80 a1 bd d9 8b 4e bd
       -0.08793901 0.08034669 -0.07885762 -0.050426338
000140 e1 5b a1 bd 48 02 13 be 64 7a 18 bd fe e8 14 3e
       -0.07878853 -0.14356339 -0.037226096 0.14542004
000150 1b 2d ee 3d 75 d8 9f 3d 3e 6e 85 bb 9f 59 18 be
       0.11629697 0.07804958 -0.00407198 -0.14877938
000160 98 28 6b bc b7 6d bd 3d 0b 10 a1 3d f5 8b ba bc
       -0.01435294 0.09249442 0.07864388 -0.022771815
000170 26 3c 09 be ca 2a b3 bd ea 57 a9 3d 1b 9f 4a 3d
       -0.13401851 -0.08748396 0.082687214 0.04946814
000180 84 70 4f 3c 7a 7d 40 bd 54 39 8c 3d 0b 84 23 bd
       0.012661103 -0.046994664 0.06846872 -0.039920848
000190 ca 2e d7 3d dd e6 7f 3d 93 7f 3b 3d 8e fe 8c 3d
       0.10506971 0.062476028 0.04577596 0.0688449
0001a0 48 eb 05 3e 2b 95 ff 3d 9e 75 13 be b8 e6 ea 3d
       0.13078034 0.124796234 -0.14400336 0.11469787
0001b0 e3 71 00 39 5f 72 fe bd da da e7 3d 02 96 97 3d
       0.00012249457 -0.12424158 0.113210395 0.074016586
0001c0 a5 5a d9 3b cd e2 63 bd e3 0a c2 3c 66 ff 0a bd
       0.00663312 -0.055636216 0.023686832 -0.033934973
0001d0 60 b4 2d bd c5 8b 59 bd c5 cf 3c 3d 5b 15 6d 3c
       -0.042408347 -0.05311181 0.046096582 0.014470424
0001e0 53 f8 31 be 89 6c b4 bd 31 9c 2b 3d 5d 96 be bc
       -0.17379884 -0.08809764 0.041897003 -0.023265058
0001f0 29 03 b7 3b ed 5f 25 be 75 9f 2d bb 7e 52 0d be
       0.0055850935 -0.16149874 -0.002649275 -0.13801
000200 6e 45 d1 bd 3a 3a 03 be fc ee fe bd 18 e4 ce 3c
       -0.10218321 -0.1281518 -0.124479264 0.025255248
000210 60 95 2b be c6 ac e0 3d 45 ee 62 bd ef b3 bd 3d
       -0.16756201 0.10970454 -0.055403013 0.09262835
000220 f1 02 85 3d d7 1d 04 3c cf 8f 8e 3d b4 66 0e be
       0.06494702 0.008063755 0.06961023 -0.13906366
000230 b5 7b 78 bd cc 52 2f bd 35 1c 10 3e 8a 5d 42 bd
       -0.06066485 -0.04280357 0.1407326 -0.047452487
000240 f7 6a 97 be 1f ce b9 bc 0b 10 ad 3d 57 a8 6e bc
       -0.29573795 -0.022681294 0.084503256 -0.0145665025
000250 8a c5 1b be 55 08 06 3c fa 5d a4 bb c9 6e 54 be
       -0.15212074 0.008180697 -0.0050160857 -0.20745386
000260 57 af d9 bc 9d c7 42 bc 33 01 1e bd 0a 63 fa 3d
       -0.026572866 -0.011888412 -0.038575362 0.122259215
000270 1c c3 47 be e0 1c 45 bd 2c d6 a1 bc b1 cd 4e 3d
       -0.19508022 -0.04812324 -0.019755445 0.05048913
000280 54 3b b3 3c d6 39 07 be 2d 42 fd 3c 7d dc 56 bd
       0.021878876 -0.13205656 0.030915344 -0.052456368
000290 56 7e a1 3d 1f 0d 37 3e 2c 54 d7 3d 6e 3f 1c be
       0.07885425 0.17876099 0.105141014 -0.15258572
0002a0 2c a8 7c bd 6c 24 0a 3d 83 5b 88 be 8b 28 34 3e
       -0.06168382 0.03372614 -0.26632318 0.17593591
0002b0 5b 7b a3 bd 36 82 e0 3c 2e d1 6d 3b 5c 24 ac bc
       -0.079825126 0.02740584 0.003628801 -0.021013431
0002c0 03 bf 41 3c fb 6e 14 3e ba 97 7c 3d f1 38 a9 3c
       0.011825326 0.1449546 0.061668135 0.020657035
0002d0 24 a5 fa 3d 3c 3e a1 bd 49 ec a4 bd 96 29 23 3d
       0.12238529 -0.078731984 -0.0805288 0.03983458
0002e0 fe ac a7 bd 33 c3 d9 bc 36 f9 b4 b8 55 b4 30 3e
       -0.081872925 -0.026582336 -8.629488e-05 0.17256291
0002f0 bf 31 60 3a db a2 cb 3d 19 3c a5 bd a3 77 a8 bc
       0.00085523346 0.099431716 -0.08068103 -0.02056486
000300 ec d3 19 bd ff 22 ca 3c 0f a7 f4 3c 54 64 f9 bc
       -0.03755562 0.02467489 0.029864816 -0.030443348
000310 da f3 08 be 1f a6 c0 be c7 e9 00 3d 9f 7e 5e bd
       -0.13374272 -0.3762674 0.031472947 -0.054319974
000320 d5 38 b5 bc 10 c4 70 bc b1 c8 fa bd 1c 93 8f 3d
       -0.022121826 -0.014695182 -0.1224531 0.07010481
000330 1c 47 5e 3d ad 72 0f 3d 27 6b 04 bd 17 7d 35 3b
       0.054267034 0.035021473 -0.03232875 0.0027692968
000340 73 9a 4f be c6 e0 bd 3b dc ae 81 bd 7f b6 e3 bc
       -0.20273761 0.0057946173 -0.0633218 -0.027796982
000350 d5 7f e6 3b 04 62 60 bd 23 1b 66 3d b7 29 0f 3e
       0.0070342817 -0.054780975 0.056178223 0.13980757
000360 e2 e9 a1 3d 39 d6 ec 3d ef 10 4b 3d 4f 60 91 3d
       0.07905938 0.11564297 0.049576696 0.070984475
000370 9f 1e 47 3e 22 bf c3 bd c1 ce 85 3d 0a ea d5 bd
       0.19445275 -0.0955794 0.06533576 -0.1044503
000380 fd 50 20 be c4 de f0 bd 54 81 62 3c 63 43 d3 3c
       -0.15655895 -0.11761239 0.01382478 0.025788968
000390 81 19 c7 3d 2a 1a 0f 3c 3d 1b 8e 3d 60 f3 ea 3c
       0.09721661 0.008734265 0.06938789 0.028680503
0003a0 e3 f6 55 bd 9d 08 1a 3c f3 16 8f bc 2a 24 76 be
       -0.052237403 0.009401468 -0.017466998 -0.24037233
0003b0 c7 45 80 3c ee fa 1e 3d 1e f7 c4 bd 2a 08 3b bd
       0.015658272 0.038813524 -0.09617446 -0.045662083
0003c0 a1 4b 8f bc 56 8f 47 bd 01 77 a0 3b 9f c1 f5 3d
       -0.017492117 -0.04872068 0.004896999 0.11999821
0003d0 73 23 82 bd a2 ba 1c bd 3c 72 03 be 6e d2 04 3e
       -0.06354418 -0.038263924 -0.12836546 0.12970898
0003e0 dc f3 9d 3d fe 50 3c be fb 89 bb bd 3c 27 7e bb
       0.07712528 -0.18390271 -0.09157177 -0.003878071
0003f0 8e 49 f0 bb de 38 da 3c dc 8a 82 bd 20 75 eb 3c
       -0.007332987 0.026638445 -0.063741416 0.028742373

network_body._body_endoder.seq_layers.2.bias f4 [128]
000000 00 00 00 00 00 00 00 00 00 00 00 00 00 00 00 00
       0.0 0.0 0.0 0.0
000010 00 00 00 00 00 00 00 00 00 00 00 00 00 00 00 00
       0.0 0.0 0.0 0.0
000020 00 00 00 00 00 00 00 00 00 00 00 00 00 00 00 00
       0.0 0.0 0.0 0.0
000030 00 00 00 00 00 00 00 00 00 00 00 00 00 00 00 00
       0.0 0.0 0.0 0.0
000040 00 00 00 00 00 00 00 00 00 00 00 00 00 00 00 00
       0.0 0.0 0.0 0.0
000050 00 00 00 00 00 00 00 00 00 00 00 00 00 00 00 00
       0.0 0.0 0.0 0.0
000060 00 00 00 00 00 00 00 00 00 00 00 00 00 00 00 00
       0.0 0.0 0.0 0.0
000070 00 00 00 00 00 00 00 00 00 00 00 00 00 00 00 00
       0.0 0.0 0.0 0.0
000080 00 00 00 00 00 00 00 00 00 00 00 00 00 00 00 00
       0.0 0.0 0.0 0.0
000090 00 00 00 00 00 00 00 00 00 00 00 00 00 00 00 00
       0.0 0.0 0.0 0.0
0000a0 00 00 00 00 00 00 00 00 00 00 00 00 00 00 00 00
       0.0 0.0 0.0 0.0
0000b0 00 00 00 00 00 00 00 00 00 00 00 00 00 00 00 00
       0.0 0.0 0.0 0.0
0000c0 00 00 00 00 00 00 00 00 00 00 00 00 00 00 00 00
       0.0 0.0 0.0 0.0
0000d0 00 00 00 00 00 00 00 00 00 00 00 00 00 00 00 00
       0.0 0.0 0.0 0.0
0000e0 00 00 00 00 00 00 00 00 00 00 00 00 00 00 00 00
       0.0 0.0 0.0 0.0
0000f0 00 00 00 00 00 00 00 00 00 00 00 00 00 00 00 00
       0.0 0.0 0.0 0.0
000100 00 00 00 00 00 00 00 00 00 00 00 00 00 00 00 00
       0.0 0.0 0.0 0.0
000110 00 00 00 00 00 00 00 00 00 00 00 00 00 00 00 00
       0.0 0.0 0.0 0.0
000120 00 00 00 00 00 00 00 00 00 00 00 00 00 00 00 00
       0.0 0.0 0.0 0.0
000130 00 00 00 00 00 00 00 00 00 00 00 00 00 00 00 00
       0.0 0.0 0.0 0.0
000140 00 00 00 00 00 00 00 00 00 00 00 00 00 00 00 00
       0.0 0.0 0.0 0.0
000150 00 00 00 00 00 00 00 00 00 00 00 00 00 00 00 00
       0.0 0.0 0.0 0.0
000160 00 00 00 00 00 00 00 00 00 00 00 00 00 00 00 00
       0.0 0.0 0.0 0.0
000170 00 00 00 00 00 00 00 00 00 00 00 00 00 00 00 00
       0.0 0.0 0.0 0.0
000180 00 00 00 00 00 00 00 00 00 00 00 00 00 00 00 00
       0.0 0.0 0.0 0.0
000190 00 00 00 00 00 00 00 00 00 00 00 00 00 00 00 00
       0.0 0.0 0.0 0.0
0001a0 00 00 00 00 00 00 00 00 00 00 00 00 00 00 00 00
       0.0 0.0 0.0 0.0
0001b0 00 00 00 00 00 00 00 00 00 00 00 00 00 00 00 00
       0.0 0.0 0.0 0.0
0001c0 00 00 00 00 00 00 00 00 00 00 00 00 00 00 00 00
       0.0 0.0 0.0 0.0
0001d0 00 00 00 00 00 00 00 00 00 00 00 00 00 00 00 00
       0.0 0.0 0.0 0.0
0001e0 00 00 00 00 00 00 00 00 00 00 00 00 00 00 00 00
       0.0 0.0 0.0 0.0
0001f0 00 00 00 00 00 00 00 00 00 00 00 00 00 00 00 00
       0.0 0.0 0.0 0.0

action_model._continuous_distribution.mu.weight f4 [1, 128]
000000 8e 5c 27 3c f7 c7 70 3b cf 42 17 bc d4 63 10 3c
       0.010214938 0.0036740282 -0.009232237 0.008812863
000010 ea 39 8e 3c 4b 11 2f 3c d3 2e ff ba 41 11 96 3c
       0.0173616 0.010685275 -0.0019468911 0.018318774
000020 ef 80 2b 3c 77 ad 9d bc eb 48 fc bc 77 cd b0 bc
       0.010467752 -0.019247754 -0.030796489 -0.021582348
000030 cb ba 4f bb 34 b5 9d 3b e3 f1 f4 bc f9 f4 47 bc
       -0.003169703 0.004812861 -0.029900497 -0.012204402
000040 35 f0 7f bc 40 71 17 bd 8f f8 ce bc be 26 2e bc
       -0.015621235 -0.036973238 -0.025265006 -0.010629354
000050 49 58 3b 3c 27 9f a2 3c 72 43 79 3c 90 7f 4a 3c
       0.011434623 0.01985128 0.015213834 0.012359515
000060 02 9c 38 3b b3 22 30 3d 14 bb 0b 3c 96 c5 43 bb
       0.002816916 0.04300184 0.00852849 -0.002987241
000070 f3 c5 38 bc ea 4c 0a 3b e6 52 bc bb 91 3d 3f 3c
       -0.0112776635 0.0021102973 -0.005747187 0.011672393
000080 ba b4 bd 3c 9d 0b f0 3c 8e f1 b7 3c 37 58 d5 3c
       0.023157466 0.029302413 0.02245405 0.02604304
000090 6b d3 c5 bc af 60 c4 3b 50 9e e6 39 a3 4a 00 3c
       -0.024148664 0.005992971 0.0004398697 0.007830295
0000a0 a3 1b 4b 3b 8b d8 85 3b 0c e5 91 bc de 21 0f 3c
       0.0030991815 0.004084652 -0.017809413 0.008736102
0000b0 20 d8 93 bc 30 b5 1f bd da 6c 68 3b 71 b6 bb 3b
       -0.018047392 -0.038991153 0.0035465271 0.005728536
0000c0 e5 50 76 bc f3 67 fc bc c5 3a 73 bb b5 54 ee bb
       -0.015033935 -0.030811286 -0.0037113887 -0.0072732815
0000d0 0b 34 71 3c f0 f5 d6 3c 40 6f 29 39 bd a2 da bb
       0.014721881 0.026240319 0.0001615854 -0.006672232
0000e0 3b af bf bc 78 7a ae bc 03 72 b2 bb aa 7f 85 3c
       -0.023398986 -0.021298632 -0.00544572 0.016296227
0000f0 dd 6a ea 3b 47 66 70 3c cc 7b 08 bc 5b aa 70 3b
       0.0071538524 0.014672822 -0.008330297 0.0036722634
000100 0d c4 10 bd f9 b0 82 bc 30 97 91 3c a7 84 c1 ba
       -0.03534322 -0.015953528 0.017772287 -0.0014764265
000110 5b 04 08 bd 1f 31 23 3c 47 d8 1e bb a2 ed b1 3c
       -0.03320728 0.009960442 -0.0024237798 0.021719757
000120 8d 8e 4f bd c8 79 87 bc 08 4c bf bc 3f b8 e8 3b
       -0.050673056 -0.016537562 -0.023351684 0.007102042
000130 aa 7a a9 bc 9b 87 21 3a b7 3f 31 bd 5b 5f 91 bc
       -0.020688374 0.00061618694 -0.043273654 -0.017745664
000140 60 e9 9f 3c 93 b1 64 3c b3 70 f1 bc 48 78 cb bc
       0.019520462 0.013958353 -0.029472684 -0.024837628
000150 4d 7f 26 3b c5 43 5f 3c f0 20 1a bc 8d 24 e6 bc
       0.0025405467 0.013626997 -0.009407267 -0.0280936
000160 77 33 47 ba 65 d5 e7 3a 10 c6 d6 bc 83 07 83 3c
       -0.00075989164 0.0017687498 -0.02621749 0.015994793
000170 48 e6 dd bc 17 44 de bb 0c 95 12 39 1d 65 e2 bb
       -0.027087346 -0.0067830193 0.0001397917 -0.0069090263
000180 87 f4 c3 bb 9b 92 e6 3c 9f be 88 3b 07 02 00 3c
       -0.0059800777 0.028146079 0.0041731144 0.007812983
000190 ea e3 5f bd 3a 12 7c 3b ff 42 94 ba 2f ed 8f bc
       -0.054660715 0.0038463012 -0.001131147 -0.017569153
0001a0 9f b8 79 3c 3f b6 11 3c c8 9f fb bb 47 2b a6 bb
       0.015241771 0.0088935485 -0.0076789595 -0.005071077
0001b0 50 cd 4c bc 2f 58 16 3d 04 ad 04 bd b5 ef 9d bb
       -0.012500122 0.036705192 -0.032391563 -0.004819835
0001c0 23 ce eb bb 5f af 56 bc d7 53 8c 3b fd b0 fe bc
       -0.0071962043 -0.013103335 0.0042824554 -0.031090254
0001d0 a8 c3 26 bc c3 c9 00 3d fe 5c 1f 3c 10 d8 e4 bc
       -0.010178484 0.031442415 0.009726761 -0.027935058
0001e0 25 f2 e8 3b 45 aa 0b bc 9e 1e c3 3c 7f bc 60 bb
       0.007108944 -0.008524482 0.02381831 -0.003429204
0001f0 a3 3f 0b 3c c4 87 18 3c 90 ec 46 3c af d2 44 bc
       0.008499059 0.009309713 0.012141362 -0.0120131215

action_model._discrete_distribution.branches.0.weight f4 [1, 128]
000000 86 05 1d bb 92 f1 d8 3b bb 84 16 3c 3f 3b 0f 3c
       -0.002395959 0.0066205943 0.009186919 0.008742153
000010 26 9f 31 3c 6d 39 84 bb fb 2d 87 3a 84 98 93 3c
       0.010841167 -0.004035166 0.0010313386 0.018017061
000020 1d 97 4b ba 96 5c 8a bb cf 30 88 3c a4 6a b8 bb
       -0.0007766353 -0.004222463 0.016624836 -0.005627947
000030 b4 05 c2 bb b4 43 a6 bc a8 30 6d 3c 5f 59 8b bb
       -0.00592109 -0.020295955 0.014476933 -0.004252597
000040 f5 76 6f bc a4 c3 33 bb 42 fd e0 ba 9b 9e 26 bc
       -0.014615764 -0.0027429843 -0.001716532 -0.01016965
000050 8b b5 16 3c ba 1e bc ba 32 48 03 3b ad a0 79 bb
       0.009198557 -0.0014352419 0.0020032045 -0.0038090155
000060 3a c2 9d bb ab 8c 4c ba 0a 27 3f bb 5b 9b 0e bc
       -0.0048144134 -0.00078029436 -0.0029167556 -0.008704032
000070 3f fd 6a 3c cf 0f b2 39 5a f8 d6 ba 72 75 b6 3b
       0.014342605 0.00033962584 -0.0016400919 0.0055682
000080 4f 8b 32 bc 5a 38 5f 3b 54 34 97 3c 01 4f b1 3b
       -0.010897472 0.0034060688 0.01845757 0.0054110293
000090 90 59 21 ba 27 5b a4 bb 08 b1 68 bb f7 c0 09 bc
       -0.00061550085 -0.005015749 -0.003550591 -0.008407823
0000a0 eb 4b d7 3b 4a d6 17 bc 9b 06 c5 bb a4 8b 4b bb
       0.0065703294 -0.009267399 -0.0060127503 -0.0031058574
0000b0 fd cb 67 3b c2 c7 f8 3b f3 b4 d9 bb d0 3f 76 bc
       0.003536939 0.0075921724 -0.0066438853 -0.0150298625
0000c0 9a 60 30 3c 9b 74 57 3c 7f 3d 3b ba dd a2 a0 3c
       0.010765219 0.0131503595 -0.00071426475 0.01960891
0000d0 f7 57 92 bc fb 71 54 bc 7b 47 55 bc d3 64 fd ba
       -0.01786421 -0.012966628 -0.013017531 -0.0019332416
0000e0 0b 29 81 3b c2 3a dd bb 90 17 93 bb 82 7c 22 3a
       0.0039416603 -0.0067513892 -0.004488893 0.00061983627
0000f0 96 24 2e bc 0d 22 ab b9 f0 e1 f3 bb 26 e6 a8 bb
       -0.01062884 -0.0003264103 -0.0074427053 -0.005154389
000100 89 ec a5 3b a3 97 d3 bb 4f 41 68 bc a2 b4 c4 bb
       0.0050635976 -0.0064572855 -0.014175727 -0.0060029784
000110 30 ae eb ba 38 f4 5b bb eb 4d 21 3a c3 1d 43 bc
       -0.0017980989 -0.0033562314 0.0006153273 -0.011908951
000120 cd 8f da bb f8 d8 d4 3b b1 92 85 3c 8a 42 d8 ba
       -0.0066699744 0.0064955913 0.0163053 -0.0016499322
000130 65 c0 9a 3b 41 c5 a2 bb ef ca 0e 3c 63 48 d9 bb
       0.0047226422 -0.004967362 0.008715375 -0.0066309436
000140 5f 05 0b bc aa e2 9b 3a 52 34 1e 3c 8b 2e e3 38
       -0.008485167 0.0011893113 0.009656029 0.00010832873
000150 ea 83 f3 3b cf 79 04 bc 73 17 7a 3c cd 41 17 3c
       0.007431497 -0.008085682 0.01526438 0.009231997
000160 ed 45 0d 3b f5 a7 75 bb 0b 9d 49 bc df 39 ba 3b
       0.0021556572 -0.0037484143 -0.012305508 0.0056831683
000170 a3 e6 81 3c 7b 2c 9e bc 38 eb 7d ba 75 75 84 3c
       0.015857046 -0.01930832 -0.00096862344 0.01616929
000180 5b b2 d6 bb 68 79 8e bb ff 69 0a ba bc 7b 91 3b
       -0.0065520233 -0.004347969 -0.0005280077 0.004439799
000190 ad ac 25 bc 18 02 f5 bb e5 21 5f bc fb 88 0a bb
       -0.01011197 -0.0074770562 -0.013618921 -0.0021138776
0001a0 4c 17 84 3b c8 4a ed 3b d3 17 1f bc f3 de f2 3b
       0.0040310975 0.0072415806 -0.00971027 0.0074118315
0001b0 e5 b8 16 3c e6 69 2c 3c cb 96 fc 3b 5a f1 9f 3b
       0.009199356 0.010523295 0.0077084056 0.0048810663
0001c0 50 61 63 3c db 2f 34 3b 95 77 80 bb 0b a5 3b 3c
       0.013878182 0.0027494344 -0.0039205053 0.0114529235
0001d0 5b 5a 83 bb cb 52 6e 3a 6a 2e 2b 3c 7a 35 76 3b
       -0.004008574 0.00090913166 0.010448078 0.0037568496
0001e0 e7 ac 4e bc 87 8e e0 3a 7a 56 1f bc b7 de f1 bb
       -0.012614465 0.001713232 -0.009725207 -0.007381286
0001f0 eb 1e 11 3a 83 04 d0 3a 5a 3f 8b 3c 7d 95 19 bc
       0.0005535918 0.0015870485 0.016997982 -0.00937402

network_body._body_endoder.seq_layers.0.weight f4 [128, 1]
000000 c5 ab bc 3f 47 69 a3 3f d3 ff f0 bc 71 de 52 bf
       1.473992 1.2766503 -0.029418861 -0.8237067
000010 46 a0 36 bc 55 d5 8f bf 93 af 37 be 12 d9 2a bf
       -0.011146611 -1.1236979 -0.1793807 -0.66737473
000020 bf 8d 8d bf d8 8e 11 40 c4 64 16 bf da 0b 1a 3f
       -1.1058882 2.2743435 -0.58747506 0.60174334
000030 80 23 70 bf 36 4d 68 3d 9c 12 b2 3e 33 c0 03 be
       -0.9380417 0.05671426 0.34779823 -0.12866287
000040 2e c3 ec be f5 ca b2 bd 60 df 6a 3f 70 3e 0e be
       -0.4624266 -0.08730117 0.91747093 -0.13891006
000050 ac 74 ad be 0d 23 a0 3f 2c 75 bf bf 01 8f 67 3e
       -0.33878076 1.2510697 -1.4957633 0.22613145
000060 65 f3 0c c0 15 02 19 3f 1b 15 f2 3f df e2 1c bf
       -2.2023556 0.597688 1.8912691 -0.6128368
000070 36 16 4d bf bf 65 e2 3d f0 c1 1f 3f 8e e3 8b 3c
       -0.80112016 0.11054563 0.624053 0.01707628
000080 b7 7d 7d be e6 1a c5 be 10 59 07 3e b9 12 b9 be
       -0.24754988 -0.38497084 0.13217568 -0.36147097
000090 36 2e 50 bf 85 55 8b bf b4 04 d3 3e 7c 92 58 bf
       -0.8132051 -1.0885473 0.41214526 -0.8459852
0000a0 dc a7 27 3f b1 7e 17 40 33 6a 5b 3f 26 68 74 3f
       0.6549051 2.3671076 0.8570892 0.9547142
0000b0 12 fd a1 bf 84 3f b3 3d 21 3a 7e 3e b0 7a 21 3f
       -1.2655356 0.08752349 0.24826862 0.6307783
0000c0 84 ac 93 3f 75 69 cc 3e e1 95 e8 3d c0 f3 60 bf
       1.1537023 0.39924207 0.11356712 -0.87871933
0000d0 67 aa d6 be e7 f7 c6 3e 78 59 05 3f 78 5c 10 3f
       -0.41926882 0.3886101 0.52089643 0.56391096
0000e0 c5 d9 e9 3e 66 de bd 3e 91 07 59 3d 4b 5b 85 bf
       0.45673957 0.3708374 0.05298573 -1.0418485
0000f0 a9 fd 92 3f 7a 83 02 3e c4 c7 77 3f 51 e6 02 bf
       1.1483661 0.12745467 0.96789193 -0.51132685
000100 8b 1c 22 bf 28 53 3c 3f 7c 7c cc bf 69 de 2b bf
       -0.63324803 0.73564386 -1.597549 -0.67136246
000110 77 38 7c 3d 60 c6 03 bf 20 4a f1 3f 11 af de be
       0.061577287 -0.5147457 1.8850746 -0.4349294
000120 14 52 13 40 05 fb cf be 6e 19 94 3f 1e 7f 85 be
       2.3018847 -0.406212 1.157026 -0.26073545
000130 c1 55 9c bf 5e 61 28 bf 6c 14 3b 3f 22 d7 7e bf
       -1.221367 -0.6577357 0.73078036 -0.99547017
000140 6c f8 0f 3f e8 c4 2a bf 9f fc 57 bf 61 9b 8d bd
       0.56238437 -0.66706705 -0.84369844 -0.06914402
000150 4e b1 20 bf 78 17 61 3d b1 34 94 bf 73 ca c7 bf
       -0.62770545 0.054954022 -1.157858 -1.5608658
000160 78 4e 48 be 5d 41 91 3f eb a2 8c 3f 12 ca d2 bc
       -0.19561183 1.1348072 1.0987219 -0.02573112
000170 5e df 63 bf 0f e5 bf bf 8c 1d ab 3f 38 87 3c be
       -0.89012706 -1.4991778 1.3368392 -0.18410957
000180 e6 78 91 3f 08 02 15 bf b5 d2 ab be 48 12 b1 3e
       1.136502 -0.58206224 -0.33559194 0.3458426
000190 d5 68 05 c0 eb fc 81 bf e0 82 1c c0 ee c8 57 bf
       -2.0845234 -1.015531 -2.445488 -0.8429097
0001a0 b3 08 25 3f 08 a8 d4 bd ca cc 8a be b2 85 18 be
       0.644664 -0.10383612 -0.27109367 -0.1489475
0001b0 1f 48 46 bf d4 0b 28 bf fb 3c 11 be 1d 00 c7 bd
       -0.774538 -0.6564305 -0.14183418 -0.097168185
0001c0 62 33 3a c0 4f 33 bc 3f c5 ce 05 c0 36 92 f6 be
       -2.9093862 1.4703158 -2.0907452 -0.48158425
0001d0 a7 b1 b8 bf ea df b5 3f e6 81 b4 bf bd b8 db bf
       -1.4429215 1.4208958 -1.4102142 -1.7165753
0001e0 69 9a 1f bf 84 de dc be de 80 a2 bf be bd a1 bf
       -0.62344986 -0.43138516 -1.2695577 -1.263603
0001f0 ae fa 1c bf 63 6e e9 3e 66 36 58 3f 7a d3 a0 3e
       -0.61320007 0.4559203 0.84458005 0.31411344

network_body._body_endoder.seq_layers.0.bias f4 [128]
000000 00 00 00 00 00 00 00 00 00 00 00 00 00 00 00 00
       0.0 0.0 0.0 0.0
000010 00 00 00 00 00 00 00 00 00 00 00 00 00 00 00 00
       0.0 0.0 0.0 0.0
000020 00 00 00 00 00 00 00 00 00 00 00 00 00 00 00 00
       0.0 0.0 0.0 0.0
000030 00 00 00 00 00 00 00 00 00 00 00 00 00 00 00 00
       0.0 0.0 0.0 0.0
000040 00 00 00 00 00 00 00 00 00 00 00 00 00 00 00 00
       0.0 0.0 0.0 0.0
000050 00 00 00 00 00 00 00 00 00 00 00 00 00 00 00 00
       0.0 0.0 0.0 0.0
000060 00 00 00 00 00 00 00 00 00 00 00 00 00 00 00 00
       0.0 0.0 0.0 0.0
000070 00 00 00 00 00 00 00 00 00 00 00 00 00 00 00 00
       0.0 0.0 0.0 0.0
000080 00 00 00 00 00 00 00 00 00 00 00 00 00 00 00 00
       0.0 0.0 0.0 0.0
000090 00 00 00 00 00 00 00 00 00 00 00 00 00 00 00 00
       0.0 0.0 0.0 0.0
0000a0 00 00 00 00 00 00 00 00 00 00 00 00 00 00 00 00
       0.0 0.0 0.0 0.0
0000b0 00 00 00 00 00 00 00 00 00 00 00 00 00 00 00 00
       0.0 0.0 0.0 0.0
0000c0 00 00 00 00 00 00 00 00 00 00 00 00 00 00 00 00
       0.0 0.0 0.0 0.0
0000d0 00 00 00 00 00 00 00 00 00 00 00 00 00 00 00 00
       0.0 0.0 0.0 0.0
0000e0 00 00 00 00 00 00 00 00 00 00 00 00 00 00 00 00
       0.0 0.0 0.0 0.0
0000f0 00 00 00 00 00 00 00 00 00 00 00 00 00 00 00 00
       0.0 0.0 0.0 0.0
000100 00 00 00 00 00 00 00 00 00 00 00 00 00 00 00 00
       0.0 0.0 0.0 0.0
000110 00 00 00 00 00 00 00 00 00 00 00 00 00 00 00 00
       0.0 0.0 0.0 0.0
000120 00 00 00 00 00 00 00 00 00 00 00 00 00 00 00 00
       0.0 0.0 0.0 0.0
000130 00 00 00 00 00 00 00 00 00 00 00 00 00 00 00 00
       0.0 0.0 0.0 0.0
000140 00 00 00 00 00 00 00 00 00 00 00 00 00 00 00 00
       0.0 0.0 0.0 0.0
000150 00 00 00 00 00 00 00 00 00 00 00 00 00 00 00 00
       0.0 0.0 0.0 0.0
000160 00 00 00 00 00 00 00 00 00 00 00 00 00 00 00 00
       0.0 0.0 0.0 0.0
000170 00 00 00 00 00 00 00 00 00 00 00 00 00 00 00 00
       0.0 0.0 0.0 0.0
000180 00 00 00 00 00 00 00 00 00 00 00 00 00 00 00 00
       0.0 0.0 0.0 0.0
000190 00 00 00 00 00 00 00 00 00 00 00 00 00 00 00 00
       0.0 0.0 0.0 0.0
0001a0 00 00 00 00 00 00 00 00 00 00 00 00 00 00 00 00
       0.0 0.0 0.0 0.0
0001b0 00 00 00 00 00 00 00 00 00 00 00 00 00 00 00 00
       0.0 0.0 0.0 0.0
0001c0 00 00 00 00 00 00 00 00 00 00 00 00 00 00 00 00
       0.0 0.0 0.0 0.0
0001d0 00 00 00 00 00 00 00 00 00 00 00 00 00 00 00 00
       0.0 0.0 0.0 0.0
0001e0 00 00 00 00 00 00 00 00 00 00 00 00 00 00 00 00
       0.0 0.0 0.0 0.0
0001f0 00 00 00 00 00 00 00 00 00 00 00 00 00 00 00 00
       0.0 0.0 0.0 0.0

network_body._body_endoder.seq_layers.2.weight f4 [128, 128]
000000 d5 8f 1c 3d 8e e3 04 3d d1 f5 1a be 5e 28 86 bd
       0.038223106 0.032443576 -0.15132834 -0.06550668
000010 2a a2 26 3e 25 ec 34 3d eb 49 e5 bd b0 51 48 ba
       0.16272798 0.044170517 -0.11195739 -0.0007641567
000020 f5 68 ad bd 31 25 55 3d c4 21 55 bd e6 86 7f 3d
       -0.084672846 0.05203742 -0.052034155 0.06238451
000030 00 15 aa bb e8 82 10 3e 7e ce a2 b8 5c a9 bf bc
       -0.0051904917 0.14112437 -7.763224e-05 -0.023396187
000040 bc 89 a1 3d 20 85 a4 3c fc 57 90 3b d5 53 53 3d
       0.07887599 0.02008301 0.00440502 0.05159362
000050 8b 71 44 3c 58 1b 90 3d ae aa 8a bd 4b 52 3e be
       0.011989961 0.070364654 -0.06770836 -0.1858608
000060 e6 b6 55 bb 26 94 b6 bc 99 4c 58 be dc 25 8a bd
       -0.0032610237 -0.02228744 -0.2112297 -0.06745502
000070 cc 46 e6 bd 61 cd 2a be 58 91 3d bd 50 35 c1 bd
       -0.11243972 -0.16679908 -0.04628119 -0.09433997
000080 60 ae 31 3d 6f 2f 75 3c a2 1e a7 bd 89 66 f6 3d
       0.043379188 0.014964922 -0.081601396 0.12031276
000090 04 d6 af 3d 19 ee 4d 3d dc 2d 7d ba 71 e5 a1 bd
       0.08585742 0.050275896 -0.00096580177 -0.079050906
0000a0 1e 8e 71 bd 8e a3 d5 bd 86 71 1e be 62 d3 e7 bd
       -0.058973424 -0.10431586 -0.15472993 -0.11319615
0000b0 70 2e 00 be af 3e 99 bd 91 52 f1 3d 93 1f 7e bd
       -0.12517715 -0.07482659 0.117833264 -0.06204183
0000c0 bf 61 a1 bd fe 1f 35 3e 96 24 83 3d 37 2b 8b 3c
       -0.07879972 0.17687985 0.064034626 0.01698838
0000d0 7c 1f 29 bb ba 28 ec bd bd f3 d7 bd 00 a6 4b 3c
       -0.002580612 -0.115312055 -0.10544536 0.012429714
0000e0 18 73 8b bd ec ac 68 3d 43 12 a9 bb dc 0a 72 bd
       -0.06809062 0.056805536 -0.0051596477 -0.059092388
0000f0 65 91 16 3d 23 3d 4d be 95 3b 8b 3c 55 6f 32 be
       0.036759753 -0.20042853 0.016996184 -0.17425282
000100 a1 2e 5c bc ef 7a 05 be 9e 10 51 bd 88 1d a8 bd
       -0.013438852 -0.13035177 -0.051041238 -0.08208758
000110 3e d1 59 3d 43 6d 87 bd f0 64 27 3d d5 f9 af 3d
       0.053178065 -0.06612637 0.040867746 0.085925736
000120 90 34 4d be ee 74 2b bd b2 97 25 3d da 07 90 3d
       -0.20039582 -0.04185956 0.04042787 0.070327476
000130 d0 54 40 bd 03 e1 1d 3e a6 1c c6 bd cc d6 53 3d
       -0.046955884 0.15417866 -0.09673433 0.05171852
000140 1d c4 3f be 3a fd f6 3c a5 92 b0 3d 1f d0 9d 3d
       -0.18727155 0.030150045 0.0862172 0.077057116
000150 a0 9d 7b 3d 03 6f ab bd d6 a1 42 bc 00 f7 09 bd
       0.06142962 -0.08370783 -0.011879405 -0.033682823
000160 2b 8b 1c be 17 0a 8e bd eb d8 ce 3d a1 9e 8d bd
       -0.15287463 -0.06935518 0.100999676 -0.06915022
000170 e2 40 09 bc 1c df 71 bd 4e 70 cd 3d 9c da 14 be
       -0.008377286 -0.059050664 0.10031186 -0.14536518
000180 0a 25 84 3d 7d 79 57 3d 17 53 11 3d 84 f3 9e 3c
       0.06452377 0.052606095 0.03547963 0.019403227
000190 cc 01 78 bd a1 f7 1f 3c 19 3c 05 3c 49 12 e1 3d
       -0.06054859 0.009763629 0.008132004 0.10989816
0001a0 cc 17 cb 3c 00 aa a4 3d 6f 29 ec 3c 76 70 aa bb
       0.02479162 0.080402374 0.02882835 -0.0052013947
0001b0 a6 76 2d be 90 a0 02 3d 83 c3 31 bd 69 6d b9 3d
       -0.16939792 0.031891406 -0.043399345 0.090540715
0001c0 39 0f 41 3d f9 00 17 be ab e1 64 bd 80 72 03 bd
       0.047133658 -0.14746465 -0.055879276 -0.032091618
0001d0 3e b7 41 bd 02 a4 0d 3c 2d f5 d4 3d b9 a8 f6 3a
       -0.047293894 0.00864506 0.10398326 0.0018818594
0001e0 06 a6 81 3d aa 86 de bd cb f6 3b 3c 90 7b 95 bd
       0.063304946 -0.10865529 0.011472414 -0.07298958
0001f0 e4 b5 1b 3e d5 b6 dd 3c d9 45 49 bd e5 6f 76 3d
       0.15206105 0.02706472 -0.049138878 0.060165305
000200 9e 0d e2 3c be 5d 29 be 51 6a 1e be 29 55 8d 3d
       0.027594384 -0.16539666 -0.15470244 0.06901009
000210 9b 5d b0 3d b2 79 f2 bd 93 f5 c9 3d 0f 77 a4 3c
       0.08611604 -0.11839618 0.09861293 0.020076303
000220 fe 6e b5 3c ae 6b bb bd 04 4d a3 bc 53 11 cf bd
       0.022147652 -0.09151398 -0.019934185 -0.10110726
000230 a9 34 79 bb 7b 25 4b bd 93 0b a1 bd e1 e5 80 bd
       -0.0038025773 -0.04959629 -0.07863536 -0.06293846
000240 dc e0 62 bd 02 18 c9 bd fd ea e6 bd 88 4c 36 be
       -0.055390224 -0.09819032 -0.11275289 -0.17802632
000250 45 23 9a bd a0 5b 0a be a5 6e ab 3d a9 ad 9f 3d
       -0.075262584 -0.13511515 0.08370713 0.07796795
000260 e7 5f b4 bd 7d d2 8a bc 1f 4d 9a bc 96 41 1f 3b
       -0.088073544 -0.016946072 -0.018835602 0.0024300567
000270 3e fb 8f 3d a6 8e a3 bd bb ba b7 3d 49 1f d6 3d
       0.070303425 -0.079861924 0.08971163 0.10455186
000280 96 00 8e 3d df 5d 77 3d 52 3b 88 3d 76 3e d6 3d
       0.069337055 0.060392257 0.066519395 0.10461132
000290 9e 4e 8d bc de a6 9e bb f9 cb 14 be 1d 55 08 3c
       -0.017249402 -0.0048416695 -0.14530934 0.008321074
0002a0 a3 2f dd 3d e5 14 d8 3d 2a 94 48 bd a9 cb 7a 3d
       0.108001016 0.1055086 -0.048969425 0.06122938
0002b0 f5 e1 a8 3b 32 7e e1 bd 08 91 0f bd 29 0d 21 3d
       0.0051538893 -0.11010398 -0.035050422 0.03931919
0002c0 91 8c 3d bd d2 11 9f 3c 17 dd 80 3c 43 ca 3b bd
       -0.046276633 0.019417677 0.015730424 -0.04584719
0002d0 d3 ed 9c bc 6b 17 85 3d 4b 41 a9 bd 22 5b 05 be
       -0.019156372 0.06498607 -0.08264407 -0.13023046
0002e0 ad 7b 3f 3d fc 0e 16 3e b4 17 d4 3d ac f1 7c 3c
       0.046748806 0.14654154 0.103560835 0.015438478
0002f0 e8 17 11 be c8 5c e6 bd 55 80 f9 3d 3d bb 43 bc
       -0.14169276 -0.11248165 0.121826805 -0.011946497
000300 be 3a 09 3d db 0b 85 3e da c9 dd bd 05 58 6b bd
       0.033503287 0.25985608 -0.10829516 -0.05745699
000310 07 66 90 bc 0e 0c c0 bd 8a d7 82 3c ed 1d 07 3e
       -0.017626775 -0.09377299 0.015971918 0.1319501
000320 45 13 b7 bd ce 83 0a 3d a7 63 00 3d 2b 42 16 be
       -0.08939222 0.033817105 0.031345036 -0.14673679
000330 c3 b3 63 bd 3e 83 e5 bd b9 da 2e bd 1f 8b fa bc
       -0.055591356 -0.11206673 -0.04268906 -0.030583916
000340 45 1b fe 3c cf 72 98 bd 43 5f 22 3e 0b d7 b9 3d
       0.031018863 -0.07443773 0.15856652 0.09074219
000350 e7 84 09 bc 27 b5 8a bd 3a c6 9c bd 35 26 e5 3d
       -0.008393503 -0.06772833 -0.07654996 0.11188928
000360 7a e8 07 3e 31 6d a1 3d a1 4a 24 3d 34 ca d4 3d
       0.13272277 0.07882155 0.040110234 0.1039013
000370 83 78 59 bd 4e 09 8f 3c b3 7e f4 bc 43 c8 e8 3d
       -0.053093445 0.017460492 -0.029845571 0.11366322
000380 35 1a ed bc 63 50 57 be 15 ee 39 bd f7 32 91 3d
       -0.02894316 -0.21026759 -0.04539307 0.07089799
000390 ff a6 fa 3d 44 49 e8 3d d8 f8 17 3e 9a e9 86 bd
       0.12238883 0.11342099 0.1484102 -0.06587525
0003a0 e8 c5 8c 3d 6a 36 60 bd af 7a cc 3d 30 7f 9c bd
       0.06873685 -0.054739393 0.099843375 -0.076414466
0003b0 c1 03 bf bb 95 d5 dc 3d c5 0b be 3d 90 41 52 bc
       -0.005829305 0.10782925 0.092795886 -0.012833014
0003c0 8a df 5e 3d 80 ea 8b bc 06 9f 32 3c ba 4e 62 3c
       0.054412402 -0.017079592 0.010902172 0.013812715
0003d0 84 8a 8b 3d 45 c1 fc bc 6e 09 76 bc 3f 64 86 bd
       0.06813529 -0.030853877 -0.015016897 -0.06562089
0003e0 21 4a 0d be 5f be 2c be b2 5f 68 bd 8a b3 ae 3d
       -0.13797809 -0.16869496 -0.056731887 0.08530338
0003f0 67 53 9d bd 8b 4f 09 be 32 b5 af bd 54 12 da 3d
       -0.07681923 -0.1340925 -0.08579482 0.10648027

network_body._body_endoder.seq_layers.2.bias f4 [128]
000000 00 00 00 00 00 00 00 00 00 00 00 00 00 00 00 00
       0.0 0.0 0.0 0.0
000010 00 00 00 00 00 00 00 00 00 00 00 00 00 00 00 00
       0.0 0.0 0.0 0.0
000020 00 00 00 00 00 00 00 00 00 00 00 00 00 00 00 00
       0.0 0.0 0.0 0.0
000030 00 00 00 00 00 00 00 00 00 00 00 00 00 00 00 00
       0.0 0.0 0.0 0.0
000040 00 00 00 00 00 00 00 00 00 00 00 00 00 00 00 00
       0.0 0.0 0.0 0.0
000050 00 00 00 00 00 00 00 00 00 00 00 00 00 00 00 00
       0.0 0.0 0.0 0.0
000060 00 00 00 00 00 00 00 00 00 00 00 00 00 00 00 00
       0.0 0.0 0.0 0.0
000070 00 00 00 00 00 00 00 00 00 00 00 00 00 00 00 00
       0.0 0.0 0.0 0.0
000080 00 00 00 00 00 00 00 00 00 00 00 00 00 00 00 00
       0.0 0.0 0.0 0.0
000090 00 00 00 00 00 00 00 00 00 00 00 00 00 00 00 00
       0.0 0.0 0.0 0.0
0000a0 00 00 00 00 00 00 00 00 00 00 00 00 00 00 00 00
       0.0 0.0 0.0 0.0
0000b0 00 00 00 00 00 00 00 00 00 00 00 00 00 00 00 00
       0.0 0.0 0.0 0.0
0000c0 00 00 00 00 00 00 00 00 00 00 00 00 00 00 00 00
       0.0 0.0 0.0 0.0
0000d0 00 00 00 00 00 00 00 00 00 00 00 00 00 00 00 00
       0.0 0.0 0.0 0.0
0000e0 00 00 00 00 00 00 00 00 00 00 00 00 00 00 00 00
       0.0 0.0 0.0 0.0
0000f0 00 00 00 00 00 00 00 00 00 00 00 00 00 00 00 00
       0.0 0.0 0.0 0.0
000100 00 00 00 00 00 00 00 00 00 00 00 00 00 00 00 00
       0.0 0.0 0.0 0.0
000110 00 00 00 00 00 00 00 00 00 00 00 00 00 00 00 00
       0.0 0.0 0.0 0.0
000120 00 00 00 00 00 00 00 00 00 00 00 00 00 00 00 00
       0.0 0.0 0.0 0.0
000130 00 00 00 00 00 00 00 00 00 00 00 00 00 00 00 00
       0.0 0.0 0.0 0.0
000140 00 00 00 00 00 00 00 00 00 00 00 00 00 00 00 00
       0.0 0.0 0.0 0.0
000150 00 00 00 00 00 00 00 00 00 00 00 00 00 00 00 00
       0.0 0.0 0.0 0.0
000160 00 00 00 00 00 00 00 00 00 00 00 00 00 00 00 00
       0.0 0.0 0.0 0.0
000170 00 00 00 00 00 00 00 00 00 00 00 00 00 00 00 00
       0.0 0.0 0.0 0.0
000180 00 00 00 00 00 00 00 00 00 00 00 00 00 00 00 00
       0.0 0.0 0.0 0.0
000190 00 00 00 00 00 00 00 00 00 00 00 00 00 00 00 00
       0.0 0.0 0.0 0.0
0001a0 00 00 00 00 00 00 00 00 00 00 00 00 00 00 00 00
       0.0 0.0 0.0 0.0
0001b0 00 00 00 00 00 00 00 00 00 00 00 00 00 00 00 00
       0.0 0.0 0.0 0.0
0001c0 00 00 00 00 00 00 00 00 00 00 00 00 00 00 00 00
       0.0 0.0 0.0 0.0
0001d0 00 00 00 00 00 00 00 00 00 00 00 00 00 00 00 00
       0.0 0.0 0.0 0.0
0001e0 00 00 00 00 00 00 00 00 00 00 00 00 00 00 00 00
       0.0 0.0 0.0 0.0
0001f0 00 00 00 00 00 00 00 00 00 00 00 00 00 00 00 00
       0.0 0.0 0.0 0.0

value_heads.value_heads.extrinsic.weight f4 [1, 128]
000000 34 ca 1f 3e 50 f7 83 3c e4 3d 37 be 90 3f e7 3d
       0.15604478 0.016109139 -0.17894703 0.112914205
000010 70 24 91 3d 60 32 dd bc 98 df 52 3e da dd d3 bd
       0.07087028 -0.02700156 0.20593107 -0.10345049
000020 34 11 08 3e d0 eb c3 3d 00 c1 db 3d a8 0a f1 bc
       0.13287812 0.09566462 0.10730171 -0.029424027
000030 82 fd 38 be b6 37 27 3e e0 b9 9f bd a4 49 d7 bd
       -0.18065456 0.16329846 -0.07799125 -0.10512093
000040 a0 a0 8e 3b b3 a4 1d be d4 6f ec 3d 00 d2 ff bd
       0.004352644 -0.15394859 0.11544767 -0.12491226
000050 28 74 b2 bc 00 38 69 bb bc 2c e3 bd 88 f5 e1 bc
       -0.021783903 -0.0035586357 -0.11092517 -0.027582899
000060 c8 e1 26 3e a0 dd 72 3d 00 23 13 ba c4 98 40 be
       0.16297066 0.05929339 -0.00056128204 -0.18808275
000070 c2 aa 56 3e 68 10 6c 3d 50 a3 a0 3d 78 4a 43 be
       0.20963576 0.057632834 0.078436494 -0.19071376
000080 ec fe 3b be 80 a2 45 3d 10 62 a0 3d 44 9b 22 3e
       -0.18358964 0.048250675 0.07831204 0.15879542
000090 7e 24 5c 3e 40 94 5b bd 74 e7 25 bd f2 2d 32 3e
       0.21498296 -0.05360818 -0.040503934 0.17400339
0000a0 94 46 13 be ee af 47 3e 6c 4d 85 3d 44 a3 8d 3d
       -0.14382392 0.19500706 0.06508908 0.06915906
0000b0 cf fc c6 bd a0 b7 45 be bc da bf 3d 54 7d ca 3d
       -0.09716188 -0.19308329 0.09367892 0.09887186
0000c0 06 88 32 3e 40 f7 0a be 1d 93 09 be 18 08 bf bc
       0.17434701 -0.13570881 -0.13435026 -0.02331929
0000d0 2c 89 9d bd 06 e7 45 be 18 8d 30 3d 00 7e 5d 3d
       -0.07692179 -0.1932641 0.043103307 0.05407524
0000e0 18 e9 8a bd 50 25 58 3c 47 a2 f5 bd d4 44 2d bd
       -0.0678274 0.01319249 -0.119938426 -0.042301968
0000f0 50 e3 f6 bc d5 f2 53 be e7 13 26 be 9e 58 57 3e
       -0.030137688 -0.20698102 -0.1621853 0.21029899
000100 20 bb 26 bd 5e 5b 90 bd 70 85 e9 bd c0 c8 f4 3d
       -0.0407058 -0.07048677 -0.11402404 0.119523525
000110 56 a1 df bd 52 7f 1d 3e 9e 1a 46 be 54 a8 a2 bd
       -0.10919444 0.153806 -0.19346091 -0.07942262
000120 b6 1b 8d bd 74 56 80 3d e4 66 df bd 9c 81 6a bd
       -0.06890051 0.062664896 -0.10908297 -0.05725251
000130 9c 87 14 be 28 be b1 bd b8 87 93 3d c3 6f 49 be
       -0.14504856 -0.086788476 0.07203621 -0.1967154
000140 28 73 bf bd 3c 68 23 bd 41 2a 30 be e0 9a 8f bc
       -0.09348136 -0.039894328 -0.17203619 -0.017529905
000150 0e 23 10 be 88 99 b3 3c 3c e0 03 3e b8 fc d5 bc
       -0.14075872 0.021923795 0.12878507 -0.026121482
000160 f7 32 f8 bd a0 0f 51 3e 5c d3 06 3d d8 fb 72 bd
       -0.12119096 0.20416117 0.03291641 -0.05932221
000170 ec 26 4f bd fe 14 1f 3e 62 e6 17 3e cd 28 0e be
       -0.05057423 0.15535352 0.14833978 -0.13882752
000180 9a ba 48 3e 38 31 31 3d 5a 57 96 bd a4 86 ad 3d
       0.19602433 0.04325983 -0.0734088 0.08472946
000190 98 08 86 bc 9c 79 42 bd 68 10 88 bc c0 a1 19 3e
       -0.01636152 -0.047479257 -0.016609386 0.15003109
0001a0 7e 1f 2a be fc 83 f9 3d e0 c2 38 3d 88 b8 78 bd
       -0.16613576 0.12183377 0.045107722 -0.060722858
0001b0 9e 76 00 be 84 d4 02 be 80 0d ec bd 17 b2 3b be
       -0.12545249 -0.12776381 -0.115260124 -0.18329655
0001c0 6a 7e 06 3e 40 5c 0f bc c4 db 45 be 4e 1d 18 3e
       0.1313416 -0.008750021 -0.19322115 0.14854929
0001d0 f0 2d 16 bc ae 67 58 3e a4 5e b9 3d fc 01 a4 3d
       -0.009166226 0.211333 0.090512544 0.08008191
0001e0 70 b8 91 3c a8 e9 f2 3c 88 df f1 bc c2 84 c2 bd
       0.017788142 0.029652432 -0.029525533 -0.09497978
0001f0 b9 cb 53 be 5e 84 83 bd b4 0e 51 bd 36 a2 af bd
       -0.20683183 -0.064217314 -0.051039413 -0.08575861
