Assets/results/ChaserRun4/My Behavior/My Behavior-499972.pt (torch, 445978 bytes, 39 tensors)

network_body._body_endoder.seq_layers.0.weight f4 [128, 6]
000000 35 71 6f bf 6a d6 08 be 1e bd 9f 3e 83 4d 66 bf
       -0.93532115 -0.13363042 0.31198972 -0.89962023
000010 ba 8c 2a be 08 e9 96 bd 9d 93 96 3c c5 1a 95 3e
       -0.16655245 -0.07368666 0.018380934 0.29121986
000020 93 10 4c be cf 49 7d be f6 6a a1 3e 8a fa 5b 3e
       -0.19928198 -0.24735187 0.31526917 0.21482292
000030 8f e8 fc bd ba 29 ac bc 36 6d 3f 3f 84 1d 0d bd
       -0.123490445 -0.02101599 0.7477602 -0.034451976
000040 cd cc 04 3f 04 db 17 bf 90 8d d8 3e a1 ff 5a 3e
       0.51875 -0.59318566 0.42295504 0.21386577
000050 4d ea 2d 3e 86 19 18 3f 54 5e 0a 3e 0f ac 78 3f
       0.1698391 0.59413946 0.13512546 0.9713754
000060 b9 9e 8c 3d 15 18 c0 3e 0e 1f 08 bf 6d 15 39 3e
       0.068662114 0.37518373 -0.53172386 0.1807458
000070 89 61 a3 be a7 ee 1d bf 23 0d c3 3e 67 44 06 3f
       -0.3191035 -0.6169228 0.3809596 0.52448124
000080 b9 e3 f6 3e 7b 9f 1c 3f c1 35 92 3e b0 8d 1e 3f
       0.48220614 0.6118085 0.28556636 0.6193495
000090 f1 d3 5e bf be 11 fe be 57 7f 03 3f 9e aa 64 be
       -0.87042147 -0.4962291 0.5136618 -0.2233071
0000a0 bd 54 34 3f 04 a9 dd be 74 49 c6 bd 5e 9f ea 3d
       0.704418 -0.4329301 -0.09681979 0.11456178
0000b0 01 14 1b bf b2 fd fb be c5 bf d0 3e 1d 78 af be
       -0.605774 -0.49216992 0.4077131 -0.34271327
0000c0 af b7 41 3e c4 7d 04 3d de 12 42 be 31 b4 95 3e
       0.18917726 0.032346502 -0.1895251 0.29239038
0000d0 14 a8 8c 3e 61 37 ea bd 2d 77 76 bd 34 78 b2 3d
       0.27471983 -0.11436344 -0.06017225 0.08714333
0000e0 26 43 7f be 46 89 fe bd 55 5f 3f 3e fe 83 de 3d
       -0.24927959 -0.124285266 0.1868871 0.10865019
0000f0 f1 7b c4 bd 2b 7c fa 3d 10 09 8d be ac 1b ab be
       -0.095939524 0.122307144 -0.27545977 -0.3341955
000100 7a ec dc 3e 67 08 08 be 6c 9f 68 3d 88 f1 1c 3d
       0.43149167 -0.13284455 0.05679266 0.03831628
000110 3b e3 97 3b bb 37 17 be 1d 5e b5 be 3e 7e ca bd
       0.0046352423 -0.14767353 -0.35423365 -0.0988736
000120 08 03 da 3e ad 47 65 be 63 b5 93 3e c7 ca 05 bf
       0.42580438 -0.22390623 0.28849325 -0.5226254
000130 3f 1e cf 3c 29 67 a1 3d e0 b9 3f 3f 43 d4 c7 be
       0.025282977 0.07881004 0.74893 -0.3902913
000140 a6 8a 21 3f f3 9a c7 3d ab 2f e2 3b 5a d7 13 3f
       0.63102186 0.09746351 0.006902655 0.57750475
000150 7a a4 9d 3f 90 7c 0e 3f 89 d6 66 3e 66 51 b3 be
       1.2315819 0.5565882 0.22542776 -0.3502304
000160 f9 56 95 be 38 a5 cc bd ba ec 29 3f 08 97 c3 bd
       -0.29167917 -0.099924505 0.6637684 -0.09550291
000170 81 0c 0d bf 18 b9 4c be 8a a1 8e be b9 b5 6f bd
       -0.55097204 -0.19992483 -0.2785762 -0.058522914
000180 68 6e 35 3e e4 a5 a2 be 4f 33 39 bd 78 0a 57 be
       0.17717898 -0.3176719 -0.045214947 -0.21000087
000190 77 e8 6d 3f b6 78 3d 3f 9e b6 37 be c8 ed 82 3e
       0.9293284 0.74012315 -0.17940757 0.25572038
0001a0 c3 49 20 bf 84 7a b2 be 89 e1 1f bf de 18 9d 3d
       -0.6261255 -0.34859097 -0.62453514 0.07670759
0001b0 94 bf 6d bb af c3 e9 be ce bf 43 bf 1c 28 9d be
       -0.003627752 -0.45657107 -0.76464546 -0.30694664
0001c0 27 d3 d6 3d 2e d6 2b 3a b2 38 08 bf 3d e1 37 3f
       0.10489493 0.00065550476 -0.5321151 0.7182806
0001d0 68 77 2a bf f7 06 e2 bd 67 48 b0 3e f8 bf a1 3e
       -0.6658845 -0.11036485 0.3443024 0.31591773
0001e0 b7 06 16 bf a1 12 07 bf 33 15 31 3e 22 b9 a4 be
       -0.58603996 -0.527628 0.17293243 -0.32172495
0001f0 f9 f0 b1 3e 4f db 1e 3f 4e 44 b9 bd 3d 91 bc 3e
       0.3475416 0.6205339 -0.09046231 0.36829558
000200 6d fc 99 3e b4 6b 67 be c6 f3 53 3c 7a cf 0f 3e
       0.30075398 -0.22599679 0.012936538 0.1404399
000210 0c ab c4 be f5 c3 73 3e e3 90 0c 3f 53 89 e2 be
       -0.38411748 0.2380522 0.5490858 -0.44245395
000220 5c 6e c3 3e 69 fc 00 3f 8b 3e c4 bd 96 99 9c 3e
       0.38170135 0.5038515 -0.095822416 0.30585927
000230 ed 98 8d 3e 59 91 7c be 4d 97 51 bd 1a 6d 6c 3d
       0.27655736 -0.2466482 -0.051169682 0.057721235
000240 90 04 4d bd d0 40 80 3e b1 59 12 be c1 dc 62 3e
       -0.05005318 0.25049448 -0.14292027 0.22154523
000250 d0 60 9c 3d 06 64 bc 3e 2e 21 16 be 88 d3 4c 3d
       0.07635653 0.36795062 -0.14661095 0.05000642
000260 64 10 22 3f e1 e6 01 bf 0a be 80 bb 61 03 8e 3e
       0.6330626 -0.5074292 -0.0039289044 0.27736953
000270 c6 4c f9 3e ed 7f 10 3e 15 a2 27 bf b4 cf 1a be
       0.48691386 0.141113 -0.6548169 -0.15118295
000280 5e c3 5f bc 15 5e df be 15 44 5a be a8 44 90 be
       -0.013657419 -0.43626466 -0.21315034 -0.2817738
000290 cc 72 1f be 88 f4 ec be 47 63 20 3e f4 64 69 be
       -0.15571135 -0.46280313 0.15662871 -0.22792417
0002a0 8b e3 15 be e1 5d 8e 3f bd 8b d8 be 8c f2 98 bd
       -0.14637582 1.11224 -0.42294112 -0.07468137
0002b0 14 82 ef bd dc 2a c2 3e 19 b0 02 bd 73 50 bc bd
       -0.11694732 0.37923324 -0.03190622 -0.09195032
0002c0 d3 b7 08 3f 26 31 dd 3e c8 9f 21 3f 79 3b 4a 3f
       0.53405493 0.4320156 0.6313443 0.78997
0002d0 fd ca 5a be 7e 97 cf 3e df f9 c3 bc eb bb b3 3e
       -0.21366496 0.40545267 -0.023922859 0.35104308
0002e0 0e bc 52 3e 5a 41 67 3e 73 84 0b 3e fd b6 9d 3e
       0.2057955 0.22583523 0.13624744 0.3080367
0002f0 e8 de 8f be 57 6f 73 bd 12 04 ef bc 39 fc 01 be
       -0.2809975 -0.059432354 -0.029176746 -0.12693872
000300 7f 6b 10 be 6c ee c1 be 39 11 1c be c6 7d 2b 3c
       -0.14103507 -0.37877214 -0.15240945 0.010466998
000310 e4 75 fe be a4 1f c0 3d 86 2d dd 3e ed ea 35 3f
       -0.49699318 0.09381035 0.43198794 0.71061593
000320 5a c0 b1 3e 9e 00 7e 3e fd 64 4f be d0 ba 03 be
       0.34717065 0.24804923 -0.20253368 -0.12864232
000330 8a b1 6a 3f 08 f6 8b 3e c1 be 24 be 85 0b 2d be
       0.91677153 0.27336144 -0.16088392 -0.16898926
000340 62 56 6b 3e 97 fe c7 be 4f 41 86 3e 98 35 45 bf
       0.22982171 -0.39061424 0.26221702 -0.770349
000350 65 1b 40 3f 34 c6 e6 bd 0b dc 93 be 7b cf 0f 3f
       0.750418 -0.11268273 -0.28878817 0.56175965
000360 0d a3 01 be e5 fd 34 bf db a0 f9 3e 09 eb 06 3e
       -0.12659855 -0.7069991 0.48755535 0.13175596
000370 67 4a 2b bf 45 db be bd 8a 12 47 be 82 73 3c be
       -0.66910404 -0.09319166 -0.19440666 -0.18403438
000380 27 97 10 bf a1 58 73 3f 01 74 15 bf f0 6b 6a be
       -0.5648064 0.9505711 -0.5838013 -0.22892737
000390 96 f4 c1 3e f9 6b 01 3f 2c e6 91 be d0 bf b5 3d
       0.37881917 0.5055538 -0.2849592 0.08874476
0003a0 c8 95 fa be e5 fd 77 3e 95 91 d6 be eb 6c ba 3e
       -0.489424 0.24217947 -0.41907945 0.36411223
0003b0 61 48 32 be e8 08 ac bc c8 56 81 be 33 6b 50 bf
       -0.17410423 -0.02100034 -0.2526152 -0.81413573
0003c0 3d 9a 2c be 02 58 b3 3e eb ff 10 3f dc 5e 7d be
       -0.16855712 0.35028082 0.566405 -0.24743217
0003d0 71 9a c9 3e 2e 5b 10 3f da df d5 3e fe ee d8 be
       0.39375642 0.5638913 0.41772348 -0.42369837
0003e0 73 79 df 3e 71 30 c7 3e 40 2a e5 3e af 1a c4 3d
       0.43647346 0.38904145 0.44758797 0.09575402
0003f0 e0 62 ca be 6f f0 02 bf 85 c7 b1 be 60 4a aa 3e
       -0.3952856 -0.5114812 -0.34722534 0.3325987

network_body._body_endoder.seq_layers.0.bias f4 [128]
000000 aa 05 2c 3c 61 d2 e7 3c 23 5b 74 3d bf fb 89 3d
       0.010499397 0.028298559 0.059657227 0.0673747
000010 03 7b 06 bc bd ad 6c 3d b5 f0 4b bb ac 76 0e 3c
       -0.008208039 0.057782877 -0.0031118814 0.008695286
000020 26 76 57 3d 08 f6 af bb d8 11 0b 3c 1a 70 dc bc
       0.05260291 -0.0053699054 0.008488141 -0.026908923
000030 8b b1 17 3d 02 e6 6a 3c 51 c3 ba 3c 85 6f bc bc
       0.037034553 0.014337065 0.022798212 -0.023002395
000040 94 5d b1 3b 21 36 94 3c 74 41 01 3d a4 30 b4 3a
       0.0054127667 0.018092217 0.03155656 0.0013747406
000050 2b e3 c9 39 d0 02 0e 3c 42 37 2e 3c 11 9c 89 39
       0.0003850696 0.008667663 0.010633292 0.00026246955
000060 98 8a 09 3d d6 16 e2 bc 34 9d 99 3c 33 c3 c6 3b
       0.03357944 -0.02759878 0.018751718 0.00606575
000070 49 2f 1a bb 41 d1 bf 3c 8a a6 df 3b 50 11 2e bc
       -0.002352672 0.02341521 0.006825273 -0.010624245
000080 41 0c 4e bc 42 bb 1a 3d 62 8d e4 bc 23 01 c0 3c
       -0.012576164 0.03777624 -0.027899448 0.023438042
000090 43 50 97 3c 3a 1d ec 3c 1f 04 7a 3d 39 81 c7 39
       0.018470889 0.02882253 0.061039086 0.00038052516
0000a0 8f 78 e4 3c ff 5e 44 3d 6e 75 3b 3c 38 fd 97 3c
       0.027889518 0.047942158 0.011441572 0.018553361
0000b0 f8 c7 84 3c 1a 66 f3 3c 98 d4 b3 3c a9 f9 89 3c
       0.016208634 0.029711772 0.021951959 0.01684268
0000c0 f0 e8 72 3a 43 a7 a6 bc 7e d2 39 bc 92 42 94 3c
       0.0009266278 -0.020343428 -0.011341689 0.01809815
0000d0 73 ca c9 3d 4f 06 d2 3c 60 b2 e2 3b 88 7b 90 3c
       0.09853067 0.025637774 0.0069182366 0.01763703
0000e0 cc d5 37 3d 1c a3 79 3d 93 95 b9 3c d1 bd 6e bc
       0.044881627 0.06094657 0.02265433 -0.014571623
0000f0 6d ab d4 3c d0 13 e9 ba 8f fc 2c bd dd c7 42 3d
       0.025960648 -0.0017782394 -0.042233046 0.047553886
000100 47 c5 8e bc 3f 9c 73 3c 3c 00 e4 3c 19 57 95 3d
       -0.017428054 0.014868795 0.027832143 0.07292003
000110 48 ac c3 3c 04 cd 00 3b e5 0b ad bc 44 a0 1f 3b
       0.023885861 0.0019653449 -0.021123836 0.0024357
000120 8c 76 ef bb 5d d3 f3 3c 72 b4 74 3c 07 93 3a bc
       -0.007307833 0.029763872 0.0149356 -0.011387593
000130 4b 69 68 bc 3f 67 0e 3d 91 92 bc 3c cf c5 37 3d
       -0.01418526 0.034766432 0.023019107 0.04486638
000140 a8 d2 36 bb 43 5b 08 3d d3 33 e5 3c 21 b4 b0 bb
       -0.0027896557 0.03329016 0.027978813 -0.005392567
000150 b6 53 66 3d 40 c2 2f ba 68 cf c2 3b 12 4d 57 3d
       0.056232177 -0.0006704666 0.005945135 0.052563734
000160 ac de 2a 3c 2c c5 07 38 2f 1c 5a 3c 86 d6 0e 3b
       0.010429066 3.237014e-05 0.013312384 0.0021795346
000170 bd d0 32 bc 45 ee 3e bb c6 6a a2 3c 01 a8 8e 3c
       -0.010914025 -0.002913372 0.019826304 0.017414095
000180 39 55 01 3a ef f4 85 bb d1 66 5e bd 8e a8 1a 3c
       0.00049336586 -0.0040880363 -0.054297272 0.009439601
000190 00 41 91 3c 26 ba 34 3c b4 5b c2 3c 42 03 11 3d
       0.01773119 0.011030709 0.023725368 0.035403498
0001a0 54 36 b0 bc 41 20 5a bc 5b c6 8c 3b 38 e8 1f 3c
       -0.02151028 -0.013313354 0.0042961068 0.009759955
0001b0 a8 6a 51 3d 44 70 03 3b cb b5 02 bd f2 74 22 3d
       0.051127106 0.002005593 -0.031911653 0.03966231
0001c0 02 4e d9 bb 22 fa 9f 3c 82 64 38 3b 4d b9 38 3d
       -0.0066316137 0.019528452 0.002813608 0.04509859
0001d0 03 5a 0f bd d6 b8 3b bc 85 ac c2 3c b8 71 fa 3c
       -0.03499795 -0.011457643 0.023763904 0.030571803
0001e0 b2 54 c8 3c 36 40 ac 3b 31 2b 84 3c e1 d2 9b 3d
       0.024454448 0.005256678 0.016133877 0.07608581
0001f0 c1 59 99 3c 13 4e d8 3c 6e 6a 87 3d 47 d3 38 3d
       0.018719556 0.026404416 0.06612097 0.045123365

network_body._body_endoder.seq_layers.2.weight f4 [128, 128]
000000 41 96 10 3e 97 08 d8 3c 99 4c a8 3b 72 a7 e4 3c
       0.14119817 0.026371283 0.0051360843 0.027911875
000010 77 38 e9 3d 79 b0 91 bc 40 22 d1 3c 84 84 27 bd
       0.11387723 -0.017784344 0.025529027 -0.04089786
000020 e1 39 88 3d 03 9b 62 bd 49 3a 1a be df d8 d8 3c
       0.066516645 -0.055323612 -0.15061297 0.0264706
000030 6f e9 d7 3d 1d d7 c4 3d ad 75 ef 3d 61 26 e2 bc
       0.10542571 0.09611342 0.11692367 -0.027606191
000040 18 d4 d5 bc 2d 41 f7 3d e5 3e 3c be 49 77 87 3d
       -0.02610211 0.12072978 -0.18383367 0.06614549
000050 30 c5 6b bc db cf 74 3d 96 fa 9a 3d 44 76 af bc
       -0.014390275 0.05976854 0.07567327 -0.021418698
000060 7d f5 18 be c7 cb 1c bd 12 a9 15 be 4e 0a 7b bd
       -0.14937396 -0.038280275 -0.14615276 -0.061289124
000070 e5 d9 70 3d a9 79 31 3d 0b c9 92 3c 5b c2 a9 bc
       0.05880155 0.043328915 0.01791813 -0.020722559
000080 a5 4e 88 3d 02 06 85 bc ed 79 7e 3d 15 14 0d be
       0.06655625 -0.016238216 0.062127996 -0.13777192
000090 fe 47 a5 3d 24 a0 1e bd a8 59 20 bd 56 ee a8 bc
       0.08070372 -0.03872694 -0.039148003 -0.02062146
0000a0 3a 36 c3 bc 78 9e a4 3d 03 b7 ce bd 61 9c a7 3d
       -0.023829568 0.08038038 -0.100935005 0.08184124
0000b0 c2 97 fe bc b3 14 2c bb 16 f6 8e bd a9 12 94 bd
       -0.031078223 -0.0026257455 -0.06980531 -0.07230122
0000c0 70 df f3 bd dd fe de bc 2a 44 aa 3d 34 3d 15 3d
       -0.11907852 -0.027221138 0.083137825 0.03643532
0000d0 a2 5b 65 bd 96 b8 e3 3d 13 b2 59 bc 5a c8 d8 bd
       -0.05599559 0.11119191 -0.013287085 -0.10585089
0000e0 b7 cc c4 bd 53 01 92 bd b6 34 08 3d 9c 55 c0 bd
       -0.09609359 -0.07129159 0.033253394 -0.09391329
0000f0 26 da be 3d 39 fb 21 3b 68 58 7f bd 3c 29 34 3d
       0.09318952 0.002471639 -0.06234017 0.043984637
000100 8d 6b 7a be a8 9e a1 bc 77 25 ac bd 03 26 dd 3d
       -0.2445509 -0.019728974 -0.08405583 0.10798266
000110 f2 04 b1 3d f9 08 90 bc 87 20 55 be e6 cf 5e 3c
       0.08643521 -0.017582403 -0.2081319 0.013599372
000120 b8 7e 72 bd a4 2d c1 3c d7 c8 8b 3c 37 0a 95 3d
       -0.05920288 0.023581333 0.017063541 0.07277339
000130 5c c5 0a 3e 6c db 59 be 58 f8 77 3d f9 be b4 3d
       0.13551849 -0.21275109 0.060539573 0.08825488
000140 99 73 c7 bd e0 79 21 bd 28 ba 26 3d 96 13 0d 3e
       -0.097388454 -0.03942287 0.040704876 0.13777003
000150 81 c1 2d be 80 bf 3e bc 12 d0 b1 bd 64 5d 03 3e
       -0.16968347 -0.011642337 -0.086822644 0.12828594
000160 19 57 55 bd 05 7d fe bc 10 24 d1 bd be 82 85 3c
       -0.052085016 -0.031065473 -0.102119565 0.016297694
000170 d7 67 7a 3d 42 bf ff 3d 72 56 c9 bd 24 76 be 3d
       0.061134186 0.124876514 -0.09830941 0.09299877
000180 2c 4d 59 3b 60 71 fb 3b dc 5a e8 bd 74 49 b8 bd
       0.003315757 0.0076734275 -0.11345455 -0.08998385
000190 a3 35 43 bd cb 22 45 bc 21 3f 61 be 5d ba 02 3d
       -0.047658574 -0.012032221 -0.21996738 0.03191601
0001a0 6d ea ab bc b1 3d 92 bd 76 3b ce 3d 32 74 d3 bd
       -0.020985806 -0.07140673 0.10069935 -0.10324897
0001b0 b0 ae dd bd bc fe 8b bd e5 5a d1 3d 5c 89 db bc
       -0.108243346 -0.06835696 0.10222415 -0.026798896
0001c0 45 17 c7 bc 6b b2 16 be 27 2e cd 3d 8e 11 16 be
       -0.024303088 -0.14716499 0.100185685 -0.14655134
0001d0 6e d9 c0 3b 34 e7 eb 3d 81 4b fa bc 0a 91 92 3d
       0.0058852946 0.11518708 -0.030553581 0.0715657
0001e0 71 96 33 3b 4e eb 1e be 15 2d 38 bd ff 54 99 3b
       0.0027402902 -0.15519449 -0.04496487 0.004679322
0001f0 fd b5 46 bd b0 33 37 3d 10 7d 45 3c 17 da ca 3d
       -0.0485134 0.044727027 0.012053743 0.099048786
000200 4c 62 33 3e 09 42 74 3d fc 15 f5 3d 5c e7 93 3d
       0.17517966 0.05963329 0.11967084 0.07221863
000210 26 cc 70 3d 27 2f 38 be 73 14 d5 3c c1 8c 0e bd
       0.05878844 -0.17986737 0.026010728 -0.034802202
000220 75 15 d0 3d 41 42 0c bc db 28 cf bd 5b 44 8f 3d
       0.101603426 -0.008560718 -0.101152144 0.0699546
000230 95 2d ea 3d 2c ab 89 bc 1e e1 e1 bd 46 9a ae bd
       0.11434475 -0.016805254 -0.11029266 -0.08525519
000240 ac 7d a8 bc 41 57 86 3c 44 ff 20 3d 9e f6 a9 3b
       -0.020567738 0.016399028 0.03930594 0.0051868698
000250 99 4d 95 bd c0 87 a6 3c a7 87 32 3d b3 7e 32 3d
       -0.07290191 0.020328403 0.0435864 0.04357786
000260 eb a5 c8 3d 22 11 00 3d 32 b5 03 3e da 15 92 bd
       0.09797271 0.03126634 0.1286209 -0.07133074
000270 a0 e1 da bc f9 c2 9f bd 3e b4 cc 3c df 67 e6 3d
       -0.026718915 -0.0780086 0.02498829 0.112502806
000280 15 eb b7 ba 10 c1 29 be 68 05 b5 3c d9 c1 53 3d
       -0.0014031852 -0.16577554 0.022097304 0.05169854
000290 c5 c2 53 bd 30 a3 02 3d 1a f6 0d bd 40 bf c4 bd
       -0.05169942 0.03189391 -0.03465853 -0.096067905
0002a0 7c d7 a0 3d 80 84 ce bc 0a 1c 25 bd ae f3 86 bb
       0.078536004 -0.025209665 -0.040309943 -0.0041184044
0002b0 e5 03 64 3e b5 30 2b 3d f8 d9 1c 3e 2a 86 f8 3d
       0.2226711 0.041794498 0.15317523 0.12134965
0002c0 88 81 0a be c9 0b a4 bd 94 77 7a 3c 6f 42 6f be
       -0.13525975 -0.0801006 0.015287299 -0.23365186
0002d0 9e f9 df bc 77 af 9a bc c0 94 7f 3c cc 93 b3 3d
       -0.027340706 -0.018882496 0.01559943 0.087684244
0002e0 de 12 19 be da 1d 24 be 80 e9 81 bc 07 5b 53 bd
       -0.14948604 -0.16027012 -0.015858412 -0.051600482
0002f0 ca 30 66 3e 07 cf 24 37 88 c9 b8 bd b0 a6 6f be
       0.22479549 9.823364e-06 -0.09022814 -0.2340343
000300 5b 80 24 be 19 4c 94 bd 6b f0 d7 3d b9 8d 47 3d
       -0.16064589 -0.07241077 0.10543903 0.04871914
000310 33 4b e3 bd 2b 4f 04 bd f4 09 ee 3c 68 61 14 be
       -0.110983275 -0.032302063 0.02905748 -0.14490283
000320 bd e0 80 3d c5 d1 21 be 0b 8a 22 3e a2 cb ad 3d
       0.062928654 -0.15802677 0.15872972 0.084861055
000330 39 26 7e bc 9a e9 9b 3d 11 88 60 3d c3 7d 85 3d
       -0.015512043 0.07612915 0.054817263 0.06518128
000340 c7 ee 90 bd 7c 80 f1 3d fb 4b a9 3a 25 47 69 3d
       -0.07076793 0.117920846 0.0012916321 0.056952614
000350 06 6a d0 bc f0 f4 18 3b 7f 33 86 3d 85 65 27 3d
       -0.02544118 0.0023339354 0.06552791 0.0408683
000360 38 67 25 3e 95 a7 aa bd 8c 7b e6 bd 26 dc ff bb
       0.16152656 -0.08332745 -0.112540334 -0.007808226
000370 59 9d a4 3d 20 7b e0 3d a4 0a 23 3e a0 97 16 3e
       0.08037824 0.10960984 0.15922028 0.14706278
000380 ef 53 be bc d8 9a 5e bd b7 eb e6 bb ee 37 ec bd
       -0.023233382 -0.05434689 -0.0070471424 -0.11534105
000390 fb bb 6c bd 5b c6 1c bd 4b c3 a8 3d 8f b0 f9 3c
       -0.05779646 -0.038275104 0.08240374 0.030479698
0003a0 ef 20 21 be 90 05 13 3e 46 b0 28 3d 03 87 0c bd
       -0.1573522 0.1435759 0.041183732 -0.034308445
0003b0 63 f9 9f bd c3 d4 80 3c e9 6a 6d bd 92 af 9a bc
       -0.078112386 0.015726453 -0.057963286 -0.018882547
0003c0 e6 54 24 3d 4b 8b 2c 3e e2 41 70 bd f8 4a 6f 3e
       0.040120028 0.16850011 -0.05865658 0.23368442
0003d0 15 87 5c 3a c8 a7 22 be ce 00 bf 3c 73 ad b1 bd
       0.0008412463 -0.15884316 0.023315813 -0.08675661
0003e0 22 54 f4 bd 4a 5d aa bd 10 78 c6 bd 07 ec ac 3d
       -0.119301096 -0.08318575 -0.09690869 0.08443456
0003f0 da cd 27 bd 5b 63 12 be b8 7c 05 3e 2f 17 35 3e
       -0.0409678 -0.14295714 0.13035858 0.17684625

network_body._body_endoder.seq_layers.2.bias f4 [128]
000000 43 89 c0 3b ad 10 a9 3b 4c 8e 39 39 35 95 86 3d
       0.005875738 0.0051594586 0.00017695985 0.06571428
000010 2b 3a d1 3c 03 ab 80 3c 28 ee 73 3b d1 74 a7 3b
       0.025540432 0.015706545 0.003722081 0.005110361
000020 d1 df af bc c1 28 a5 3b 00 35 7d 3c ff 8a 0c 3c
       -0.021469029 0.0050402586 0.015454531 0.008578061
000030 e3 29 57 3c 46 b1 05 3d 83 eb 80 3c 0f 2e 10 3d
       0.013132545 0.032639764 0.0157373 0.035200175
000040 08 85 20 3d 7f 81 db 3b 35 8d ac 3b 3f b6 54 bc
       0.03918937 0.0066987867 0.0052658566 -0.012982904
000050 91 7c 4a bc 82 97 5a bc 6c bc 9c bb a0 e1 60 3c
       -0.0123588005 -0.013341786 -0.004783204 0.013725668
000060 32 fb 7f bb ac 67 b2 3b 06 c4 bd 38 fa 09 ca 3c
       -0.0039059636 0.0054444876 9.0487345e-05 0.02466296
000070 e3 35 a9 3d 8c 06 52 3b 80 19 63 bc 07 59 7e bc
       0.08262231 0.003204736 -0.01386106 -0.015524155
000080 1e 72 00 3c 31 3a 7a 3d 2b c8 44 bc 38 c5 5a b7
       0.007839708 0.061090652 -0.012010614 -1.3039731e-05
000090 64 a5 4d bc 52 4b 0f 3c b0 6d 3c bb a0 9b 8a 3d
       -0.012551639 0.008745985 -0.0028751902 0.06767964
0000a0 df d6 72 bc 88 79 51 3d 5a 42 13 3d 2a 1c a9 3c
       -0.014821737 0.05114129 0.03595195 0.020643312
0000b0 26 6f b9 3c ba eb 1e 3c 21 cb 5b 3c 58 3e a6 bb
       0.022636008 0.009699756 0.013415129 -0.00507335
0000c0 45 62 a3 3c d9 15 8f 3c db 2b 30 3d b7 29 88 bc
       0.01994432 0.017466472 0.043010574 -0.016621454
0000d0 42 0f 95 bb 4a bb a8 bc c2 c4 50 bc 5f f0 34 3d
       -0.004548938 -0.020597119 -0.012742223 0.04417455
0000e0 94 e5 28 3b 54 97 77 3c 69 b6 32 bc f1 1b 05 3d
       0.0025771605 0.015111763 -0.010907748 0.03249735
0000f0 0d cc 4d 3d 29 99 02 3d d6 5f c2 38 80 2e 74 3c
       0.050243426 0.031884346 9.268492e-05 0.014903665
000100 7d a4 87 bc aa 2a 4a 3c 88 57 3f 3b e3 89 58 3d
       -0.016557926 0.0123392735 0.002919646 0.052865874
000110 c5 b9 26 bc bc 01 16 3c af ec 10 3b b9 e9 5e 3c
       -0.010176127 0.009155687 0.002211373 0.0136055285
000120 9e ae 9d bc 8f 27 bd 3c ab 13 55 3c c6 7d 48 3c
       -0.019248303 0.023090152 0.0130051775 0.012237018
000130 f2 63 65 3c 83 d2 0a 3d 86 3b 87 bb d4 30 e6 3b
       0.01400088 0.033892166 -0.004126969 0.0070248637
000140 60 54 01 3d a5 02 b0 bc 1e ab 3a 3d 08 5b 7a 39
       0.031574607 -0.021485636 0.045573346 0.0002387577
000150 b8 8a bd bc 1c b4 8c bc 5f 07 0a 3d e9 99 3e 3c
       -0.023137435 -0.017175727 0.033698436 0.011633375
000160 7f 56 97 3c 80 e7 0b 3c bb 38 94 3c 6c b5 6a 3c
       0.018473862 0.008539081 0.018093457 0.014325481
000170 5c 7e 0c 3b 6c 02 64 3c 0f 67 5e 3a ea 9f 64 3c
       0.002143762 0.013916593 0.0008483985 0.013954142
000180 62 4a 34 3c ac 5e 3c 3d e2 73 17 3c bc 6d 6c bc
       0.011004062 0.045988724 0.009243937 -0.01443046
000190 5e 36 8b 3c c5 67 b5 3c fa 0e 90 bb 1f 23 87 3c
       0.016993698 0.022144208 -0.0043963166 0.01649624
0001a0 a7 d4 01 3c 88 65 3b bb ec 10 3c 3d ad 43 40 3b
       0.007924235 -0.0028594453 0.045914575 0.0029337213
0001b0 d1 b8 06 3d 2d d1 9a 3b ed 77 5e bc ef 3e 88 3c
       0.0328911 0.0047246427 -0.013578397 0.016631572
0001c0 f9 03 7e 3d bf a1 83 3d d2 2f 03 3c c2 1a 5a 3c
       0.062015507 0.06427335 0.008007007 0.013312044
0001d0 ef 13 97 bc d2 28 96 bc a1 0a 5a 3c 5b 02 b5 bc
       -0.018442122 -0.018330012 0.013308198 -0.02209585
0001e0 d6 49 75 bc 9d ce 31 bc e9 01 3c 3d c8 0b 86 3d
       -0.014971217 -0.010852483 0.04590026 0.06545216
0001f0 7a 49 29 3d 9d 0c 68 3d 54 32 96 bb 97 a9 92 3d
       0.04132984 0.056652654 -0.0045836363 0.07161253

action_model._continuous_distribution.log_sigma f4 [1, 2]
000000 5f 4d bb 3c 58 73 14 3c
       0.022864042 0.009060703

action_model._continuous_distribution.mu.weight f4 [2, 128]
000000 18 28 17 3d af bc ae bb 67 21 52 bb c0 27 6a bd
       0.03690347 -0.0053325514 -0.0032063366 -0.057166815
000010 3e ae c5 bc 9c cf 85 3c 97 b5 3f 3a 9d d5 0c 3b
       -0.024130937 0.016334347 0.0007313131 0.0021489628
000020 93 b7 f0 3c f8 96 7a 3c 91 45 02 bd 42 7a 3e bc
       0.02938441 0.015294783 -0.031804625 -0.011625828
000030 e9 44 e2 b9 90 18 03 bd 77 6b 6d bb e3 88 0d bd
       -0.0004315742 -0.032005847 -0.0036227384 -0.034554373
000040 ff 9f a9 bd 9a 06 6d 3b bd ba 72 3d ea 75 78 3c
       -0.0828247 0.0036167265 0.05926012 0.015164832
000050 cb 7c 03 3d 3b f4 d8 3c 30 bf 0f 3d b4 67 09 bd
       0.032101434 0.026483646 0.03509444 -0.033546165
000060 82 29 06 bb d6 33 ae 3b c2 4e 3b 3d 65 f4 c4 bc
       -0.0020471518 0.005316238 0.045729406 -0.024042318
000070 93 d7 e4 bd 8d af d1 3c 5a 6f 32 3d 3a 8c 79 3c
       -0.1117393 0.025596404 0.043563224 0.0152311865
000080 b1 0e 8e bc 9c 6b 3a bd 09 b3 ba 3b e4 c3 58 bc
       -0.01734099 -0.04551278 0.005697612 -0.013230298
000090 76 e1 f1 3c 33 87 0f bc 47 7a 93 bb 6b 9b b0 bd
       0.029526453 -0.008760261 -0.0045006606 -0.086233936
0000a0 fc b9 a6 3c bc 87 f5 bc 30 90 82 bd 9e 8a 0e bd
       0.020352356 -0.02997195 -0.06375158 -0.034800164
0000b0 1d 90 2d bd 32 0c 99 3d 54 b2 03 bd 8b 43 77 3d
       -0.042373765 0.07473029 -0.03215249 0.06036715
0000c0 d2 be b0 bc b1 69 70 bc 86 25 60 bc 94 9f b4 3c
       -0.021575365 -0.014673636 -0.013680821 0.022048749
0000d0 ca 9d b5 3c b0 6d 45 3c 7f b7 8f 3d e6 86 bd bd
       0.022169966 0.012050077 0.07017421 -0.092542455
0000e0 4d 7d 43 3c 28 eb bc bc b5 b2 18 3d 7a 08 41 bd
       0.0119317295 -0.02306135 0.037279803 -0.047127225
0000f0 3c 31 ff bc b6 c0 80 3b 3e 75 12 3d c8 5d cd 3a
       -0.031151406 0.003929223 0.035756342 0.0015668208
000100 31 0b 12 3d 7a 7a 40 bb cb 08 6d bb b4 a4 89 bc
       0.035655204 -0.0029369877 -0.003616857 -0.01680217
000110 a2 3d 34 3d 18 f7 ba 3d c6 5e b2 3b ba 90 73 3b
       0.04400409 0.09129161 0.005443427 0.0037165121
000120 c1 32 03 3d ba d6 36 bb af 65 eb 3b 6a 15 0d 3b
       0.032030825 -0.0027898983 0.0071837525 0.0021527656
000130 0e 52 38 3c 4c b1 04 bd 26 85 e5 3c 03 f2 86 bc
       0.011250032 -0.032395646 0.028017592 -0.016472822
000140 f1 a4 2c bd 72 8c a6 3c 9e 40 2b bd 5b 82 83 38
       -0.042149488 0.020330641 -0.04180967 6.2708474e-05
000150 ee 52 10 3d e5 56 23 3d 36 78 5a bb ae 56 ff ba
       0.035235338 0.03987779 -0.0033335811 -0.0019480789
000160 d3 dc f5 bc 8a 4b d1 3c 90 32 79 3c 65 12 f4 bc
       -0.030012524 0.025548715 0.015209809 -0.029793927
000170 6d 09 ff 3c 18 c2 da bc b2 f4 16 3c 31 6c c3 3d
       0.031132424 -0.02670388 0.009213613 0.0954212
000180 ea 0f cc 3c 29 21 fc bc 52 a7 cd 3c ad f8 09 3d
       0.024909932 -0.03077753 0.025104199 0.03368442
000190 b6 f7 97 bc 6d 97 39 3b 2b d8 20 3d 51 fc a3 bc
       -0.018550735 0.0028319017 0.039268654 -0.020017775
0001a0 75 84 32 bc f3 9e 84 ba 72 91 82 bd cc c3 97 3d
       -0.010895838 -0.0010118171 -0.06375398 0.07410392
0001b0 af ba 78 bd 9f 2e 9a 3c 89 72 4a 3d bc 13 8a bc
       -0.06072491 0.018821059 0.049425635 -0.016855113
0001c0 35 2e 3f bd ad b7 a5 bd 99 f2 e5 3a 32 31 8a bc
       -0.046674926 -0.08091674 0.0017543613 -0.016869161
0001d0 87 9a a4 3c 7c 7e c0 3c 7a da 82 3c d5 a1 76 3c
       0.020093216 0.023497812 0.015973318 0.015053232
0001e0 2a 23 af b9 a9 3a 94 3d 3d 56 c9 bc a9 cc 6f bd
       -0.000334048 0.07237751 -0.024577254 -0.05854479
0001f0 5c 89 8a bc a8 fe 7a bd 6b d2 71 3c 7e 27 d2 bd
       -0.016911201 -0.061278015 0.01475964 -0.10261439
000200 d5 d2 45 bd 11 32 c2 3c c1 ad b1 bc 40 1a 38 3c
       -0.04829677 0.023705514 -0.021689298 0.011236727
000210 64 80 40 bd 19 ed 3f bd f3 87 2d 3b 46 85 93 bc
       -0.046997443 -0.046856973 0.0026478737 -0.018007886
000220 45 12 61 3b 8a 19 33 3d 33 16 11 bd 15 78 c5 3c
       0.0034343165 0.043725528 -0.03542156 0.024105111
000230 e2 df 3e 3d 1c 61 51 3d 6f 70 97 3c d5 ee c7 bc
       0.04660023 0.051118 0.01848623 -0.024405876
000240 ab cf 34 bc 2d 2d d1 bc 36 2b d8 bc 74 56 bb bc
       -0.01103584 -0.025534237 -0.026387792 -0.022868372
000250 a6 10 bc 3c 15 7d 27 3d ed 22 99 bc d9 53 91 bd
       0.022957157 0.040890772 -0.018693412 -0.07096071
000260 83 df 3e ba a9 62 cb bc 74 1a af bc 1b 55 94 bc
       -0.00072812306 -0.024827318 -0.021374919 -0.018106988
000270 2a d8 48 bc 83 67 1f bd 5e 51 82 bc 2e 94 eb 3c
       -0.012258569 -0.038917076 -0.01590794 0.028757181
000280 f1 e1 13 3a 0f d1 bd 3c b1 37 7d 3c 06 ed 55 3b
       0.0005641273 0.023170976 0.015455172 0.0032642498
000290 a9 cd 67 3c 5c c2 86 3c 8d f7 ca 3b ce e4 1b 3d
       0.014148154 0.0164501 0.006194061 0.038060002
0002a0 a3 f7 1d 3b 9e f6 e1 3c 4c d9 c7 bc 73 8d 42 37
       0.0024103902 0.027583417 -0.024395607 1.1596235e-05
0002b0 39 5a a2 3c fd c2 5d bc 6c af 0f bc 5e 02 62 3d
       0.019818412 -0.013535258 -0.008769851 0.05517804
0002c0 1c 4a 96 3c 51 bd 44 bd ef eb 55 bd 19 c6 05 bc
       0.018345885 -0.04803211 -0.052226957 -0.008164906
0002d0 54 37 c9 3c 18 6c 9f ba b7 ca 12 3c dc 0d 2a bd
       0.024562515 -0.0012162952 0.008959464 -0.041517124
0002e0 e3 39 0f bd 4f ea 81 3c 0b 18 a4 39 74 33 3e bc
       -0.034967314 0.015858797 0.0003129843 -0.011608947
0002f0 c9 d6 ea bc 2b 16 8a bd 75 5a ef bc f7 34 7a 3d
       -0.02866687 -0.067425095 -0.029217938 0.061085667
000300 95 1b 16 3b 6d 45 21 3d 5e 97 12 3c 3d ba e1 bc
       0.0022904624 0.03937285 0.008947222 -0.027554626
000310 81 15 c9 ba c6 95 9e ba cb 78 ed 3c 5b 72 ef bc
       -0.0015341492 -0.0012099079 0.028988263 -0.029229334
000320 4a 18 34 3c 44 ad c9 3c a6 3f 70 bd 49 e0 b5 bc
       0.010992119 0.024618752 -0.05865445 -0.022201674
000330 8d 54 ea 3c c0 34 ef 3c b6 f0 c7 3c 95 8e 33 3d
       0.02860477 0.029199958 0.024406772 0.04383715
000340 80 d1 7c bc eb 92 fa 3b b7 b4 0b 3b 79 c1 31 3d
       -0.015430808 0.0076469085 0.0021317431 0.0433974
000350 0c 1e 8e 3c 47 dc da 3a 43 b6 85 3d 70 f1 0d bd
       0.017348312 0.0016697728 0.06528904 -0.03465408
000360 eb f7 69 3d ee 08 5f bd 9d d5 f0 3c dc dd 07 bd
       0.0571212 -0.054451875 0.029398734 -0.033170566
000370 7c 9e 17 bd 5a 86 53 3b 6b 8d 95 bc ce 46 10 bc
       -0.037016377 0.0032276125 -0.01825591 -0.008805944
000380 74 01 73 3d d0 87 65 3d 65 d8 79 bd 8e cf fe b8
       0.059327558 0.056037724 -0.060997386 -0.00012150324
000390 9d 3f 42 3b ca e8 68 3d 19 53 ba bc ab 39 9e bc
       0.0029639967 0.05686263 -0.022744702 -0.019314608
0003a0 98 fc bc 3b c9 74 cd ba 48 f1 c6 bb e3 66 cb bb
       0.005767416 -0.0015675063 -0.0060712434 -0.0062073334
0003b0 d1 6f ce 3c 3e ad 30 bd 78 1a 2c bd b5 fe b8 bc
       0.025199803 -0.043133967 -0.04201743 -0.022582391
0003c0 eb 63 30 bd e4 f1 ed 3b a0 98 78 3d 66 bb 9d 3c
       -0.04306404 0.0072615016 0.06069243 0.019254398
0003d0 46 da 96 ba 76 c4 a5 bb ee 0e 58 3d 88 bf aa 3c
       -0.0011509142 -0.0050588204 0.052748613 0.020843282
0003e0 1c 0f e9 3a 8f b8 dd bb fe 44 85 3c 77 0b ee 3b
       0.0017780992 -0.006766386 0.01626825 0.0072645503
0003f0 89 1d a3 bd 44 d1 8e bc 97 52 73 bd d5 93 02 bd
       -0.07964618 -0.01743377 -0.059404936 -0.031879265

action_model._continuous_distribution.mu.bias f4 [2]
000000 02 fb bc bc cc 62 d3 ba
       -0.023068909 -0.0016127466

action_model._discrete_distribution.branches.0.weight f4 [1, 128]
000000 0f cf 6e bc 60 99 ec bb 38 16 3e 3b 1a 79 66 3b
       -0.014575734 -0.007220432 0.0029004943 0.0035167397
000010 cb ba 00 bb f2 73 28 bc 7e dc 9d 3b 27 e9 e1 3b
       -0.0019642587 -0.01028155 0.0048175445 0.006894249
000020 3a 2b da 3b 37 ff a1 3b c5 7e d3 39 a8 4a 26 3c
       0.006657985 0.004943754 0.00040339507 0.010149635
000030 d7 cb d5 bb a4 5d 0d bc cb ff 04 bc 2d 46 05 bb
       -0.0065245437 -0.008628283 -0.008117626 -0.0020336017
000040 ce 32 05 3c 9f 7a 6d 3b d3 b6 43 bc 04 7e 3d 3b
       0.008129789 0.0036236418 -0.011945444 0.0028914222
000050 e5 1f 69 bb 63 b1 65 3b 9b 1a a6 bb bd e1 23 bb
       -0.003557199 0.0035048358 -0.0050690896 -0.0025006377
000060 2b a0 e2 3b 4a d0 63 bc 03 7f 54 bc 4f fa 4c 3c
       0.006916066 -0.01390464 -0.012969735 0.01251085
000070 a5 c5 50 bc 53 41 06 bb e3 00 88 3b c4 c8 34 bc
       -0.012742435 -0.0020485714 0.0041504963 -0.011034194
000080 cf ca 1d bb 86 ba b4 bb f0 df 8a bc fc a3 cc 3b
       -0.0024077182 -0.0055153994 -0.016952485 0.0062451344
000090 a0 ba 70 bb b7 3c 2e bb 4b 22 20 bc 00 43 a7 3a
       -0.003673233 -0.0026586482 -0.009773801 0.0012761056
0000a0 90 fb cd bc 70 e6 e2 bb 48 ae 60 3c f2 80 57 3c
       -0.025144368 -0.006924443 0.013713427 0.013153302
0000b0 ce 83 bd 3c e5 7d 71 3b 7f f2 47 3c b3 bf da ba
       0.023134138 0.003684872 0.012203812 -0.0016689211
0000c0 d8 f6 6f 3b cc 36 8a bc 12 5d b4 bb 95 35 57 3c
       0.0036615636 -0.016871832 -0.005504259 0.013135334
0000d0 2e 11 31 3b d3 9e 3c ba 1a bf 0a 3c dd 7b ec 3b
       0.0027018297 -0.00071952975 0.008468414 0.007216914
0000e0 7c b4 b4 bb fd e9 dc 3a ad 9f ef bb a0 28 d5 3a
       -0.0055146795 0.0016854402 -0.007312736 0.0016262718
0000f0 cb f7 d6 3b 04 75 bb bc da d5 f3 3a ce 22 82 3c
       0.006560301 -0.022882946 0.0018603161 0.015885737
000100 5f 2b 93 ba 8a 4f 23 bb 16 93 10 bc d1 59 11 3a
       -0.0011228136 -0.0024919235 -0.0088241305 0.0005544695
000110 ae e8 18 bb 10 22 69 bb fb 9f 8f bb 8a 2d e8 bb
       -0.0023332047 -0.0035573281 -0.004383085 -0.007085507
000120 cf 60 4d 3c 9b 81 af bc ea 16 36 3c fa 43 e3 bb
       0.012535288 -0.021424105 0.011113862 -0.0069355937
000130 4c 81 b5 bb 77 f9 0d bb f7 e1 1d 3c b7 55 2d ba
       -0.005539095 -0.0021663585 0.009636394 -0.0006612199
000140 8a e8 8d bb 17 4e 8f bc fa ee 6d 3b 22 bb 21 bc
       -0.0043306993 -0.01749329 0.0036305771 -0.009871276
000150 7e 92 c8 3b da cf e7 bb 05 90 76 3b f5 be 8c bc
       0.006120979 -0.0070743384 0.0037622463 -0.0171809
000160 6b 70 c0 3b bf f3 00 bc 83 f9 f0 3b af 8c b9 3b
       0.0058727763 -0.007870614 0.007353963 0.0056625227
000170 c0 91 52 bb c7 bf b2 bc e9 b9 96 3b bd 89 df 3b
       -0.003213033 -0.021819962 0.004599799 0.0068218396
000180 80 53 0c 3c e2 bc db bb c2 f3 d8 bb 3b 20 cd bb
       0.00856483 -0.006705866 -0.006620855 -0.0062599457
000190 27 8d 03 bc e0 24 63 bb a3 35 ab 3a 39 bf 36 3b
       -0.008029259 -0.003465943 0.001306225 0.0027884974
0001a0 e1 75 4c 3b d6 07 97 3b 98 dc 72 bc e1 05 c5 3a
       0.003119819 0.0046090884 -0.014823101 0.0015031659
0001b0 e3 e5 ac bb ff dd 9b bb 08 9f e6 bc ee 30 ba bb
       -0.005276428 -0.0047566886 -0.028152004 -0.0056821024
0001c0 eb fb 50 3c 7e 1e af 3b f7 9e 63 3c 08 b9 ef 3b
       0.012755374 0.005344211 0.013892881 0.0073157586
0001d0 92 1e 34 3a 7f 33 74 3c ef f6 18 3c a7 3c 9f b9
       0.00068710104 0.014904856 0.009336217 -0.00030372033
0001e0 7f e0 ff 3b 2f 32 84 bc 4e 24 8b bb 53 15 2b 3c
       0.0078087444 -0.01613721 -0.004246271 0.010442096
0001f0 c3 62 da b9 cb 54 af bb ff 73 c3 3b a5 76 51 bc
       -0.00041653783 -0.0053506843 0.0059647555 -0.012784635

exp_avg f4 [128, 6]
000000 04 44 cb 39 00 00 00 00 de a2 8d 38 fd fc 94 39
       0.00038769853 0.0 6.75374e-05 0.0002841725
000010 9f e2 16 b9 f8 08 73 39 5e c6 75 b9 00 00 00 00
       -0.00014389538 0.00023177627 -0.00023438918 0.0
000020 29 f3 a2 b7 23 e9 73 b9 c4 7c c5 38 05 f6 d0 b8
       -1.9425135e-05 -0.00023261136 9.4169314e-05 -9.9640376e-05
000030 ef 32 b3 3a 00 00 00 00 bd 86 11 39 14 59 76 3a
       0.0013671796 0.0 0.00013878472 0.0009397429
000040 39 13 fe b9 07 82 33 3a ef 90 e2 39 00 00 00 00
       -0.00048460977 0.00068476837 0.00043214063 0.0
000050 80 58 92 b8 a0 1d 21 ba 3a bd 19 b9 ff b1 c0 b9
       -6.978307e-05 -0.0006146077 -0.0001466171 -0.0003675371
000060 d8 68 52 b9 00 00 00 00 18 04 0c b7 07 82 4d b9
       -0.00020066218 0.0 -8.345603e-06 -0.00019598762
000070 4e e2 af 38 b6 d0 64 b8 ab ec c3 39 00 00 00 00
       8.386803e-05 -5.4553813e-05 0.0003736963 0.0
000080 77 d6 a0 b8 cd a1 37 ba 81 d7 13 b9 a0 b9 cd b9
       -7.669342e-05 -0.0007005006 -0.00014099294 -0.00039238948
000090 39 11 10 3a 00 00 00 00 cc 23 a7 38 88 33 27 3a
       0.00054957304 0.0 7.969848e-05 0.0006378223
0000a0 80 d4 5d b9 86 21 f0 39 2e 08 d5 b9 00 00 00 00
       -0.00021155365 0.00045801344 -0.0004063262 0.0
0000b0 fd 19 f0 b7 ca 42 e6 b8 97 cc 3c 39 f6 87 6b b8
       -2.8622331e-05 -0.00010979695 0.00018005293 -5.615499e-05
0000c0 e5 18 c5 36 00 00 00 00 12 5b 8a b8 5c ab b2 b9
       5.8739556e-06 0.0 -6.597316e-05 -0.00034078478
0000d0 48 1b 1e 38 3a 74 b4 b9 0c 14 ff b9 00 00 00 00
       3.7695543e-05 -0.0003441887 -0.00048652326 0.0
0000e0 64 e3 2a b8 d5 b4 95 b9 90 1e 38 39 22 b1 4d b9
       -4.0742932e-05 -0.00028554225 0.00017558993 -0.0001961631
0000f0 f5 0f 9a 39 00 00 00 00 51 2a 82 38 78 59 f4 39
       0.00029385058 0.0 6.206765e-05 0.00046605966
000100 54 c0 45 b8 cd da 88 39 7d e7 7e 38 00 00 00 00
       -4.714758e-05 0.0002610296 6.077391e-05 0.0
000110 a9 c8 4b 37 85 ab 38 38 85 be 00 b8 cc 40 5c 38
       1.2146463e-05 4.402876e-05 -3.0695013e-05 5.2512434e-05
000120 aa 88 81 39 00 00 00 00 d8 c2 8c 38 c9 92 ae 39
       0.0002470662 0.0 6.712013e-05 0.0003329723
000130 c5 13 6b b8 25 a3 73 39 3f 3d 4b 38 00 00 00 00
       -5.6046778e-05 0.00023235062 4.845601e-05 0.0
000140 b3 40 1a b7 de 96 d6 b8 84 9e 9e b7 d0 23 5f b8
       -9.194179e-06 -0.000102324164 -1.8908882e-05 -5.3200696e-05
000150 0a 28 e5 37 00 00 00 00 01 20 a9 36 ea 0a 71 b7
       2.7317572e-05 0.0 5.0403182e-06 -1.43672605e-05
000160 13 02 26 b7 33 d3 0d b7 e0 d5 bf 36 00 00 00 00
       -9.894854e-06 -8.453429e-06 5.717142e-06 0.0
000170 57 a4 3f b6 a5 95 f4 b6 de d4 91 36 67 bd c8 b7
       -2.8556876e-06 -7.2891876e-06 4.3461177e-06 -2.3930055e-05
000180 cb d7 dd b9 00 00 00 00 58 15 9a b8 54 d9 12 ba
       -0.00042313183 0.0 -7.347268e-05 -0.00056018424
000190 5d 9a 0f 39 74 a8 ac b9 bc 84 75 ba 00 00 00 00
       0.00013695048 -0.00032931904 -0.0009365787 0.0
0001a0 c0 b5 aa b8 c7 65 53 ba 1b ea 99 39 4d 32 bb b9
       -8.140085e-05 -0.0008064177 0.00029356856 -0.00035704896
0001b0 44 58 33 ba 00 00 00 00 db e2 a4 b8 00 8f f6 b9
       -0.00068414607 0.0 -7.8623845e-05 -0.0004702732
0001c0 a6 87 8f 39 6a 63 9a b9 44 46 08 ba 00 00 00 00
       0.0002737615 -0.00029447238 -0.00051984587 0.0
0001d0 cd 00 e8 b7 f8 da c5 b9 8d 07 08 39 57 7a 1b b9
       -2.7656928e-05 -0.00037737912 0.00012972784 -0.00014827527
0001e0 92 c3 3b b8 00 00 00 00 78 86 fb b5 1c ca 88 39
       -4.4766413e-05 0.0 -1.8740093e-06 0.00026090525
0001f0 20 fe be 37 bd 13 3f 38 41 cf 06 3a 00 00 00 00
       2.2768101e-05 4.555633e-05 0.00051425776 0.0
000200 ec 7b bb 37 82 75 1c 3a 04 7a 0b b9 b0 82 45 39
       2.2349843e-05 0.0005968438 -0.00013301527 0.00018836069
000210 5f 85 ca 39 00 00 00 00 ed 4d e3 37 9f 8c fe 39
       0.00038627812 0.0 2.7096796e-05 0.00048551426
000220 fa 77 ca b8 80 c6 35 39 75 62 e4 39 00 00 00 00
       -9.654458e-05 0.00017335452 0.00043560905 0.0
000230 f1 08 a3 36 4b 7c e1 39 22 f3 fd b8 31 79 e7 38
       4.8588195e-06 0.0004300795 -0.00012109267 0.00011037512
000240 55 24 f7 b8 00 00 00 00 4c 92 4d b8 09 12 10 ba
       -0.00011784645 0.0 -4.901206e-05 -0.00054958515
000250 77 e2 7c 38 1c a1 ae b9 44 bc bc b7 00 00 00 00
       6.0292394e-05 -0.00033307902 -2.2499014e-05 0.0
000260 cf e1 2e b6 18 96 a5 37 5a 3a 40 37 4e c3 01 37
       -2.6059458e-06 1.9739426e-05 1.1457678e-05 7.734472e-06
000270 a6 f1 6b b9 00 00 00 00 f6 dc 8e b8 88 93 ee b8
       -0.00022501367 0.0 -6.812245e-05 -0.00011376204
000280 2d a0 0a 39 08 d0 34 b9 50 64 28 b9 00 00 00 00
       0.00013220376 -0.00017243635 -0.00016059098 0.0
000290 9c 2a cf 36 8a 63 37 38 24 25 ce 38 32 ca a5 37
       6.174041e-06 4.3723303e-05 9.8297634e-05 1.9763687e-05
0002a0 ad 85 2f ba 00 00 00 00 59 88 44 b8 b6 da dc b9
       -0.00066956395 0.0 -4.6857025e-05 -0.00042124622
0002b0 bf 9a 4f 39 6f c5 7d b9 79 d8 b8 39 00 00 00 00
       0.00019798706 -0.0002420151 0.000352565 0.0
0002c0 43 00 c4 b8 e8 7c 60 b9 4e eb 00 b9 71 22 5d b9
       -9.346057e-05 -0.00021408836 -0.00012294689 -0.00021089033
0002d0 e4 e6 18 b8 00 00 00 00 c9 6d 05 b8 74 43 6a b8
       -3.6454658e-05 0.0 -3.1811916e-05 -5.5852768e-05
0002e0 05 b0 ca 37 e5 55 ba b8 3a 87 14 b9 00 00 00 00
       2.4162242e-05 -8.88517e-05 -0.00014164756 0.0
0002f0 e0 09 1c b8 ac 69 6b b8 9c 10 aa 38 96 29 02 b9
       -3.7202495e-05 -5.612678e-05 8.1093254e-05 -0.00012413258
000300 57 b0 93 b9 00 00 00 00 4b 1b a7 b7 cf 52 ad b8
       -0.00028169408 0.0 -1.992066e-05 -8.264707e-05
000310 30 73 b8 38 5e 7d b4 b8 74 dc 7e 38 00 00 00 00
       8.795259e-05 -8.60642e-05 6.0763632e-05 0.0
000320 1e e1 af 36 b8 b0 ad b8 e2 ea 64 b8 31 2f e6 37
       5.2416135e-06 -8.282199e-05 -5.4578188e-05 2.7440112e-05
000330 b8 66 d7 38 00 00 00 00 1f 4e 50 38 4e 07 e4 37
       0.00010271132 0.0 4.966382e-05 2.718312e-05
000340 8c 33 9e b8 f1 a7 e4 38 e7 83 20 39 00 00 00 00
       -7.5436285e-05 0.00010903169 0.00015307927 0.0
000350 78 ba 42 b8 b7 17 f3 38 03 9f 2b b8 75 76 a2 b8
       -4.6426867e-05 0.0001159156 -4.091767e-05 -7.746826e-05
000360 25 83 00 3a 00 00 00 00 64 f2 bf 37 d4 fb 14 3a
       0.00049023546 0.0 2.2881846e-05 0.0005683277
000370 5c fc 34 b9 74 7d bd 39 86 0a 1c b9 00 00 00 00
       -0.00017260149 0.0003614236 -0.0001488124 0.0
000380 41 2c 97 b8 6e fb 93 b9 3a f0 f6 38 0a 92 da b9
       -7.208484e-05 -0.00028225355 0.0001177494 -0.00041689008
000390 3f 83 86 b6 00 00 00 00 77 50 0f b8 50 9b 8e b8
       -4.0087903e-06 0.0 -3.4168796e-05 -6.800017e-05
0003a0 39 2f 1b 38 dc 6e fd b8 8f bc 16 3a 00 00 00 00
       3.699886e-05 -0.00012084629 0.00057501433 0.0
0003b0 71 4d ad 38 dd 86 fd 39 56 74 5e b9 a9 e7 d6 39
       8.2637074e-05 0.000483564 -0.00021214908 0.0004098986
0003c0 8b d3 98 39 00 00 00 00 6c fa cf b7 70 65 ab 39
       0.0002914931 0.0 -2.4792935e-05 0.00032691238
0003d0 2d fc ac b8 e3 91 78 37 34 b7 4f 39 00 00 00 00
       -8.2485705e-05 1.4815919e-05 0.00019809307 0.0
0003e0 ea 9f 27 b8 e9 46 d4 b9 fe de de b8 35 73 14 b9
       -3.9964834e-05 -0.00040488623 -0.000106273204 -0.00014157298
0003f0 81 cb 24 ba 00 00 00 00 e0 64 3e b8 95 35 12 ba
       -0.0006286428 0.0 -4.5393477e-05 -0.00055774424

exp_avg_sq f4 [128, 6]
000000 43 ee a8 34 00 00 00 00 36 a7 39 32 f6 f3 b0 34
       3.1465797e-07 0.0 1.0806437e-08 3.296006e-07
000010 e3 53 53 32 cc 5b 88 33 cb 1d 69 35 00 00 00 00
       1.230089e-08 6.349691e-08 8.684262e-07 0.0
000020 19 47 ba 32 d2 63 77 35 7d d3 ee 32 32 74 23 34
       2.1685581e-08 9.215993e-07 2.780302e-08 1.522283e-07
000030 d1 e3 dc 35 00 00 00 00 1f 26 31 33 3f fe eb 35
       1.6457581e-06 0.0 4.1245695e-08 1.758286e-06
000040 39 08 96 33 3b 26 c7 34 0f 97 0e 34 00 00 00 00
       6.986415e-08 3.7094455e-07 1.3279735e-07 0.0
000050 2f b9 22 32 c2 84 81 34 e9 1a b5 32 46 4d dd 33
       9.471747e-09 2.4124716e-07 2.108341e-08 1.03051704e-07
000060 ca e4 98 34 00 00 00 00 76 b2 34 32 c3 55 9c 34
       2.8478672e-07 0.0 1.0517956e-08 2.9119664e-07
000070 c1 89 1b 32 36 4b ae 33 8d 81 2b 34 00 00 00 00
       9.053509e-09 8.116187e-08 1.5972746e-07 0.0
000080 f0 da 4b 32 0b 87 c6 34 69 68 d7 32 31 4e f6 33
       1.1865936e-08 3.697863e-07 2.5076774e-08 1.14694906e-07
000090 cd 59 65 35 00 00 00 00 08 70 cb 32 20 71 7f 35
       8.5439825e-07 0.0 2.3683256e-08 9.515952e-07
0000a0 a0 6c 1a 33 99 b9 39 34 03 5c 09 36 00 00 00 00
       3.5954713e-08 1.7296988e-07 2.0468149e-06 0.0
0000b0 d0 97 2f 33 80 83 0f 36 2e 34 84 33 7d c8 b4 34
       4.0883435e-08 2.1385204e-06 6.1562204e-08 3.3673487e-07
0000c0 f3 a7 9e 33 00 00 00 00 f6 83 dd 31 58 93 28 34
       7.387998e-08 0.0 6.4469488e-09 1.5699823e-07
0000d0 b4 21 6d 32 d6 43 6e 33 ca e3 cf 34 00 00 00 00
       1.3802879e-08 5.547539e-08 3.8722493e-07 0.0
0000e0 bf db 2c 32 0b 53 d1 34 60 8d 6d 32 4a f6 a5 33
       1.0061682e-08 3.8989705e-07 1.3827361e-08 7.728211e-08
0000f0 b9 16 4c 36 00 00 00 00 d7 fb 87 33 5c dc 59 36
       3.0411595e-06 0.0 6.332237e-08 3.2463786e-06
000100 27 2b a5 33 d8 e6 08 35 35 12 9c 32 00 00 00 00
       7.6912606e-08 5.099987e-07 1.816907e-08 0.0
000110 06 a5 85 30 f8 41 aa 32 cb 0a ad 30 d9 5b c1 31
       9.723926e-10 1.9820604e-08 1.2590474e-09 5.627481e-09
000120 b3 e7 8e 35 00 00 00 00 6e 28 b8 32 a1 e3 a8 35
       1.0647258e-06 0.0 2.1438805e-08 1.2583224e-06
000130 70 b5 00 33 79 4f 3f 34 93 a6 40 32 00 00 00 00
       2.996734e-08 1.7817173e-07 1.12137455e-08 0.0
000140 13 83 c5 30 12 91 3b 32 de ce 08 31 2b 11 29 32
       1.437089e-09 1.0917818e-08 1.9908195e-09 9.840998e-09
000150 02 c1 de 31 00 00 00 00 ac 5b 3f 30 0b e9 0d 32
       6.482993e-09 0.0 6.961567e-10 8.260268e-09
000160 5f ff 77 30 3b 98 88 31 de 68 87 31 00 00 00 00
       9.022098e-10 3.9754275e-09 3.940939e-09 0.0
000170 de f6 6c 30 04 99 bd 31 6e d4 17 30 b0 18 64 31
       8.620712e-10 5.51802e-09 5.523536e-10 3.31924e-09
000180 7f bf b6 34 00 00 00 00 a6 d5 2e 32 e3 77 cc 34
       3.4039473e-07 0.0 1.0176711e-08 3.808519e-07
000190 34 da 8e 32 09 35 b6 33 b6 28 d9 35 00 00 00 00
       1.6630203e-08 8.4846825e-08 1.6179608e-06 0.0
0001a0 e7 82 25 33 50 ee e5 35 ef 3c 50 33 42 b8 a1 34
       3.853611e-08 1.7131188e-06 4.8484193e-08 3.0122652e-07
0001b0 2f c1 b9 35 00 00 00 00 f3 b0 14 33 07 79 c5 35
       1.3839798e-06 0.0 3.461987e-08 1.4712867e-06
0001c0 1b 7e 55 33 27 17 84 34 65 f7 b5 35 00 00 00 00
       4.970762e-08 2.4603762e-07 1.3557552e-06 0.0
0001d0 95 f4 02 33 1e e9 c2 35 98 02 2b 33 62 53 86 34
       3.049043e-08 1.4521972e-06 3.98164e-08 2.5020114e-07
0001e0 03 38 90 33 00 00 00 00 25 e6 65 31 ec aa b5 33
       6.715711e-08 0.0 3.3454708e-09 8.45956e-08
0001f0 f5 0d 6f 31 d3 ae bf 32 a0 7f 0b 35 00 00 00 00
       3.478701e-09 2.2314827e-08 5.1967254e-07 0.0
000200 d2 90 68 32 74 48 15 35 bb 42 87 32 86 b8 d2 33
       1.3537106e-08 5.561226e-07 1.5746414e-08 9.812452e-08
000210 2c 33 1f 35 00 00 00 00 98 55 77 32 ca 1c 2d 35
       5.930658e-07 0.0 1.4396754e-08 6.4489416e-07
000220 e4 cf 91 32 e2 49 fe 33 21 34 13 35 00 00 00 00
       1.697476e-08 1.1841236e-07 5.4837625e-07 0.0
000230 63 8e 6d 32 2d e0 19 35 a9 fb 91 32 35 22 d4 33
       1.3827591e-08 5.732316e-07 1.6994663e-08 9.8782415e-08
000240 66 e7 48 34 00 00 00 00 a9 c0 07 32 4d 0f 81 34
       1.8710634e-07 0.0 7.90184e-09 2.4039255e-07
000250 cd 8a 80 32 a8 ca 9d 33 c6 4e cf 33 00 00 00 00
       1.496428e-08 7.347745e-08 9.6535175e-08 0.0
000260 81 38 77 31 43 20 df 33 44 81 3b 31 90 c6 9a 32
       3.597535e-09 1.0390115e-07 2.728556e-09 1.8018255e-08
000270 b8 09 13 34 00 00 00 00 4a d9 7e 32 e8 19 28 34
       1.3693978e-07 0.0 1.4834152e-08 1.5655644e-07
000280 53 2b 21 32 da fa 93 33 af b7 ad 35 00 00 00 00
       9.381284e-09 6.8908506e-08 1.2942963e-06 0.0
000290 2a ab e1 32 c3 4b ba 35 de ec 1a 33 eb 2e 63 34
       2.6271284e-08 1.388013e-06 3.607135e-08 2.1158091e-07
0002a0 1f 9c 82 35 00 00 00 00 3d 27 c6 32 00 60 89 35
       9.731192e-07 0.0 2.3068077e-08 1.0235235e-06
0002b0 72 aa f8 32 f5 ff 3f 34 28 d1 89 34 00 00 00 00
       2.894851e-08 1.7881378e-07 2.567042e-07 0.0
0002c0 ce 7a 8b 32 ce 94 a2 34 be e4 b1 32 e1 e9 09 34
       1.6237575e-08 3.028312e-07 2.0709532e-08 1.2844204e-07
0002d0 38 e4 68 34 00 00 00 00 94 bc f8 31 16 29 5c 34
       2.1689709e-07 0.0 7.239189e-09 2.0504044e-07
0002e0 4a 5d 43 32 80 74 69 33 d5 54 a7 33 00 00 00 00
       1.1371705e-08 5.4355496e-08 7.791974e-08 0.0
0002f0 ce ac 5c 31 48 10 a9 33 84 fb 86 31 47 0a bf 32
       3.2112442e-09 7.872637e-08 3.9285073e-09 2.224e-08
000300 da 0a df 34 00 00 00 00 43 f6 1c 32 2c a6 ea 34
       4.1544882e-07 0.0 9.1363885e-09 4.3706802e-07
000310 6d 5b 43 32 b9 8f a6 33 77 cb 4a 32 00 00 00 00
       1.1371282e-08 7.7561204e-08 1.180421e-08 0.0
000320 6c 38 8f 30 56 d7 e3 32 d1 97 0f 31 a9 b0 08 32
       1.0420655e-09 2.6524202e-08 2.0895536e-09 7.95641e-09
000330 4b 99 df 31 00 00 00 00 e2 2e e0 30 4d c1 16 32
       6.5075816e-09 0.0 1.631147e-09 8.775101e-09
000340 58 dc ec 30 69 5b 01 32 74 1a bb 34 00 00 00 00
       1.7233885e-09 7.5295725e-09 3.4850711e-07 0.0
000350 46 c0 8d 32 d2 4a c9 34 47 ba 8a 32 df 6a 05 34
       1.6501996e-08 3.7493606e-07 1.6150024e-08 1.242547e-07
000360 27 6e 3a 35 00 00 00 00 e6 76 b2 32 b6 1c 56 35
       6.945069e-07 0.0 2.0775996e-08 7.976299e-07
000370 59 e3 0d 33 ab 75 25 34 6a aa c5 33 00 00 00 00
       3.3035892e-08 1.540963e-07 9.2045255e-08 0.0
000380 8d f6 2d 32 06 89 4e 34 b4 d1 94 32 d2 56 a1 33
       1.01259845e-08 1.9235094e-07 1.732483e-08 7.512939e-08
000390 68 84 2d 32 00 00 00 00 c9 25 91 30 8f d9 5b 32
       1.0100031e-08 0.0 1.0560878e-09 1.2796945e-08
0003a0 f2 db ee 30 bf e8 ff 31 f7 82 d0 34 00 00 00 00
       1.7379291e-09 7.447937e-09 3.8838309e-07 0.0
0003b0 64 fb 48 32 42 be f1 34 1f 62 99 32 78 dc ba 33
       1.1698692e-08 4.502818e-07 1.7856165e-08 8.701403e-08
0003c0 0e 17 dd 34 00 00 00 00 dc fd 39 32 e2 92 e4 34
       4.1181232e-07 0.0 1.0826138e-08 4.257518e-07
0003d0 32 a9 8a 32 77 a8 b9 33 6e e6 a1 33 00 00 00 00
       1.6142256e-08 8.6453774e-08 7.5390616e-08 0.0
0003e0 dc 48 f4 31 1b e2 2c 34 19 a6 76 32 56 8a 74 33
       7.109618e-09 1.6101005e-07 1.4356851e-08 5.6936493e-08
0003f0 10 16 bd 35 00 00 00 00 24 01 1b 33 7a bc bd 35
       1.4088018e-06 0.0 3.6089787e-08 1.4136451e-06

exp_avg f4 [128]
000000 0d 54 97 b9 95 aa 46 39 8d 66 7e ba b3 8c 99 b9
       -0.00028863587 0.00018946298 -0.00097046123 -0.00029287263
000010 ff 7f 2f 39 fd a8 93 b9 f2 9d de b9 19 e0 bd 39
       0.00016736983 -0.0002816393 -0.00042460818 0.00036215855
000020 c7 4a a0 38 a6 63 b8 39 fc 77 c2 b8 43 68 81 b8
       7.643323e-05 0.0003516946 -9.27299e-05 -6.1706196e-05
000030 e5 c9 e9 b8 27 82 1e b8 6b e3 a5 b7 f2 df 10 37
       -0.000111479116 -3.779135e-05 -1.9775433e-05 8.63521e-06
000040 2c f6 8f 39 ea 18 1a 3a 90 e6 0f 3a b0 90 87 39
       0.00027458498 0.0005878346 0.00054893736 0.00025857007
000050 61 10 3e 38 df a5 8b b9 5f 7e 4a b9 7d 8c 7e b9
       4.5314784e-05 -0.0002663573 -0.00019311298 -0.00024275664
000060 ea 8a fe 38 f0 e2 c2 37 06 28 8b 39 e6 8c 4f 39
       0.000121375386 2.3232278e-05 0.00026541966 0.00019793547
000070 61 98 cf 39 63 cd 80 b9 62 1e 48 38 94 d7 2a 39
       0.00039595648 -0.00024567088 4.7712012e-05 0.00016292772
000080 c4 f9 37 39 23 35 e5 b8 fa c9 1e b9 60 68 ab b8
       0.00017545285 -0.000109294684 -0.00015143296 -8.173357e-05
000090 06 d2 b5 b9 46 10 78 39 18 cb 9b 38 70 cd de b9
       -0.0003467949 0.00023657185 7.428805e-05 -0.00042496203
0000a0 e8 6c 2d b9 e6 ab 5e b9 e8 78 db 39 96 f3 d2 b9
       -0.00016539136 -0.00021235607 0.00041861017 -0.00040235807
0000b0 b2 e4 d9 b8 ca 8c 80 b7 20 47 94 38 cf c7 2b 3a
       -0.00010389964 -1.5324349e-05 7.070438e-05 0.0006552906
0000c0 73 dc a7 b8 7e 55 96 3a 59 29 23 b9 17 57 c2 b9
       -8.0042424e-05 0.001146957 -0.00015560295 -0.0003706745
0000d0 7f a4 5c b7 2a 98 9e 37 50 95 3e b8 99 7c 85 39
       -1.3151322e-05 1.8905925e-05 -4.5438588e-05 0.0002546057
0000e0 47 b1 af 39 0c f7 03 b9 c4 cc 8f 38 2e 0a bc b7
       0.00033510683 -0.00012585166 6.856912e-05 -2.2416087e-05
0000f0 9a c5 d9 b9 5d fc d9 39 9a 48 bc b8 29 8e af b6
       -0.0004153669 0.0004157749 -8.978062e-05 -5.231956e-06
000100 20 1f d8 38 53 91 12 37 b5 00 cf 39 cd 90 50 b9
       0.0001030548 8.736114e-06 0.00039482643 -0.00019890368
000110 84 99 12 ba ea 4e cc 38 b6 9d 8f b9 25 0b f6 b8
       -0.00055923336 9.742177e-05 -0.0002739259 -0.0001173227
000120 a7 a0 a8 38 c0 d4 8d 36 8e 29 d7 38 95 81 45 b9
       8.040788e-05 4.226895e-06 0.00010259739 -0.00018835657
000130 ab 16 8e b9 3d 59 12 39 0c 0e 66 ba da fe a4 b9
       -0.0002710124 0.00013956889 -0.0008775897 -0.00031470397
000140 f7 82 d1 39 a4 54 bd 39 00 b4 3d b9 88 69 f3 39
       0.00039961163 0.0003611195 -0.000180915 0.000464272
000150 32 f4 cc 39 f0 3c 23 ba 9e 94 d6 39 de 13 03 3a
       0.00039091852 -0.0006227037 0.0004092799 0.0005000214
000160 46 46 2c b7 91 f8 39 3a c4 32 31 ba ea 9f d0 b9
       -1.0268361e-05 0.0007094229 -0.0006759579 -0.00039791997
000170 d0 f8 9b b7 e6 d9 16 b9 ae cd 21 39 e8 11 a8 39
       -1.8593302e-05 -0.00014386288 0.00015430778 0.00032056798
000180 fb a9 84 39 03 d3 a6 38 2c 7d c3 38 ce 2a b9 39
       0.00025303647 7.954801e-05 9.32164e-05 0.00035317842
000190 78 79 0a 3a 70 b8 8c b9 b5 a8 13 39 54 27 53 38
       0.00052823825 -0.00026840298 0.0001408186 5.0342947e-05
0001a0 4b 69 44 b9 11 9d f8 38 72 77 c4 b8 c8 08 46 b9
       -0.00018731241 0.000118548174 -9.368257e-05 -0.00018886023
0001b0 00 c9 c6 39 29 d9 d6 38 40 8d c8 b4 e6 d7 5c b9
       0.0003791526 0.000102447644 -3.7355676e-07 -0.00021061263
0001c0 2a b4 01 39 d8 bd aa 39 ba 10 d4 b9 47 bb d6 38
       0.00012369515 0.0003256637 -0.00040448253 0.00010239198
0001d0 22 c2 30 39 ed 89 78 b9 11 2c 81 b9 22 56 97 ba
       0.00016856988 -0.00023702504 -0.0002463763 -0.0011546055
0001e0 53 d8 8f b9 19 11 9d 39 68 29 99 39 b9 16 52 b9
       -0.0002743626 0.00029958112 0.00029213284 -0.00020035625
0001f0 74 58 d0 38 dc 02 32 b7 f4 10 7b b8 3c bf e9 b8
       9.9346886e-05 -1.06102925e-05 -5.9858852e-05 -0.00011145926
