Assets/results/ChaseGem/ChaseGem/checkpoint.pt (torch, 445410 bytes, 39 tensors)

network_body._body_endoder.seq_layers.0.weight f4 [128, 6]
000000 06 74 3e 3f d2 8c af 3c 05 22 4d be de 77 ca be
       0.7439579 0.021429453 -0.20032509 -0.39544576
000010 b2 34 1b 3f b6 67 05 3f 94 44 b8 be f8 77 e6 be
       0.6062728 0.52111375 -0.3598982 -0.45013404
000020 62 e7 b3 3d 15 2e 9f be fa f0 57 3f 82 82 36 be
       0.08784367 -0.31089845 0.84352076 -0.17823222
000030 c3 32 7c be 98 6a 6a 3e e5 a3 8d be 3c d3 0d 3f
       -0.24628739 0.22892225 -0.27664104 0.55400443
000040 b4 04 0a bc 46 65 90 be cc 28 2e be 6d 48 6d 3f
       -0.008423973 -0.28202266 -0.1700775 0.9268864
000050 a1 eb 72 be e6 a0 31 3d b2 f5 31 bf d8 73 da 3d
       -0.23722698 0.043366335 -0.69515526 0.10666627
000060 a4 3c a9 3c 62 89 bc be 3d 6b 1b 3f b1 1a 24 3e
       0.020658799 -0.36823565 0.6071051 0.16025807
000070 9e 12 be be e9 7d e8 be b5 cd 15 bf c4 db cd 3e
       -0.3712358 -0.45408562 -0.5851701 0.4020673
000080 8d 94 8a be 55 b2 7f bd 45 e1 69 be 89 3f 3d 3e
       -0.2706646 -0.06242593 -0.2283984 0.18481268
000090 04 20 ea bd 04 cb 50 bf 1b 6f 03 3e 5d d2 ab 3f
       -0.11431888 -0.8155978 0.12835352 1.3423573
0000a0 2f 1d bc be ea 8a 07 3e eb 18 a0 3e 16 fa 04 3d
       -0.36741015 0.13236585 0.3126901 0.032465063
0000b0 41 5a 85 3e 8a 1d 01 bd 0b 44 d9 3e 5b 6f 30 bf
       0.2604542 -0.03152231 0.42434725 -0.68919915
0000c0 cb 4f 23 3f a7 37 a9 3c b3 8b 5b bf f1 df f9 bd
       0.6379363 0.02065642 -0.8576004 -0.122009166
0000d0 59 4e 8d be 3a 40 82 be 91 f6 a0 be 6b ae 2d bd
       -0.27598837 -0.25439626 -0.31438115 -0.042402666
0000e0 35 59 3c 3e 5b b3 3b be a0 9b bf bd ef 85 9a 3f
       0.18393405 -0.18330137 -0.09355855 1.2072123
0000f0 c3 20 1f bf df 1d a2 3e 12 fe 0e 3f 60 61 d8 be
       -0.62159365 0.31663415 0.5585643 -0.4226179
000100 66 57 a0 3e 62 30 aa be 88 52 9c 3e d6 7b e5 3c
       0.3131668 -0.33240038 0.30531716 0.028013151
000110 86 eb cd be f4 ef c1 3e 0d 87 6a 3e 07 f2 d2 be
       -0.40218753 0.37878382 0.2290308 -0.41200277
000120 4b f1 8f 3d d5 51 06 3d 2a 59 79 3f df 62 ad be
       0.07028445 0.032792885 0.9740168 -0.33864495
000130 d4 52 0b be 45 0c 83 be 87 d8 f4 3d 85 7a 2f 3e
       -0.13605815 -0.25595298 0.11955362 0.17136581
000140 c9 aa 52 be f5 07 88 3e 1d c7 0c 3e 04 34 f3 3e
       -0.20572962 0.2656857 0.1374783 0.47500622
000150 54 d3 a4 be dc 1c 63 bf 1a bd 3f bf 40 7c a4 3e
       -0.3219248 -0.8871591 -0.7489792 0.32126045
000160 b2 af 23 be 46 85 85 3f bd 0d 4e be 17 cc 98 3e
       -0.15984991 1.0431297 -0.20122428 0.29843208
000170 52 b0 13 3e 40 3e 7d 3e 61 68 41 3e 4e d4 2a be
       0.1442273 0.24730778 0.18887474 -0.1668255
000180 a0 66 03 3f 18 52 f0 be e1 4f 87 3e e1 bd c3 be
       0.5132847 -0.46937633 0.2642813 -0.38230804
000190 54 de 19 bf ab a2 81 bd b0 e0 8b 3e 37 57 13 3e
       -0.6010487 -0.063298546 0.2731986 0.14388739
0001a0 76 2d 98 be 3a d3 80 be 11 bf 0a 3f 28 a7 a1 be
       -0.29722184 -0.25161153 0.54197794 -0.31572843
0001b0 ed 01 8f be 46 af 29 3e d0 ff f1 be 92 4c 85 be
       -0.27931157 0.16570768 -0.47265482 -0.2603498
0001c0 8f d1 98 3d 1d ee 17 3e 68 5c 03 bf 70 7b d2 3e
       0.07461845 0.14836927 -0.51312876 0.411098
0001d0 c4 4c 64 be 60 0e 42 be 90 1c bc bd 03 6f 53 3d
       -0.22294909 -0.18950796 -0.09185135 0.05161954
0001e0 db d8 3e 3e 3e 04 af be 5b e4 7e 3e bd fd 54 3f
       0.18637411 -0.34182924 0.24891798 0.83199674
0001f0 4c 71 d1 3e 8d b7 c7 3d 73 2c 9a 3e ab d1 46 3e
       0.4090675 0.097518064 0.30112037 0.1941592
000200 a2 85 d8 3e f5 97 a3 be fb 9d 41 3f 34 6e 0c bf
       0.42289454 -0.31951872 0.75631684 -0.54855657
000210 92 a7 a3 bd ad 87 1f 3e 78 84 65 3e 87 8d 92 be
       -0.07990946 0.155791 0.22413814 -0.28623602
000220 d5 da 0e be 63 5e d4 3e 7a 5a 4d 3e ae 2c 7a 3e
       -0.13950665 0.4147826 0.20054045 0.24431106
000230 cf ee e0 be 66 7f a1 be 87 83 9b 3e 37 0d 0e bf
       -0.43932196 -0.3154251 0.30373785 -0.55488914
000240 79 db a9 be 5c 26 21 3f 44 9b 18 3f 51 f7 8e 3e
       -0.33175257 0.62949157 0.59611917 0.27923062
000250 57 4c b4 3e 99 68 53 bf 32 81 82 bf 98 b5 c3 3e
       0.35214493 -0.8258148 -1.0195677 0.38224483
000260 6b d1 87 3e e0 4a 42 3b 1e c0 8b 3e 9b f8 bd 3c
       0.2652696 0.002964668 0.2729501 0.023189833
000270 73 b3 28 be d6 c8 96 bf 00 57 da 3e 98 f2 85 3d
       -0.16474704 -1.178004 0.426445 0.06540412
000280 44 41 30 bf fa f0 3a bd a1 45 43 bf 58 b8 a8 bd
       -0.6884959 -0.04563997 -0.7627812 -0.08238286
000290 ec 89 8f 3e e4 a7 f6 be 42 b9 76 3e f6 e1 03 bf
       0.28034914 -0.48174965 0.24094108 -0.51516664
0002a0 82 99 6a be 6f 77 89 3e b1 99 83 be 8d 4f f2 be
       -0.22910121 0.26848933 -0.25703195 -0.47326317
0002b0 5a 4b 81 be bc aa 87 be 25 5a 14 bf dc e5 3f be
       -0.252528 -0.26497447 -0.5795005 -0.18740028
0002c0 ae a7 0e bf 12 d4 95 3e 1f 75 30 3f ff 51 83 be
       -0.5572461 0.2926336 0.6892871 -0.25648496
0002d0 84 48 7f be 50 44 d4 3d cf 4f 35 3e 56 86 b2 3e
       -0.24930006 0.10364592 0.17706226 0.34868115
0002e0 a0 1f 50 3d e2 a7 00 bf 01 f8 ee be 92 04 cb be
       0.05081141 -0.5025617 -0.46673587 -0.39651924
0002f0 66 71 0e 3f ac 2c fc 3e 0d 11 42 3f f1 60 1a 3f
       0.5564178 0.49252832 0.7580727 0.6030417
000300 e1 82 3b bf 4d c9 b2 be 0b a1 30 bf fb dd c4 3d
       -0.7324658 -0.34919205 -0.6899573 0.09612652
000310 52 d2 40 3e 48 b1 09 be e1 fe f6 3d 39 41 dc be
       0.18830231 -0.13446534 0.12060333 -0.4301851
000320 39 62 b1 3d 11 65 59 be 72 15 c8 3d f7 5e 1b 3f
       0.086613126 -0.2122996 0.09769715 0.6069178
000330 c4 0a c4 3e 9f 91 46 be 1a 1d ec be 0f 2f 42 be
       0.38289464 -0.19391488 -0.46115953 -0.18963264
000340 46 12 7c 3c ae 57 8c be 4a 1a d0 be 50 06 83 3f
       0.015385216 -0.27410644 -0.40645057 1.0236301
000350 1c 2b 0c bf 97 5d 13 bd 6b 96 1e be 20 0d 96 3e
       -0.5475328 -0.035977926 -0.15487067 0.2930689
000360 b9 44 eb be c7 1c 35 bb c2 60 ed 3e da ea ff be
       -0.4595087 -0.002763556 0.46362883 -0.49983865
000370 dd f8 17 3e d0 84 df 3d c3 b0 9a 3e 49 88 5f 3e
       0.14841028 0.10914004 0.30212983 0.21829332
000380 93 c6 a1 3e 64 24 dc be d5 f8 81 3f df 48 e0 3d
       0.31596813 -0.42996514 1.0154063 0.10951399
000390 31 c1 17 3f 54 a1 be be ff 66 27 3f a1 b0 ac 3d
       0.5927916 -0.3723246 0.65391535 0.08432127
0003a0 be f5 bb be 00 52 6c be 72 51 31 bf f7 95 d0 bd
       -0.36710924 -0.23078156 -0.692649 -0.101848535
0003b0 ff a1 e3 bb 72 a4 4b be 84 11 0c bf 66 49 2a bd
       -0.0069468017 -0.1988695 -0.54714227 -0.041573904
0003c0 92 95 77 3e da fe 05 bf f3 7d 09 3e 2f cb d6 3d
       0.2417815 -0.52342 0.13426952 0.10487973
0003d0 da 10 f3 3d b4 a9 19 3f 2c 92 89 3f 78 eb dd 3e
       0.118684486 0.6002457 1.0747733 0.4334371
0003e0 a1 f6 a3 3e ad c4 31 bf 27 2d d8 bd 79 a0 2b be
       0.320241 -0.6944073 -0.10555487 -0.16760434
0003f0 3a ce 32 3e 4a c9 25 be dd 2d e4 3e ab 5f 51 bf
       0.17461482 -0.16190067 0.4456624 -0.817866

network_body._body_endoder.seq_layers.0.bias f4 [128]
000000 36 c9 12 bc 08 4a 29 be d8 a6 24 3d 44 d6 1c 3d
       -0.008959105 -0.16532147 0.040198177 0.038290277
000010 7b 31 95 3c 3c fa 3b bc 44 f4 1f 3d 30 fa c2 bc
       0.01821207 -0.011473235 0.03905131 -0.02380094
000020 5f f1 bf bd 7d 1a 76 3d 89 e1 0e bd 9b f3 f6 bd
       -0.0937221 0.060083855 -0.034883056 -0.12058183
000030 c2 d6 62 3d 32 42 94 3b 0c 3d 3d 3d b4 d5 43 bd
       0.05538059 0.0045244927 0.046200797 -0.047811225
000040 7b 7e 5b bd b9 e4 81 bd 25 e4 bb 3d cc 22 b0 bd
       -0.053587418 -0.063424535 0.091743745 -0.08600387
000050 17 20 73 bd 2a 0f 90 3a df 48 88 3c 7b 6a ab bd
       -0.059356775 0.0010990847 0.01663631 -0.08369919
000060 94 18 76 3c 52 bb 78 bd 21 f3 ac bb 7a c1 21 bc
       0.015020508 -0.060725518 -0.0052780067 -0.009872789
000070 ef 97 b6 bd bc 5e f5 3a 0f f2 97 bc e0 ba da bc
       -0.08915698 0.001872025 -0.01854804 -0.026700437
000080 ef 8f a4 3d 14 c2 fa 3c df a2 3d bd 67 2a 40 3d
       0.08035266 0.030610122 -0.046297904 0.046915438
000090 73 86 e7 bd 7a ed 4f 3c 2a 6e 87 bd bf 58 92 bd
       -0.11304941 0.012690896 -0.06612809 -0.07145833
0000a0 3b 64 d5 bc 59 cd 03 3d c6 b2 87 3b 8d d3 92 3c
       -0.02604877 0.032178257 0.0041411845 0.01792314
0000b0 e8 5f ea bb 57 6e d7 bc 76 60 e2 3b e9 c3 3a 3d
       -0.007152546 -0.026297731 0.0069084717 0.04559699
0000c0 e9 03 c6 3b 63 2f 33 bc a8 14 ed bd 31 8b 07 bd
       0.0060429466 -0.010936591 -0.115762055 -0.033091728
0000d0 c5 30 ec bc 60 79 69 bd 6a 56 16 3d 1e 8d 01 bd
       -0.028831849 -0.057000518 0.036703505 -0.03162872
0000e0 85 70 30 bb 63 f6 cd 3d 0a 77 4f ba 0f 8e 39 bd
       -0.0026922536 0.1005676 -0.00079141615 -0.045301493
0000f0 76 f5 ad bd 89 8f b0 bd b1 7e 09 bd 78 a6 e8 bc
       -0.084940836 -0.08621127 -0.033568088 -0.028399691
000100 c2 32 91 3d 93 62 b2 bc 68 fa 81 bd c7 05 82 bd
       0.070897594 -0.02177552 -0.06346589 -0.06348758
000110 7c a1 07 3d 77 08 15 bd 38 b1 f3 bc 55 29 8b 3b
       0.033112988 -0.036385026 -0.02974759 0.0042468705
000120 dd 40 16 3c 55 73 53 bd 1b 04 82 3b 2e 69 a4 bd
       0.009170738 -0.05162366 0.0039677746 -0.08027874
000130 85 0d 9d bb 1c 56 0b 3d 5a 97 93 3c 4a 9b e5 3c
       -0.0047928714 0.034017667 0.018016506 0.02802815
000140 cc 30 43 3c 25 ce 97 3d 57 43 71 bd 65 e8 04 be
       0.01191349 0.07412366 -0.05890211 -0.12979276
000150 dc 6b ed bc aa e2 1a be 00 d8 05 3c bf 6d 68 bd
       -0.028982095 -0.15125528 0.008169174 -0.056745287
000160 3a 14 c8 3c 67 97 8d bb 21 92 e1 bd 91 49 73 3d
       0.024423707 -0.004321027 -0.110142 0.05939633
000170 a7 40 92 3d 88 66 1b 3c 47 06 2c 3d 82 38 64 bd
       0.07141238 0.009484895 0.041998174 -0.055717953
000180 6d 36 13 3e de c8 4a bc 49 68 ef 3c 89 62 ca 3c
       0.1437623 -0.012376992 0.029224532 0.024705188
000190 07 c7 7d bd 51 16 44 3d d9 31 d2 3c 03 5a 58 3c
       -0.061957385 0.047872845 0.025658535 0.013205054
0001a0 4b 35 5a bd f3 36 35 3b 5f 2c b6 bc 26 50 54 3d
       -0.05327348 0.002765116 -0.022237955 0.051834248
0001b0 05 a7 b4 bc 7b 1a 1a 3d c0 4e 0c 3d bd bb 8b 3c
       -0.022052297 0.03762291 0.03425479 0.017057294
0001c0 12 c2 7d bb 03 1e f8 bd ca 61 65 3c b5 f4 3e bb
       -0.0038720411 -0.12115099 0.0140003655 -0.0029137556
0001d0 63 9b 91 bc 4a 80 25 bc 14 4c b6 bc fc 58 c6 bb
       -0.01777429 -0.010101387 -0.022253074 -0.0060530882
0001e0 f4 36 12 3d ab b1 c3 bd 4f 1c 05 3e 65 bd cd bb
       0.03569694 -0.09555372 0.1299908 -0.006278681
0001f0 63 c5 4c bd 99 3f dc 3c 7b 57 dd bd 5c f6 11 bd
       -0.04999293 0.026885794 -0.10807701 -0.035635337

network_body._body_endoder.seq_layers.2.weight f4 [128, 128]
000000 4a 9f c6 bc 69 b1 2b 3d c4 37 7a 3d 72 90 c4 bd
       -0.024245877 0.04191724 0.06108834 -0.09597863
000010 42 4a a2 bd 61 da 54 3d a6 f6 92 bd a7 d6 75 bd
       -0.0792432 0.051966075 -0.07175951 -0.06001916
000020 26 1a bb 3d dc 32 af 3c 35 99 90 bd 29 d7 4b bb
       0.09135847 0.021386556 -0.07060472 -0.0031103587
000030 b7 59 7b bd 6d 9d 1c 3d f7 8f 1e 3c 2f 33 41 be
       -0.061364856 0.03823607 0.009677879 -0.18867181
000040 94 3e 10 3d be 57 2d bd ca 8d 64 bd c6 35 63 3d
       0.03521593 -0.042320006 -0.055799283 0.055471204
000050 36 e4 0e 3c ca 31 02 be 5f 6d 85 bc d9 36 2f 3d
       0.008721402 -0.12714306 -0.016287504 0.042776916
000060 92 ea 9c be 2f ba b5 bd d2 12 99 bd 97 71 3e 3d
       -0.30647713 -0.08873402 -0.07474293 0.046495046
000070 91 ad 14 3e 19 52 c8 bd 15 47 08 be cf f0 91 3c
       0.14519335 -0.09781284 -0.13308366 0.017815022
000080 1a da c4 bd 2b 4d 07 3e 15 7c 53 3e 8b 76 1a be
       -0.09611912 0.13213031 0.20652802 -0.15084283
000090 d2 21 73 bd 2e d0 70 bb c6 2b bd bd 56 ff 10 3d
       -0.059358425 -0.0036745179 -0.09236865 0.035399757
0000a0 03 3f 33 3d 02 15 35 3d 04 0e f8 3c c2 2d 07 be
       0.043761265 0.044209488 0.03028012 -0.13201049
0000b0 1d 74 41 bd 5c 10 18 3d ce d3 93 bd e8 9c 34 bd
       -0.047229875 0.037124977 -0.07218133 -0.04409495
0000c0 23 be 19 3d f5 7b 61 bd 5e 62 68 3d 36 dc 92 3d
       0.037534844 -0.055049855 0.056734435 0.07170908
0000d0 5b e9 81 3d a3 01 62 bd 5d 93 b2 bd 6d a4 42 bd
       0.06343337 -0.055177342 -0.087195136 -0.04752009
0000e0 26 05 11 3d 8d 01 e0 bd 69 90 53 3e 06 5c 80 be
       0.0354053 -0.10937796 0.20660557 -0.25070208
0000f0 7a 8e 30 3d 55 b6 ce 3d 52 9f f0 3d b2 3e a7 3c
       0.043104626 0.10093371 0.11749138 0.020415638
000100 c4 fb 39 3e f6 88 18 be 69 e5 2a 3d 71 71 a9 3d
       0.18162447 -0.14895996 0.04172269 0.0827359
000110 d5 da 04 3e 4c 1e 7a 3d 46 2e e4 bc 52 e4 21 3d
       0.12974103 0.06106405 -0.027854096 0.039524384
000120 b5 f4 d1 3d 8f 9a 9e 3d 6c 61 24 bc 92 f2 e8 bd
       0.10251752 0.077443235 -0.010032993 -0.113743916
000130 69 36 b8 3c 00 90 2e be 3c b8 04 3e 4a 73 60 bd
       0.022486882 -0.17047119 0.12960905 -0.05479745
000140 d4 12 9a 3d ac a8 f9 bc 62 f8 a3 3c 6d e7 9f bd
       0.075231224 -0.030475937 0.0200159 -0.07807813
000150 c0 33 25 3e 2b 80 2d 3d 28 83 f4 bd c7 d1 00 bc
       0.16133022 0.04235856 -0.119390786 -0.007862515
000160 36 f7 a8 bd 83 59 74 bd 3a ae 1b be 16 c4 69 3d
       -0.08250277 -0.059655678 -0.15203181 0.057071768
000170 36 a9 37 3d 47 bd ad 3d 06 bf 10 3d 49 a0 6a 3c
       0.044839107 0.084833674 0.035338424 0.0143204415
000180 85 f9 16 3e 93 2c d6 bb 4d ed f7 bd 4f 6a 1c be
       0.14743622 -0.0065360754 -0.121058084 -0.15274929
000190 39 2e 0f 3e 52 3c ad bd 32 39 17 be 2a 04 39 be
       0.13982476 -0.08458771 -0.14767912 -0.18067995
0001a0 2f 7e 1d be d6 d2 51 3d 1c b1 31 3c 3a be 8e be
       -0.15380166 0.05122646 0.010845449 -0.27879506
0001b0 bf 88 f9 3d 25 ba 86 3c 91 55 d8 3d 6b b5 a6 3d
       0.12184285 0.016446183 0.105631955 0.081400715
0001c0 98 91 11 be 6c 12 cd 3c 07 4d 92 bd 3c d1 da bd
       -0.14215696 0.025033198 -0.07143598 -0.106844395
0001d0 69 b2 99 bd 64 43 a4 bd 75 a9 df bd a6 4f 12 bd
       -0.07504732 -0.08020666 -0.10920993 -0.03572049
0001e0 c3 fb 76 3d 67 b0 9f 3d 0b dc db 3d 27 48 a6 3d
       0.060298692 0.07797318 0.10735329 0.08119231
0001f0 25 83 8c 3d 94 90 eb bd e5 62 90 bd d5 54 a1 bd
       0.06860951 -0.115021855 -0.07050113 -0.078775086
000200 5b 7f ab 3c dd 44 d0 bd ea 23 b5 3c d5 f0 83 3d
       0.020934751 -0.10169385 0.022111852 0.064424194
000210 73 88 c1 bb 3c 13 a0 3c db 39 60 bd 73 e3 c8 3c
       -0.0059061586 0.019540422 -0.054742675 0.024522519
000220 31 0c 7f 3e 31 36 33 bd 81 af 0c bd 71 28 b0 bd
       0.24906994 -0.043752853 -0.03434706 -0.086014636
000230 c9 92 a2 3c aa 55 31 bd c7 b5 91 bd c0 13 56 3d
       0.019845383 -0.043294586 -0.071147494 0.05226493
000240 68 1e b3 3d dd b3 96 3a ce 0d dd 3d 15 39 a5 3d
       0.08746034 0.0011497695 0.10793649 0.08067528
000250 c8 2b d3 bc d4 7b c2 3d ca 75 5c 3d cf b1 1d 3d
       -0.025777712 0.094962746 0.05382327 0.03849965
000260 b9 a3 37 3d 3f f4 81 bd 7f 73 a8 3b 38 a8 31 3e
       0.044833872 -0.06345414 0.0051407213 0.17349327
000270 ec 2d 81 bc 36 26 30 bd 2c 56 4d bd 54 9a 92 be
       -0.015768968 -0.04300519 -0.050131008 -0.28633368
000280 ff 54 2c bc f9 9a 63 bd 39 40 be 3d e9 34 69 3d
       -0.0105183115 -0.055567715 0.09289593 0.056935225
000290 87 ce d5 3d eb 35 9c bd bf 30 54 3e d3 ee fe 3c
       0.104397826 -0.076274715 0.2072172 0.03111974
0002a0 34 d8 57 bd 0f 09 95 bc a0 cf af 3b 71 db a8 3d
       -0.05269642 -0.018192796 0.005365327 0.0824498
0002b0 5a 77 9c bd 9f 13 15 3e 51 f7 4f 3b 95 7e 96 bd
       -0.07639952 0.14558266 0.0031733105 -0.07348362
0002c0 54 e0 1e 3e 0a 38 25 be 9f 15 ef 3d 55 cd 11 3e
       0.15515262 -0.16134658 0.11674046 0.14238484
0002d0 92 62 1b 3e 01 54 cf bb ec e1 eb bc 75 31 85 bd
       0.1517432 -0.0063271527 -0.028794251 -0.06503574
0002e0 9f 94 07 3e de d3 89 bd 3a d7 a0 3d 0e 0d a0 bd
       0.13240288 -0.067298636 0.07853551 -0.0781499
0002f0 4f 2d f1 3c 01 ac 47 3d ae b0 eb bd 7c 33 7a 3d
       0.02944055 0.04874802 -0.11508308 0.061084256
000300 75 d7 91 bd a1 46 f8 bc 22 a8 f3 bc 31 76 5d 3e
       -0.07121173 -0.030307116 -0.029743258 0.21627118
000310 f8 01 67 bb 11 cd ac bd 0f 9e f2 3c 80 df 85 bc
       -0.0035248976 -0.08437551 0.029616384 -0.016341925
000320 80 31 55 be fc 7f 07 3d d2 fe a9 bd 17 3a 00 be
       -0.20819664 0.03308104 -0.08300556 -0.1252216
000330 f9 23 ea 3d 1b 0e d7 bc 93 9a dd 3c 67 99 e6 bd
       0.114326425 -0.026251843 0.027051246 -0.11259728
000340 d7 68 37 bc 61 31 1e 3d 6f 98 c6 3d 31 73 e0 bb
       -0.011194429 0.03862131 0.09697043 -0.0068496694
000350 02 79 ad 3a 70 e0 cd 3d b9 7e 4e 3d 7f 29 ad bd
       0.0013234916 0.10052574 0.05041382 -0.084551804
000360 04 69 3c bc 1e 93 3b be 62 bc 0d 3e b6 0e ad 3d
       -0.011499647 -0.1831784 0.13841394 0.084500715
000370 ed b6 65 bc fc 46 b7 3d fc 4c d5 3d 2b 0b 01 bd
       -0.014020664 0.08949086 0.10415074 -0.03150479
000380 08 78 87 3e dc bd a6 bd 38 29 04 be 86 10 52 be
       0.26458764 -0.081416816 -0.12906349 -0.20514116
000390 ae 13 07 3d db 79 db bb 11 18 a5 3d 51 75 09 bd
       0.032977752 -0.006697876 0.08061231 -0.033559147
0003a0 b6 2f 38 bd aa 08 02 be de 22 a8 3d 22 45 ca bd
       -0.044967376 -0.12698618 0.082097754 -0.09876467
0003b0 21 96 37 3e ad bf c1 3c ad df 13 3e d3 3b d6 3c
       0.17928363 0.023650968 0.14440794 0.026151573
0003c0 89 fd e9 bc 23 7c 8d 3d dd d8 80 3d 7b ae 78 bd
       -0.028563278 0.06908443 0.062913634 -0.060713273
0003d0 0b 12 c1 3d 0e f8 b2 3d ec 85 c5 bc 7d 6b 18 bd
       0.094272695 0.08738719 -0.02411171 -0.037211884
0003e0 c6 ee 3a 3e 5b ca 9d bc 17 e3 11 3e f9 eb 9f 3d
       0.18255147 -0.01926153 0.14246784 0.0780868
0003f0 f3 7d 16 3e 8f db a6 bd 22 c0 ca bd 24 3b 73 3c
       0.14696483 -0.08147346 -0.09899928 0.014845643

network_body._body_endoder.seq_layers.2.bias f4 [128]
000000 c8 69 bf bb 73 9e 5f bd 80 25 d0 bc ad 1b 25 bd
       -0.0058414675 -0.05459447 -0.025408506 -0.040309597
000010 d2 1e a6 3c 60 cb 4e 3d f2 4c 1a 3c 6d bb 71 bd
       0.020278368 0.050486922 0.009417759 -0.059016634
000020 2d 69 96 3d 84 d4 39 bd ab e1 68 bc 89 1e 59 bc
       0.073442794 -0.045368686 -0.01421396 -0.013251909
000030 aa 89 b5 3c f3 ab 40 bd 03 72 62 bd 7f 1f 84 3d
       0.02216037 -0.047038984 -0.05528451 0.0645132
000040 88 5e 97 3d 92 66 37 bd 23 7d 2e bc 7d 01 44 bd
       0.07391077 -0.044775553 -0.010649952 -0.04785298
000050 d5 06 64 bc fb df 54 3d c9 52 9d bc a1 aa de 3d
       -0.0139176445 0.051971417 -0.019204514 0.10872389
000060 7c 92 e0 3b 2d ee 66 3d 35 9c bd bc 4d fa 99 3d
       0.0068534 0.056379486 -0.023145774 0.07518444
000070 6d 09 11 3d 5e 80 12 bd 66 69 23 3d 2b a9 9d bc
       0.03540938 -0.03576695 0.039895438 -0.019245705
000080 8f e7 3e bd 72 f0 e2 3d 40 d4 9d 3d b9 9b 14 bd
       -0.04660755 0.110810176 0.07706499 -0.03628132
000090 4b 0d 15 bd 2e 0f 9c bb de a9 2c bc 96 c5 3a bd
       -0.03638963 -0.0047625517 -0.010538546 -0.04559859
0000a0 de 4a 70 bd 08 0f 92 bc 8e 2d 23 bd 58 dc 4a bd
       -0.05866515 -0.017829433 -0.039838366 -0.049526542
0000b0 95 20 f8 bc 80 b1 cb bc 37 b4 a4 3c 04 58 4a 3d
       -0.030288974 -0.024864912 0.020105464 0.049400344
0000c0 04 1a 3d bd 73 fc 89 3d 97 8e 22 bd b2 2a 44 bd
       -0.04616739 0.06737604 -0.039686766 -0.04789228
0000d0 d0 46 17 bd c9 be 0e 3d 6f a6 ce 3b 11 30 85 3d
       -0.036932766 0.034849916 0.0063064615 0.065033086
0000e0 c7 47 e7 bc 4a d4 53 bc 7f c9 e1 3d b4 04 e7 bc
       -0.028232468 -0.012929032 0.110247605 -0.028200485
0000f0 61 f0 b2 bd f0 9c 81 3c d3 42 b6 3d e5 9e a2 3b
       -0.08737255 0.015821904 0.088994645 0.0049627894
000100 e1 1c 04 bd b9 bb 91 3c 38 b9 2e 3c 3a c2 4d bd
       -0.032254104 0.017789708 0.010664277 -0.050234057
000110 52 80 74 bd f4 61 30 bd a5 f2 16 3d 7e ef 8d bc
       -0.05969269 -0.043062165 0.036852498 -0.017326113
000120 f5 89 3c 3d b4 d5 ca bc 1f a2 05 3d 28 fb f9 bc
       0.046030004 -0.024760105 0.032625314 -0.030515268
000130 70 9f 49 bd 70 40 11 bd 24 17 0b 3b 75 83 cd bc
       -0.049224317 -0.035461843 0.002122351 -0.025087098
000140 bb 89 11 bd d6 e7 2e 3d 19 f1 b8 3d 88 7f d4 bc
       -0.03553174 0.042701565 0.09030361 -0.025939718
000150 ad 16 b1 bc c4 43 84 3d f0 91 17 bd 9e df 34 bd
       -0.021617258 0.06458238 -0.03700441 -0.04415857
000160 d9 ff 49 bd 01 f9 32 3d 8e b6 c5 3b 5b 95 81 bd
       -0.04931626 0.0436945 0.006033725 -0.063273154
000170 e5 7b 9c 3c 0d 9d 25 bc b0 89 20 3d 12 54 9d bb
       0.019102046 -0.010108245 0.03919381 -0.0048012817
000180 e5 3b ac 3b 75 91 33 bd 24 8a 0f bd b8 c7 2a bd
       0.0052561634 -0.04383989 -0.03504385 -0.041694373
000190 cb a6 af bb da c0 82 3d e7 fc 63 3d 69 32 96 bc
       -0.0053604594 0.0638444 0.05566111 -0.018334584
0001a0 4c 05 ee bc d2 a1 bd bd 32 7f cf 3d 7a 81 20 3d
       -0.02905526 -0.092593804 0.101316825 0.03918598
0001b0 c3 32 58 3d 9c ca 9d 3c 08 ea 09 3d 3c de 15 bd
       0.052782785 0.01926165 0.033670455 -0.036588892
0001c0 56 43 62 bc e1 aa de bc e5 3e 45 bd c7 09 cf 3d
       -0.013809999 -0.02718109 -0.048155684 0.10109287
0001d0 f1 39 2e bd 66 c3 49 bd 6d f7 db b9 ff 5c 31 bd
       -0.042535726 -0.049258612 -0.00041955282 -0.04330158
0001e0 e1 32 8b bc 0a b4 b4 3a 98 44 61 bd 80 7e 31 3d
       -0.016992034 0.0013786566 -0.054997057 0.04333353
0001f0 5b 67 7f bd 21 ad 71 bc 15 c2 17 3d 04 54 18 bd
       -0.062354427 -0.01475075 0.037050325 -0.0371895

action_model._continuous_distribution.log_sigma f4 [1, 2]
000000 53 0c 46 be 28 ec 26 bd
       -0.19340639 -0.04075256

action_model._continuous_distribution.mu.weight f4 [2, 128]
000000 08 e8 86 bd ba 20 1c be a4 cc 25 be 94 db a2 bd
       -0.06587225 -0.15246859 -0.16191345 -0.079520375
000010 ca 5d 1c ba cd 83 76 bc 59 69 d3 bd 5e 4a fb bd
       -0.00059649034 -0.015046072 -0.10322828 -0.12270044
000020 02 df 27 3d 3a 15 dd bd 4d 1e e4 bd 96 92 21 be
       0.04098416 -0.10795064 -0.11138592 -0.15778574
000030 c7 5c d0 bc 46 37 f1 bd 5a 9e 06 be f3 73 3c 3d
       -0.025434865 -0.11778121 -0.13146344 0.046009015
000040 97 df 2b 3d 45 af 0a be b9 ee b0 bc de f5 e5 bd
       0.04196128 -0.13543423 -0.021598207 -0.11228536
000050 bf eb a0 bb 95 40 14 bc 29 9d 02 be 2e 00 81 3d
       -0.0049109156 -0.009048601 -0.12755264 0.062988624
000060 86 b5 20 3c ec d4 76 3d ba 0b 00 be e2 5a ca 3b
       0.009808904 0.060261652 -0.12504473 0.006175385
000070 01 25 fe 3c 99 eb b0 bd 9e 9e 2f 3d 17 18 33 bd
       0.031023504 -0.08638687 0.04287588 -0.043724146
000080 e0 ac aa bd 88 d0 89 3d ba 74 20 3d c6 fb a5 bc
       -0.083337545 0.06729227 0.03917382 -0.020261656
000090 4f e7 0f be 68 3f c1 bd e1 16 ea bd ed 11 0c be
       -0.14053081 -0.09435922 -0.11430145 -0.13678713
0000a0 aa e5 da bd 50 17 3e be bc cb 35 bd ee 5d c0 bd
       -0.10688336 -0.1856358 -0.04438375 -0.09392916
0000b0 c5 fd b0 bd 8d 15 04 be 67 cf 6b bd ad 0a 4f 3d
       -0.08642153 -0.12898846 -0.05757084 0.05054729
0000c0 71 24 1a be d0 b6 ac 3c 0c b1 de bd 2e 0e e3 bd
       -0.15052964 0.021083266 -0.10873613 -0.11086689
0000d0 f1 fb 24 be 1f 2f 2d bd 6d 7c b0 3c 60 54 c8 3b
       -0.16111733 -0.042281266 0.021543706 0.006113574
0000e0 b1 48 f8 bd 1b 27 9d bd d1 ac bb 3d 0e ee 38 bd
       -0.1212324 -0.076734744 0.091638215 -0.0451489
0000f0 f8 e9 c0 bd 14 2a a5 bc b1 48 84 3d 7c d3 d5 bd
       -0.09419626 -0.020161666 0.06459177 -0.10440728
000100 18 1f 17 be 7e 13 23 be c7 4e 8a bd 67 b3 04 bd
       -0.14757955 -0.15925404 -0.06753307 -0.032397654
000110 5c 65 d6 bd cd 32 03 be 87 99 9c bc 23 46 91 bd
       -0.104685515 -0.12812348 -0.019116176 -0.07093456
000120 d3 c0 99 bd d1 f0 d4 bd 74 43 90 bc b8 80 c6 bd
       -0.075074814 -0.103974946 -0.01761029 -0.0969252
000130 b8 41 e5 bd 39 df c7 bd ba c1 a6 bd d3 cb 3e bd
       -0.111941755 -0.09759373 -0.08142419 -0.0465811
000140 9f 49 1e be 35 ec 29 bd c7 d2 37 3d a5 c1 36 be
       -0.15457772 -0.04148503 0.044878747 -0.17847307
000150 f0 64 2b be d3 89 5c 3c 37 9e 35 be f5 45 09 be
       -0.16737723 0.013460594 -0.17736135 -0.13405593
000160 11 f9 0a be 39 74 43 3d 67 06 07 bd b1 88 d8 bd
       -0.13571574 0.04771826 -0.03296509 -0.10572947
000170 8a e3 fa bc fd 12 bb bd 51 10 e2 3c 3a 17 d9 bc
       -0.030626077 -0.09134481 0.02759567 -0.026500333
000180 78 89 da bd ad 88 0a be fd 7f 08 be 4c f8 f1 bd
       -0.10670751 -0.135287 -0.13330074 -0.11814937
000190 3b 62 af bd d7 07 23 3d a2 3d ba 3c 9a d8 0c bd
       -0.08563658 0.0398024 0.022734467 -0.034386255
0001a0 9a 00 35 be 7a c9 ad bd 81 5c 88 3d ac 2c b2 ba
       -0.1767601 -0.08485694 0.06658269 -0.0013593636
0001b0 a9 84 74 3b 1c 48 81 bd 58 f4 48 bd 0b 79 07 be
       0.0037310517 -0.06312582 -0.04906115 -0.13229768
0001c0 68 19 2d bb 10 5b d4 bd 07 6a 48 bd a8 b0 c7 3d
       -0.0026412848 -0.10368931 -0.04892924 0.097504914
0001d0 ad 3d c5 bd 3e 50 c5 bd 21 3c e4 bd 26 5e d6 bd
       -0.09630904 -0.096344456 -0.11144281 -0.10467176
0001e0 51 cd cb bd 41 fc 2a be 7d 09 86 bd 59 7d 99 ba
       -0.0995127 -0.1669779 -0.065447785 -0.001171033
0001f0 ac a8 0b be 4a 65 f3 bd 3c db ef bc 17 fa 99 bd
       -0.13638562 -0.11884554 -0.029279344 -0.07518404
000200 89 d9 07 3d 29 4b 5c bd 6e d0 47 bd 6e f3 57 bc
       0.033166442 -0.053782616 -0.04878276 -0.013180597
000210 75 1d f7 bd c2 34 9f 3d 3d bf ea 3d 36 8f 05 bd
       -0.12066165 0.07773735 0.11462257 -0.03260728
000220 c5 ef 05 3d 11 12 44 bd 82 0f a0 3d b3 51 67 bd
       0.032699365 -0.047868792 0.07815458 -0.0564744
000230 89 90 9e 3d 87 4e 16 3d af 4e 4a bc 31 ee 11 bd
       0.07742412 0.036695983 -0.012347861 -0.035627548
000240 f8 ea 17 bb e0 4d 22 bd 84 c6 0b 3d 7e 1d a3 bc
       -0.0023180824 -0.03962505 0.034124866 -0.019911524
000250 dd 74 d8 bb ce d5 b5 3d 61 28 12 bd 98 6c 03 3d
       -0.006605728 0.08878671 -0.03568304 0.032085985
000260 55 e1 56 3a 9b ba 7c bd d3 55 86 bd 35 05 c0 3d
       0.0008197029 -0.0617014 -0.065593384 0.09375993
000270 d4 83 bc bd e3 95 d8 bc aa 14 67 bd 1d ac 3b bd
       -0.09204832 -0.026438659 -0.05641619 -0.045818437
000280 8d 45 45 bd 49 38 f7 bb 10 be 0a be 68 16 03 bd
       -0.048162032 -0.0075445515 -0.13549066 -0.03200379
000290 6a 57 a1 3c 50 e2 6d 3d 98 28 aa bd 0b 27 2e bd
       0.019695003 0.058077157 -0.08308524 -0.042517703
0002a0 29 b1 1c bd 6e f1 23 bc 22 6e a4 3b 18 52 9d bd
       -0.03825489 -0.010006292 0.0050180117 -0.07681674
0002b0 47 96 bb bd 31 24 44 bd 3e 01 07 3e d8 9b 14 3d
       -0.091595225 -0.047886077 0.13184068 0.036281437
0002c0 a2 64 71 bd 0e 97 a0 3d 75 f1 ab bd e1 b2 34 3c
       -0.05893386 0.078413114 -0.08395664 0.011028976
0002d0 e7 03 39 bd 09 e7 aa 3d 47 2c d7 bd d9 c4 e3 3d
       -0.045169737 0.08344848 -0.10506492 0.1112153
0002e0 06 66 6b 3c 68 64 1a 3d 29 fb 0e bb ba 17 6b bc
       0.014367586 0.03769341 -0.0021817184 -0.014348919
0002f0 a8 47 f3 bc 51 91 11 be ac 3f d0 3c 2c 33 46 3d
       -0.029697254 -0.1421559 0.025420986 0.048388645
000300 44 8a ec bc 3e 4a 8d bd d6 86 82 3d 5e 79 98 bc
       -0.028874524 -0.06898926 0.06373374 -0.01861256
000310 a0 bb 6e bd ff 98 43 bd 23 ec 34 3d b8 c0 7f 3d
       -0.058284402 -0.04775333 0.04417051 0.06243965
000320 84 39 1a 3e 04 b6 4e 3d cc 55 dc 3d 86 74 0b 3d
       0.15061003 0.050466552 0.10758552 0.034046672
000330 87 ac c7 3b a4 5c 24 bc e0 c7 c4 3d e3 b9 f7 bd
       0.006093565 -0.010031853 0.09608436 -0.12096002
000340 7a 41 06 bd 23 96 d7 3d e8 e2 a5 3c 6a 5e 14 bd
       -0.032777287 0.10526683 0.020249799 -0.036222853
000350 00 84 92 bd 78 b9 6c 3d f7 89 62 bd 84 86 70 bd
       -0.07154083 0.057794064 -0.055307355 -0.058722034
000360 dd db 3b bc 7c 40 e7 3c d1 4b ad 3d de cc 72 3c
       -0.011465994 0.02822899 0.084617265 0.014819352
000370 2f 13 0a be 96 58 ac 3d 91 c0 97 bd 54 06 b5 bd
       -0.1348388 0.08415334 -0.07409776 -0.088390976
000380 4a e8 a4 bd d0 c3 70 3c ab d6 4c bd 58 c4 07 3d
       -0.08052118 0.014695123 -0.05000941 0.033146232
000390 e3 d0 74 3d 25 9e b7 3d 13 f3 9a 3c b0 90 d5 bd
       0.059769522 0.089657106 0.018914735 -0.104279876
0003a0 9f 3e ce bc e8 54 fb 3b 5c 22 74 3d 70 30 74 3d
       -0.025176344 0.0076700337 0.05960308 0.059616506
0003b0 e3 23 da 3d 04 4d c6 3d 41 63 c4 3d 0c 9d 5e bc
       0.10651376 0.09682658 0.09589244 -0.013587248
0003c0 52 0a 32 bc be 82 28 3d 20 61 8b 3c 4a 83 6d bd
       -0.010866718 0.04114031 0.017014086 -0.057986535
0003d0 91 a6 61 bd 19 75 86 bb 9d 63 7e 3d f3 90 26 3d
       -0.05509049 -0.0041033146 0.062106717 0.040665578
0003e0 8f c1 0f 3d 17 60 32 bd 69 98 d9 3c a2 bf 99 3d
       0.0350967 -0.04354867 0.026561933 0.07507254
0003f0 ae 85 06 bb 42 4a a5 bd 12 64 f4 3d e5 72 fb 3c
       -0.0020526457 -0.08070804 0.119331494 0.030694434

action_model._continuous_distribution.mu.bias f4 [2]
000000 9b bc 17 3e d9 fe 4e 3c
       0.14818041 0.012634003

action_model._discrete_distribution.branches.0.weight f4 [1, 128]
000000 82 bf 09 3b 0c fc 2b ba c3 5b 04 bc 61 33 1c 3b
       0.0021018689 -0.000656069 -0.008078518 0.0023834335
000010 10 3a a4 bb 25 5f 73 3c c2 a1 1f ba fd 9f 10 3b
       -0.0050118044 0.014854227 -0.00060894724 0.0022068017
000020 ef 39 c5 3a 42 91 53 bb 63 d3 3f 3c 8f 4c e4 3b
       0.0015047173 -0.0032282625 0.011708113 0.0069671343
000030 60 a1 b4 3b ef 4a 62 3c b1 5a 8a bb 03 39 8f bc
       0.0055124015 0.013811811 -0.004222237 -0.01748324
000040 47 21 29 3c fd a1 cf 3b 97 55 35 ba 4b 7b 27 3c
       0.010322875 0.006336449 -0.0006917356 0.010222266
000050 0d 28 98 bc 9a 8a 8c 3b ae 9b 21 3b 28 94 82 3a
       -0.018573785 0.0042889835 0.0024659443 0.0009962367
000060 ff 6a a5 bb 0b ec 90 3b a5 3c 58 3a 4b 48 22 3b
       -0.0050481553 0.0044226698 0.0008248783 0.0024762328
000070 69 55 9c bb f6 e3 34 3a d5 00 7c bb 18 69 a6 bc
       -0.004770924 0.0006900424 -0.0038452644 -0.020313784
000080 db 6e 0e 3c d3 e5 c9 3b c1 be 89 3b b3 cc d7 39
       0.008693422 0.0061614304 0.004203648 0.00041160508
000090 de 00 9b 3b e4 98 be ba 2a ec bc 3b 44 d1 13 bc
       0.004730328 -0.0014541415 0.0057654576 -0.009022061
0000a0 c8 eb 51 3b cd 82 fc 3b 50 1d ed bc 02 81 36 bc
       0.0032031406 0.0077060224 -0.028944641 -0.011139156
0000b0 86 ff a9 3b 8b ee 3d 3a af 22 a0 3b 22 38 e2 3b
       0.0051879315 0.00072453235 0.004886947 0.006903664
0000c0 78 28 c8 bc 75 35 74 39 66 13 81 bb af 76 8b 3b
       -0.02443336 0.00023289568 -0.00393908 0.0042560915
0000d0 94 ec 23 3b a5 93 40 3c b6 7a 87 bc ea 16 42 3c
       0.0025012838 0.011753951 -0.016538005 0.011846283
0000e0 f1 89 c1 bb 6b 07 98 ba 80 f8 69 3b b5 a4 88 3b
       -0.0059063365 -0.001159889 0.0035701096 0.0041700252
0000f0 41 a1 03 b9 4f da ba bc 1b a8 5d 3c 9a 5a fa 39
       -0.00012553205 -0.022809176 0.013528849 0.0004775122
000100 92 83 ba 3b 3f b5 b1 38 4c 30 2f 39 13 d6 61 3c
       0.005691954 8.4737774e-05 0.00016707293 0.013783949
000110 a0 95 5c 3a f1 8a ab ba 8e 37 14 3c 70 ef 20 bc
       0.000841463 -0.0013087672 0.009046448 -0.009822711
000120 45 f9 09 39 e8 a5 da bb 95 be 12 3b 7c b4 2e 3b
       0.00013158198 -0.0066726096 0.0022391428 0.002665787
000130 c6 83 87 ba 5b 31 da bb ab aa 2c 3c 77 a9 b5 bb
       -0.0010338954 -0.0066587157 0.010538737 -0.0055438834
000140 aa cf 3c bc 47 46 3d 3c de e2 bb 3b 6c 98 ad bb
       -0.01152412 0.0115524 0.005733832 -0.005297711
000150 6c d8 84 bb eb 1b cf 3c 10 4d 94 bb df 75 9a 3c
       -0.00405412 0.025281867 -0.004525788 0.018855033
000160 26 16 17 3b ea 27 8d ba ea be 72 bc e0 c7 a5 3c
       0.0023053973 -0.0010769342 -0.014816025 0.02023691
000170 37 2b 06 3c b3 cd b6 b9 8d 3a 59 ba 77 8a c7 bb
       0.008189014 -0.00034867003 -0.0008286618 -0.0060895043
000180 5a 61 f9 b9 21 89 0a 3a 3f d8 a5 3c d5 e6 e5 38
       -0.00047565514 0.0005284716 0.020244716 0.00010962567
000190 d3 7b 29 bb bd c6 ba ba 34 14 01 3c 63 7a e7 ba
       -0.0025861159 -0.0014249902 0.007878352 -0.0017660375
0001a0 5f fb 13 3c 4f bc 74 bc ff 5c 24 39 a3 73 a4 bb
       0.0090320995 -0.014937474 0.00015674903 -0.005018668
0001b0 77 6d 23 3c b6 b6 3d bb 2d 95 ea b9 70 18 26 3c
       0.009974829 -0.0028948016 -0.00044743103 0.010137662
0001c0 17 55 66 3b 0d 5d bf 3b 0b 31 2d bc 28 a3 83 3c
       0.0035145932 0.00583995 -0.010570775 0.01606901
0001d0 ab 93 90 3b 98 c8 7f ba 57 13 0f bc 1e 2d 11 bc
       0.0044121346 -0.0009757369 -0.008732638 -0.008860854
0001e0 4c af 92 3c 05 76 25 bc 02 ba eb 3b cd ee 76 3c
       0.017905854 -0.010098939 0.0071938047 0.015071583
0001f0 0f 0a 9f bb 80 5d e3 3b aa f1 7d ba 85 dc 07 3c
       -0.004853494 0.0069386363 -0.0009687195 0.008292322

exp_avg f4 [128, 6]
000000 2c a7 78 3b 00 00 00 00 6f 65 b5 ba 07 39 1f 3c
       0.003794144 0.0 -0.0013839434 0.009718186
000010 b8 e1 a2 36 3b 45 61 3a 0b 6d f1 39 00 00 00 00
       4.8542533e-06 0.0008593385 0.00046048345 0.0
000020 f3 2d a5 39 76 5c 6b ba 30 ca c2 b5 30 7b 02 39
       0.00031505487 -0.00089783163 -1.4512971e-06 0.00012443657
000030 60 7f 07 bc 00 00 00 00 e8 6b 5e bb d1 62 a4 3b
       -0.008270115 0.0 -0.003393883 0.0050166626
000040 04 8e ea 36 47 53 2b bb 4c 45 b7 3a 00 00 00 00
       6.9902762e-06 -0.0026142166 0.0013982444 0.0
000050 71 0b 4f 39 bf db 1a 39 b4 4a c9 b6 36 f5 c9 b9
       0.0001974532 0.00014768446 -5.9989634e-06 -0.00038520404
000060 7d 15 cd bb 00 00 00 00 41 57 2c 3b b2 ce 76 bc
       -0.006258665 0.0 0.0026297125 -0.015063928
000070 56 1c 76 36 63 ab 16 3a c4 83 88 3b 00 00 00 00
       3.667335e-06 0.00057475845 0.0041660983 0.0
000080 f2 67 f4 3a 61 8b b7 bb a6 cb 08 b7 94 f0 cb b9
       0.0018646701 -0.005601332 -8.153647e-06 -0.00038898422
000090 e1 2c 1c bb 00 00 00 00 8d cd 08 bb 6c 4f a4 3b
       -0.002383046 0.0 -0.002087447 0.0050143506
0000a0 ab 1c 0d 37 50 f4 96 ba 69 c5 8a bb 00 00 00 00
       8.41093e-06 -0.0011516903 -0.004234959 0.0
0000b0 1d d4 41 3a 9a a1 0c bc 24 98 ad 36 4e b9 6e b9
       0.0007393973 -0.008583451 5.1735133e-06 -0.0002276648
0000c0 6a d3 80 39 00 00 00 00 01 49 81 b9 13 da 30 3a
       0.00024571578 0.0 -0.0002465919 0.0006746363
0000d0 8d e6 12 36 2f 82 0c 39 d4 c3 6e ba 00 00 00 00
       2.1889894e-06 0.00013399938 -0.000910816 0.0
0000e0 66 34 dc ba 4e 31 dc ba 2f 6e 03 37 98 8a 39 bb
       -0.0016800284 -0.0016799362 7.833863e-06 -0.0028311368
0000f0 ea 6b 8d 38 00 00 00 00 22 d6 94 38 5b f1 3c ba
       6.7435045e-05 0.0 7.097075e-05 -0.00072075956
000100 7a d1 96 34 1e 48 56 b9 0d b2 c6 3a 00 00 00 00
       2.8092091e-07 -0.00020435496 0.0015159264 0.0
000110 90 69 9b b8 fa 52 19 3b 52 59 21 b6 e5 73 83 38
       -7.4106385e-05 0.0023395405 -2.404286e-06 6.268154e-05
000120 c9 99 a7 3a 00 00 00 00 c1 2a c0 3a 02 2e 25 3b
       0.001278692 0.0 0.0014661179 0.0025204425
000130 b4 03 9e b6 e1 5a d3 3a 80 8c 74 3b 00 00 00 00
       -4.709198e-06 0.0016125106 0.003731519 0.0
000140 fe 7e 93 ba 40 90 e4 3b 78 3c f4 b4 ec 65 b1 b9
       -0.0011253057 0.0069752038 -4.5492538e-07 -0.00033836009
000150 47 3d 09 3c 00 00 00 00 d4 0f 60 3a d8 c4 e6 3b
       0.008376426 0.0 0.00085472804 0.0070425086
000160 45 e5 6b b7 b6 0e f3 3a 9f 0f 52 ba 00 00 00 00
       -1.40604725e-05 0.0018543813 -0.0008013192 0.0
000170 cf 5e a7 3a cd a3 f6 bb b4 ad 18 36 06 31 06 39
       0.0012769344 -0.007526851 2.2750874e-06 0.00012797498
000180 f9 c1 a6 ba 00 00 00 00 4f 00 09 3a 5c fa fd b9
       -0.0012722603 0.0 0.0005226181 -0.00048442453
000190 1e 4e 97 b5 01 5c 3e 3a 14 6f 4b ba 00 00 00 00
       -1.1273112e-06 0.00072616345 -0.00077603874 0.0
0001a0 78 2b 56 b9 48 a4 8f ba 37 e3 cf 35 97 2d 9e b9
       -0.00020424824 -0.0010958994 1.548883e-06 -0.00030170075
0001b0 86 bc f6 3a 00 00 00 00 fb 15 82 3a 8e 9e 3d bb
       0.0018824495 0.0 0.0009924764 -0.0028933617
0001c0 66 6c de b6 54 8a ce b9 c5 97 a2 3b 00 00 00 00
       -6.628735e-06 -0.00039394444 0.00496194 0.0
0001d0 55 53 18 3b f2 20 e4 bb 7a 77 03 b7 b4 ed 6e b9
       0.002324303 -0.006961935 -7.836026e-06 -0.00022786
0001e0 44 cc 50 b8 00 00 00 00 17 53 4c 39 81 c9 77 bb
       -4.97813e-05 0.0 0.0001948591 -0.0037809315
0001f0 dc 1a d7 36 08 be 55 ba 6b f8 e5 ba 00 00 00 00
       6.410626e-06 -0.0008153622 -0.0017545348 0.0
000200 d1 d6 a1 39 dc e9 77 ba b8 70 1d 36 ff 7e 85 39
       0.00030868364 -0.000945715 2.3460434e-06 0.00025462356
000210 9b 29 a5 b9 00 00 00 00 f5 04 8d b9 5b 27 85 b9
       -0.0003150225 0.0 -0.0002689731 -0.0002539706
000220 cb 39 57 b5 72 d8 0c b9 94 d9 88 b9 00 00 00 00
       -8.017784e-07 -0.00013432073 -0.0002610205 0.0
000230 6d e3 a0 b9 48 64 65 b9 c5 79 bc 35 9c 75 bc b9
       -0.00030687024 -0.000218765 1.4042531e-06 -0.0003594578
000240 85 a2 b3 bb 00 00 00 00 bc 79 a4 3a 58 f4 39 bc
       -0.0054820203 0.0 0.0012548487 -0.01134976
000250 e7 7f c5 36 54 59 cd 38 b3 a1 1a 3b 00 00 00 00
       5.8859473e-06 9.7918004e-05 0.0023594915 0.0
000260 f6 91 20 3a 04 88 17 bb c5 8b b0 b5 05 9c 3e ba
       0.00061252655 -0.0023121843 -1.31537e-06 -0.00072711735
000270 d0 89 b0 ba 00 00 00 00 f9 8f b7 3a b6 b0 b8 bb
       -0.0013468806 0.0 0.0014004699 -0.0056363
000280 f0 da 8f 35 1e b3 31 3a 53 57 bd 39 00 00 00 00
       1.071805e-06 0.00067787047 0.0003611395 0.0
000290 18 15 79 39 de 21 57 ba e4 cc 9c b5 d9 4d 54 b9
       0.00023754349 -0.0008206646 -1.1682537e-06 -0.00020246896
0002a0 40 06 8a 38 00 00 00 00 8b e4 18 39 60 63 32 ba
       6.581517e-05 0.0 0.00014580988 -0.0006804969
0002b0 d5 d8 82 b5 76 86 a1 b7 dd eb b2 3a 00 00 00 00
       -9.748861e-07 -1.9255309e-05 0.0013650615 0.0
0002c0 82 16 7b 3a b4 54 03 bb 9e 87 02 b7 69 64 54 39
       0.0009578244 -0.00200395 -7.78018e-06 0.00020255301
0002d0 8c 0d cb bb 00 00 00 00 d4 81 6a 39 f4 d4 09 bc
       -0.0061966833 0.0 0.00022364344 -0.008412588
0002e0 ef a1 00 37 52 a8 73 b9 de 0c 5c ba 00 00 00 00
       7.667098e-06 -0.0002323699 -0.00083942513 0.0
0002f0 48 33 8e 3a 86 2e df bb a2 e2 41 b5 4d 75 13 b9
       0.0010849023 -0.006810966 -7.2227897e-07 -0.0001406271
000300 46 b6 0c 3b 00 00 00 00 93 89 ba 3a 1d 40 5c bb
       0.0021470948 0.0 0.0014231674 -0.003360755
000310 0b d8 2c b7 b8 59 32 b9 cd e1 8a 3a 00 00 00 00
       -1.03023e-05 -0.00017008826 0.0010595858 0.0
000320 0c ae 13 ba 8e 30 7b 3b be d8 fe b5 83 c1 0d 3a
       -0.000563354 0.0038328501 -1.8987555e-06 0.00054075586
000330 d4 97 92 38 00 00 00 00 56 3b a9 b9 d7 49 5a 3a
       6.990103e-05 0.0 -0.000322784 0.0008327043
000340 22 16 b7 34 41 d5 a7 b8 7f 6d 37 3b 00 00 00 00
       3.410251e-07 -8.002902e-05 0.0027988849 0.0
000350 d6 10 7f 3a b8 51 af ba 2b 23 13 b7 d8 b1 10 b9
       0.0009729987 -0.0013375795 -8.770071e-06 -0.00013799162
000360 a9 78 93 b9 00 00 00 00 2c 85 b4 38 25 0b 23 39
       -0.00028127924 0.0 8.607874e-05 0.00015549043
000370 30 03 bb b5 26 d8 a3 39 f4 b8 9b b9 00 00 00 00
       -1.3933513e-06 0.00031250826 -0.00029701705 0.0
000380 bf 58 a7 39 f5 e5 8c 3a 08 84 07 b6 84 5f 33 3a
       0.00031918843 0.0010749685 -2.019342e-06 0.0006842541
000390 0d f4 0b bb 00 00 00 00 b7 de d6 39 3b 6f 59 bb
       -0.0021355182 0.0 0.00040983196 -0.003317787
0003a0 e4 f8 d0 b3 48 6d cf 37 8d 14 b5 3a 00 00 00 00
       -9.731028e-08 2.4727211e-05 0.0013815329 0.0
0003b0 af 83 01 3a b4 74 e7 ba 6c da f6 b5 c1 ec ef b9
       0.0004940582 -0.0017658682 -1.8391997e-06 -0.00045762028
0003c0 04 fb a2 3a 00 00 00 00 a2 32 9a ba 7e f2 60 3b
       0.0012434428 0.0 -0.0011764357 0.0034324224
0003d0 8a 2b c2 36 c4 1b 8e ba 6c db 1b bb 00 00 00 00
       5.786719e-06 -0.0010842015 -0.0023781909 0.0
0003e0 de 7d f4 39 c0 cd 14 bb c0 15 06 b2 b7 83 02 3a
       0.00046633085 -0.0022705644 -7.804772e-09 0.00049787335
0003f0 ba a6 fc 39 00 00 00 00 14 cd 25 39 00 09 88 3a
       0.00048189407 0.0 0.00015812024 0.0010378659

exp_avg_sq f4 [128, 6]
000000 5f 51 f3 3a 00 00 00 00 72 2d 3f 39 27 c1 20 3b
       0.0018563679 0.0 0.00018232109 0.002452919
000010 41 9c 9c 31 18 0f 88 39 2e b2 1b 37 00 00 00 00
       4.5579616e-09 0.00025951187 9.280206e-06 0.0
000020 96 9d 67 35 6d c7 e5 36 d6 0c 73 2d 8b ea ab 35
       8.6283524e-07 6.847948e-06 1.3815801e-11 1.2808754e-06
000030 bc f1 93 3a 00 00 00 00 c4 ef 26 39 11 5e 13 3b
       0.0011287252 0.0 0.00015920313 0.0022486488
000040 00 13 80 31 ce 40 82 39 1a 89 d7 38 00 00 00 00
       3.7274503e-09 0.00024843815 0.00010277536 0.0
000050 5a 33 99 37 38 d1 7e 39 c3 af 08 30 d8 b5 07 38
       1.8262934e-05 0.00024301268 4.9726284e-10 3.2355863e-05
000060 7b ae 04 3b 00 00 00 00 fc 9d 8c 39 6f 67 7d 3b
       0.00202456 0.0 0.00026820588 0.0038666388
000070 f5 04 fa 31 d1 0c c3 39 07 f4 f8 38 00 00 00 00
       7.276521e-09 0.00037202847 0.00011871015 0.0
000080 a6 54 93 37 8a 0f 26 39 68 2c af 2f 91 2a cc 37
       1.7563183e-05 0.00015836782 3.1863867e-10 2.4338517e-05
000090 2a 82 05 3a 00 00 00 00 a0 86 46 38 bf 26 08 3a
       0.00050929433 0.0 4.7332258e-05 0.0005193762
0000a0 45 44 b2 30 e3 95 a0 38 ee 01 86 3a 00 00 00 00
       1.2970608e-09 7.657313e-05 0.0010223964 0.0
0000b0 50 66 03 39 3d af db 3a e8 34 5d 31 8c f7 3f 39
       0.00012531248 0.0016760599 3.2189806e-09 0.00018307398
0000c0 63 02 3a 3a 00 00 00 00 24 ab 81 38 b2 be 35 3a
       0.00070956926 0.0 6.183077e-05 0.0006933018
0000d0 6c bb ae 30 65 95 a5 38 57 01 ab 38 00 00 00 00
       1.2713435e-09 7.89564e-05 8.154165e-05 0.0
0000e0 97 2e cd 37 52 26 3d 39 79 0b 0e 30 5c fb 19 38
       2.44596e-05 0.0001803872 5.16756e-10 3.671214e-05
0000f0 54 27 95 37 00 00 00 00 1c f9 24 36 72 cf 90 37
       1.7780498e-05 0.0 2.4582905e-06 1.7262737e-05
000100 8a 62 32 2e 36 b2 3b 36 4a e3 8a 38 00 00 00 00
       4.0560034e-11 2.7968904e-06 6.622689e-05 0.0
000110 49 3d 1a 37 ba 61 1b 39 29 9e 89 2f 82 30 82 37
       9.193384e-06 0.00014818358 2.5032534e-10 1.5519796e-05
000120 cb e7 01 39 00 00 00 00 55 b6 18 38 37 79 6d 39
       0.00012388748 0.0 3.6409434e-05 0.00022647237
000130 78 af 36 30 d8 25 2d 38 7b 8e ec 39 00 00 00 00
       6.646057e-10 4.128166e-05 0.00045119584 0.0
000140 34 51 64 38 99 93 47 3a 84 5b ce 30 63 3c a1 38
       5.4435062e-05 0.00076132413 1.5014483e-09 7.688326e-05
000150 07 76 28 3a 00 00 00 00 0f 64 f9 38 00 6d db 3a
       0.0006426279 0.0 0.000118918826 0.0016740859
000160 2e 76 62 31 fd 6d 3f 39 cd 5b a4 39 00 00 00 00
       3.2954506e-09 0.00018256153 0.00031348914 0.0
000170 48 c5 2a 38 62 80 07 3a 4f 1f 81 30 92 fe 85 38
       4.071489e-05 0.0005168972 9.394884e-10 6.3893516e-05
000180 69 50 b9 39 00 00 00 00 88 b1 cc 37 e0 09 a3 39
       0.0003534586 0.0 2.4401364e-05 0.0003109714
000190 e5 17 5f 30 89 bf 0f 38 a4 fa b0 39 00 00 00 00
       8.1160884e-10 3.4272238e-05 0.00033756078 0.0
0001a0 d3 f6 01 38 27 e0 9b 39 d1 14 33 30 eb 3f 55 38
       3.098587e-05 0.0002973091 6.51494e-10 5.0842686e-05
0001b0 a5 6e 9f 38 00 00 00 00 26 f8 4e 37 52 94 d5 38
       7.60232e-05 0.0 1.2336333e-05 0.00010184258
0001c0 a9 ce 78 2f 2a 26 8e 37 b0 1c 19 39 00 00 00 00
       2.2628889e-10 1.694549e-05 0.00014601904 0.0
0001d0 5f 45 9b 37 be 98 1f 39 01 a2 95 2f 86 ee cd 37
       1.8509743e-05 0.00015220323 2.7218053e-10 2.4548975e-05
0001e0 5b 78 02 3a 00 00 00 00 a5 f1 46 38 8f e5 15 3a
       0.0004977041 0.0 4.7431928e-05 0.0005718106
0001f0 e0 d9 a6 30 1a 6c 9b 38 3e 86 76 3a 00 00 00 00
       1.2140013e-09 7.4111114e-05 0.0009404159 0.0
000200 f1 20 ce 38 f6 24 8a 3a 6d 0e 3f 31 08 fe 2b 39
       9.828981e-05 0.001053958 2.7802358e-09 0.00016402465
000210 6d 06 c1 37 00 00 00 00 5c 69 a5 36 24 2a 16 38
       2.3010385e-05 0.0 4.9296486e-06 3.5802033e-05
000220 c2 6a d0 2e 4f ab 16 37 3b df f9 38 00 00 00 00
       9.477709e-11 8.980583e-06 0.00011914825 0.0
000230 88 d4 74 37 b7 8a 01 39 04 de 8e 2f d0 ae cc 37
       1.4593017e-05 0.00012354074 2.59874e-10 2.4400098e-05
000240 3f 7c 3c 3a 00 00 00 00 d9 4c b8 38 dd 4d aa 3a
       0.0007190145 0.0 8.788118e-05 0.0012993176
000250 4b 91 26 31 54 86 05 39 df 5f 0b 38 00 00 00 00
       2.4238769e-09 0.0001273391 3.322947e-05 0.0
000260 b3 95 89 36 ba ef 50 38 6f f0 d0 2e 99 93 da 36
       4.1003454e-06 4.9814327e-05 9.5014545e-11 6.514089e-06
000270 10 0d 8f 39 00 00 00 00 af 38 59 38 09 0f 20 3a
       0.00027284818 0.0 5.1789622e-05 0.0006105756
000280 04 a2 b3 30 23 a7 b4 38 3c 9d 08 38 00 00 00 00
       1.3070012e-09 8.6142005e-05 3.2571363e-05 0.0
000290 9b aa 79 36 f2 c0 0c 38 1f 0a 87 2e d5 2b cc 36
       3.7203197e-06 3.3558295e-05 6.140887e-11 6.0847765e-06
0002a0 bd bb e6 36 00 00 00 00 63 ba 70 35 3f 7a fe 36
       6.8763898e-06 0.0 8.9678196e-07 7.584021e-06
0002b0 ca 06 90 2d ff c7 b6 35 2b 9f 3c 39 00 00 00 00
       1.637392e-11 1.3618263e-06 0.00017988372 0.0
0002c0 c7 0b 30 38 59 51 ec 39 fb 9c 5b 30 fd 79 a6 38
       4.197264e-05 0.00045074036 7.989482e-10 7.938219e-05
0002d0 73 95 38 3a 00 00 00 00 7a 48 b4 38 c4 a8 98 3a
       0.00070413126 0.0 8.596569e-05 0.0011646976
0002e0 ef c8 09 31 bb ff 02 39 d7 df 64 39 00 00 00 00
       2.0050341e-09 0.00012493033 0.00021827161 0.0
0002f0 b7 06 2f 38 21 9b 05 3a 64 dd 80 30 7e 8a 92 38
       4.1729505e-05 0.00050966634 9.376149e-10 6.987619e-05
000300 a7 3b eb 38 00 00 00 00 db 02 c1 37 ec 6f 7d 39
       0.00011216784 0.0 2.3008723e-05 0.00024169654
000310 91 08 11 30 14 db 3a 38 3f 09 5e 39 00 00 00 00
       5.2762866e-10 4.4549888e-05 0.00021175014 0.0
000320 89 0e 2d 38 e7 1b d4 39 5a 40 82 30 b9 f3 9e 38
       4.125995e-05 0.0004045658 9.477035e-10 7.579424e-05
000330 f0 6d 0f 3a 00 00 00 00 df d2 65 38 51 b4 0b 3a
       0.0005471399 0.0 5.4794244e-05 0.00053292984
000340 40 5c 8a 30 a7 da a2 38 60 51 02 39 00 00 00 00
       1.006704e-09 7.765489e-05 0.0001242808 0.0
000350 bd 8b ad 37 67 7c 4b 39 b8 6f d4 2f 92 1f 08 38
       2.0688278e-05 0.00019405932 3.8641956e-10 3.245433e-05
000360 65 16 a1 37 00 00 00 00 5d c9 19 36 55 51 2d 37
       1.9203124e-05 0.0 2.2915985e-06 1.033054e-05
000370 ce c7 0c 2e ed e1 04 36 c3 ad ac 37 00 00 00 00
       3.2009777e-11 1.980104e-06 2.0584912e-05 0.0
000380 26 4f 69 36 67 f3 dd 37 cc 2d 90 2e eb 5c 93 36
       3.4765776e-06 2.6458596e-05 6.556497e-11 4.3917585e-06
000390 26 15 a6 39 00 00 00 00 d1 1a 1f 38 87 02 f5 39
       0.00031677744 0.0 3.793353e-05 0.00046731925
0003a0 b7 4a 8e 30 64 73 6a 38 5a fe c1 37 00 00 00 00
       1.0353095e-09 5.5897413e-05 2.3125835e-05 0.0
0003b0 28 89 41 36 2f ae fb 37 41 ab 6c 2e 5e ce 8a 36
       2.8839077e-06 3.0002642e-05 5.381229e-11 4.136745e-06
0003c0 61 16 ea 38 00 00 00 00 15 db 6f 37 0b 29 5a 39
       0.00011162158 0.0 1.4296519e-05 0.0002080539
0003d0 b9 24 d0 2f ec 1c 9c 37 f6 6c 50 3a 00 00 00 00
       3.7861073e-10 1.8610117e-05 0.0007950807 0.0
0003e0 fd c2 6f 38 8c 90 46 3a 3a b1 e3 30 9d 40 a6 38
       5.7163637e-05 0.000757464 1.6566795e-09 7.927532e-05
0003f0 55 0d 0a 36 00 00 00 00 01 7e 00 35 a1 dd c3 36
       2.0571363e-06 0.0 4.7867076e-07 5.837254e-06

exp_avg f4 [128]
000000 53 69 0c 3b 03 57 16 b9 2c 72 a6 39 e9 49 3b b9
       0.0021425083 -0.00014337529 0.00031747052 -0.00017861243
000010 16 1c 40 bb a5 fc a6 ba 79 da e2 39 3c f8 d5 ba
       -0.0029313616 -0.0012740089 0.00043268854 -0.001632459
000020 e6 be 43 39 5c 99 b8 ba 73 e2 38 b9 9e d9 ff 39
       0.00018667764 -0.0014083791 -0.00017631966 0.00048799528
000030 6b 16 9a 3a 58 cf 90 3a a1 9f e1 3a 17 3d e7 ba
       0.0011755949 0.0011048121 0.0017213711 -0.0017642108
000040 0c fe 50 39 36 18 ee b8 be ec 2f ba c6 34 bf ba
       0.00019931066 -0.00011353234 -0.00067109975 -0.0014587871
000050 ad f4 a9 ba 30 e3 71 39 35 d1 d4 b8 28 36 46 37
       -0.0012966596 0.00023068185 -0.000101479156 1.1814329e-05
000060 01 2b 22 bb a8 e3 1f ba 9e fa 8a ba 46 1e c9 b8
       -0.002474487 -0.0006099292 -0.0010603254 -9.590066e-05
000070 0b 98 19 b9 48 63 25 ba c3 88 06 bb 52 ed cc ba
       -0.00014647857 -0.00063090445 -0.0020528294 -0.0015634692
000080 10 6e 7f ba 24 9b 74 3a 7c c5 a4 39 4c 45 ac b9
       -0.00097438786 0.0009330979 0.00031427655 -0.00032858027
000090 6b d7 2c 39 84 4e 07 3a 0c d8 fa b9 d2 1b d3 b9
       0.00016483448 0.0005161541 -0.00047844683 -0.00040265784
0000a0 bf 54 9f 39 2c 03 7a b9 ca 93 9e 39 6c a2 9f 39
       0.00030389984 -0.0002384304 0.0003024622 0.00030447857
0000b0 3a 09 d0 b9 e8 6d 44 ba d4 23 94 ba f8 26 48 3b
       -0.00039679726 -0.0007493184 -0.0011302182 0.0030540805
0000c0 90 a7 a6 ba e7 a6 ed ba 83 e2 15 ba b0 20 a2 39
       -0.0012714732 -0.0018131406 -0.0005717652 0.00030923402
0000d0 86 70 28 ba ce e9 b5 ba 45 79 cb 39 a2 38 6b b9
       -0.00064254587 -0.0013878883 0.0003880953 -0.00022432444
0000e0 68 7b e0 3a 63 4e 1e ba ee 8d 3d 3a 98 97 92 ba
       0.0017126622 -0.0006038902 0.0007230927 -0.0011184094
0000f0 d0 76 68 38 02 a4 d9 38 8a 36 4d 3a e2 62 86 38
       5.5423763e-05 0.00010377915 0.00078282563 6.408036e-05
000100 ab 39 f0 ba 41 f7 c4 ba 6f 23 15 3a 06 2f c1 39
       -0.0018327733 -0.0015027301 0.0005689179 0.00036846864
000110 60 f3 e6 3a 8b a7 a2 39 c4 99 f9 37 60 8c c4 3a
       0.0017620139 0.00031023877 2.9754716e-05 0.0014995448
000120 94 d9 c9 3a b2 3d 1d bb 94 ae ef 38 1d 73 f2 ba
       0.0015399926 -0.0023993072 0.00011428926 -0.0018497441
000130 32 18 bd b9 fc 9a c2 b9 df 43 bf 39 4b c8 43 3a
       -0.00036066916 -0.00037118036 0.00036480927 0.00074685056
000140 3d ea 00 3b d3 0b 0d 3a 54 e9 69 38 de 01 b8 39
       0.0019670867 0.0005380485 5.5768833e-05 0.00035096606
000150 fe ad 47 3a 0c 3c 46 3a c0 d2 44 37 78 6e 87 3a
       0.00076171744 0.0007562048 1.1731579e-05 0.0010332605
000160 c0 7a 33 ba 6e 06 9b ba 08 13 a7 39 f0 1a 2d 3b
       -0.0006846599 -0.0011827478 0.00031866902 0.002641376
000170 c7 98 c5 b9 1c 79 1b 3a 3c ca db 3a 94 db 06 38
       -0.00037688596 0.00059308275 0.0016768645 3.2152588e-05
000180 9e 5d b1 3a 56 c8 bf b9 cf 32 b5 ba 21 d1 23 ba
       0.0013531928 -0.0003657962 -0.0013824346 -0.0006249119
000190 a6 d0 76 3a b8 cb 81 3b aa f5 6d 3a 6a 44 a7 ba
       0.00094152463 0.0039610527 0.00090774393 -0.0012761478
0001a0 9b ed b9 ba ac b8 bf 38 9f 71 b1 38 01 69 90 39
       -0.0014185192 9.1419875e-05 8.461181e-05 0.00027544054
0001b0 c8 a1 8d 3a 26 d8 b8 3a a7 ee 0f 3b d6 48 a9 39
       0.0010805661 0.0014102503 0.0021962316 0.0003228846
0001c0 1f d0 60 ba d2 4a 63 b9 8e b1 66 ba df 77 1e ba
       -0.00085759343 -0.0002167628 -0.00088002614 -0.0006045084
0001d0 a6 19 c6 39 54 6a 04 39 e2 b4 02 3a 24 c8 8b b9
       0.00037784613 0.00012628111 0.000498606 -0.00026661262
0001e0 27 70 8d ba d7 d1 09 3a 9a 05 72 39 3a 25 83 ba
       -0.001079087 0.0005257404 0.00023081005 -0.0010005601
0001f0 38 6b 13 39 07 61 62 3b 06 85 b0 ba 24 68 81 bb
       0.00014058955 0.0034542696 -0.0013467378 -0.003949182
